results/Test9/Jumper/checkpoint.pt (torch, 927964 bytes, 57 tensors)

network_body._body_endoder.seq_layers.0.weight f4 [64, 3]
-0.34308624 -0.048721936 -0.6613272 -0.4278714 -0.24923481 0.067758195 -0.09046962 -0.017684868
-1.1855868 1.0096608 0.53330964 -0.26847562 -0.43696418 -0.068594575 0.5836223 0.014221531
-0.03662733 0.28870454 0.7902589 0.04544873 -0.4322307 -0.81005055 0.5036904 -0.62074625
-0.5494362 0.40448338 0.5529754 0.32132444 -0.67469746 0.024379453 -0.16641876 0.62541586
0.19164357 0.32283026 -0.91189784 0.16662824 0.35575712 0.85117346 0.21065919 -0.11786354
-0.41461486 0.9130051 0.1695022 -0.9252411 -0.4400853 0.54822093 -0.44974828 -0.87954724
-0.33731437 0.13468388 0.13316767 -0.19566324 0.022774037 -0.74935925 0.080560714 1.0436364
-0.06264264 -0.83836365 0.18270189 -0.7094446 0.0033284205 0.1600592 -0.458398 -0.10515959
0.9240941 0.45001173 -0.73977244 -0.52727354 0.98380846 0.7095296 0.5117917 0.15569498
-0.16165859 -0.67852783 -0.48090762 -0.07912833 0.5558629 -0.04398453 0.20865352 0.16326502
-0.77554494 0.037153304 -0.5252193 -0.72839236 -0.01546193 -0.69726634 -0.29884234 -0.0015224909
-0.4628154 -0.19966777 -0.8311745 -0.13983281 1.2011851 0.3120621 -0.25543875 0.84171414
0.40694046 -0.28734416 -0.17608309 -0.23975377 -0.3396814 -0.30317575 -0.10792352 0.030122196
0.40753293 0.44030026 0.060171984 -0.9217485 0.52572095 0.93274266 -1.1195382 0.52293545
-0.43733874 0.66697323 -0.97293526 -0.16393422 -0.36323085 0.05020722 0.84333473 -0.57510376
0.606734 0.12886883 -0.030321052 -0.1646716 0.10251438 0.47244236 -0.3418506 1.0577223
-0.42634022 0.67042184 -0.97654766 -0.23094904 0.0013017349 -0.041003253 0.9502352 0.6839409
0.25819603 -1.146113 -0.07216658 -0.14711908 0.45254627 -0.03498654 0.2873067 1.1324034
-0.9197213 -1.0303918 -0.5715593 -0.021214623 -0.29097953 -0.10831176 0.2923532 -0.4203959
-0.036758363 0.54941446 0.6655708 -0.4140593 1.2339212 -0.45499778 0.23808028 0.59909725
-0.79929936 1.1904145 0.4300057 -0.18185785 0.9083083 -1.0619314 0.74967486 -0.16229121
0.87247527 0.4146831 -0.07834442 -0.22388296 0.40005928 0.79867345 -0.07054665 -0.0857998
0.31545168 0.3588969 -0.8636335 -0.8051606 0.58690345 -1.2269084 -0.52729964 0.13280721
-0.6880481 -0.026377367 0.4343211 0.41095212 1.2767875 -0.24207257 0.059336063 0.29943192
00000000: 00a9 afbe a790 47bd bd4c 29bf f611 dbbe
00000010: 6937 7fbe cfc4 8a3d 2348 b9bd dbdf 90bc
00000020: 4fc1 97bf 913c 813f fb86 083f a375 89be
00000030: c5b9 dfbe 507b 8cbd 4568 153f 6d01 693c
00000040: 8a06 16bd 15d1 933e 684e 4a3f 7328 3a3d
00000050: 584d ddbe 795f 4fbf dbf1 003f 3ae9 1ebf
00000060: daa7 0cbf 7218 cf3e cc8f 0d3f a384 a43e
00000070: f9b8 2cbf 6bb7 c73c ae69 2abe 411b 203f
00000080: 363e 443e 024a a53e 2372 69bf 98a0 2a3e
00000090: cc25 b63e 81e6 593f 0bb7 573e 7162 f1bd
000000a0: 6648 d4be b4ba 693f fc91 2d3e 9adc 6cbf
000000b0: dc52 e1be 3558 0c3f 6845 e6be 022a 61bf
000000c0: 78b4 acbe 92ea 093e 1b5d 083e f25b 48be
000000d0: 9e90 ba3c 02d6 3fbf 04fd a43d e195 853f
000000e0: c94a 80bd 009f 56bf 3416 3b3e 299e 35bf
000000f0: a121 5a3b 8fe6 233e 25b3 eabe e95d d7bd
00000100: 6e91 6c3f f067 e63e ba61 3dbf 66fb 06bf
00000110: dfda 7b3f bba3 353f c804 033f 816e 1f3e
00000120: d489 25be 00b4 2dbf 8639 f6be 090e a2bd
00000130: 084d 0e3f 1f29 34bd 45a9 553e f22e 273e
00000140: 1d8a 46bf 102e 183d c674 06bf ec77 3abf
00000150: 0954 7dbc 0c80 32bf dd01 99be 518e c7ba
00000160: 24f6 ecbe b575 4cbe dac7 54bf 5530 0fbe
00000170: 6fc0 993f 9bc6 9f3e dec8 82be 947a 573f
00000180: 805a d03e c61e 93be 204f 34be 0382 75be
00000190: b8ea adbe da39 9bbe 0207 ddbd d3c2 f63c
000001a0: 28a8 d03e 096f e13e e676 763d b6f7 6bbf
000001b0: a695 063f 39c8 6e3f 074d 8fbf 19df 053f
000001c0: ddea dfbe c2be 2a3f 4912 79bf 5fde 27be
000001d0: 65f9 b9be 16a6 4d3d c9e4 573f 003a 13bf
000001e0: eb52 1b3f 31f6 033e db63 f8bc ac9f 28be
000001f0: 0ff3 d13d f7e3 f13e 0b07 afbe 7263 873f
00000200: 4449 dabe c4a0 2b3f 07ff 79bf e87d 6cbe
00000210: fa9e aa3a 07f3 27bd 9d42 733f c016 2f3f
00000220: 4532 843e d5b3 92bf 12cc 93bd 62a6 16be
00000230: 25b4 e73e 0c4e 0fbd dd19 933e 98f2 903f
00000240: db72 6bbf e1e3 83bf b651 12bf 4aca adbc
00000250: 45fb 94be 8ed2 ddbd 52af 953e 223e d7be
00000260: f08f 16bd 6da6 0c3f d962 2a3f 95ff d3be
00000270: 21f1 9d3f 78f5 e8be 51cb 733e 705e 193f
00000280: e29e 4cbf 815f 983f b529 dc3e f238 3abe
00000290: e586 683f 5eed 87bf b1ea 3f3f ab2f 26be
000002a0: 8a5a 5f3f 5851 d43e 0a73 a0bd 9341 65be
000002b0: 92d4 cc3e dd75 4c3f c37a 90bd ceb7 afbd
000002c0: e282 a13e 56c1 b73e 1617 5dbf 011f 4ebf
000002d0: 4e3f 163f 560b 9dbf 1cfd 06bf 9dfe 073e
000002e0: ec23 30bf 5915 d8bc 565f de3e 5168 d23e
000002f0: c66d a33f dfe1 77be 5f0a 733d 244f 993e

network_body._body_endoder.seq_layers.0.bias f4 [64]
0.033067077 -0.015920576 0.0001590631 -0.014555662 0.057463042 0.0008033602 -0.005128199 0.12835597
0.0606484 -0.0144891115 0.052756168 -0.036352884 0.04947385 0.041992486 -0.009162771 -0.0009273472
0.03930818 -0.01865433 0.038287688 -0.05262628 -0.01272587 0.05138552 -0.003821858 -0.01627852
0.033486303 0.055056456 -0.02310313 0.048249077 0.01978018 -0.010304394 0.09667266 0.01767042
-0.038380504 0.12639172 0.03253473 0.03558968 -0.020752985 0.0040970645 -0.033751797 0.05744158
-0.05080554 0.050220422 0.061411425 -0.018706717 0.037053764 0.0561288 -0.023226904 0.044731706
0.11266289 -0.01117028 -0.03309189 -0.11161017 -0.0059876316 -0.020111207 0.028546859 0.077266484
-0.04098315 0.043339532 0.049844652 0.012293977 0.03478966 -0.029253002 0.034925748 0.06070211
00000000: 5871 073d de6b 82bc 2dca 2639 df7a 6ebc
00000010: 5e5e 6b3d 9798 523a 730a a8bb bf6f 033e
00000020: 756a 783d bd63 6dbc da16 583d c3e6 14bd
00000030: 17a5 4a3d 5000 2c3d 721f 16bc 3819 73ba
00000040: 9d01 213d f7d0 98bc 8dd3 1c3d a78e 57bd
00000050: 2b80 50bc 9f79 523d 2378 7abb 885a 85bc
00000060: ef28 093d e182 613d c642 bdbc d3a0 453d
00000070: 0b0a a23c c3d3 28bc 51fc c53d 8fc1 903c
00000080: e034 1dbd d56c 013e 2343 053d 7cc6 113d
00000090: 2a02 aabc ab40 863b 533f 0abd dd47 6b3d
000000a0: 7819 50bd eeb3 4d3d 8c8a 7b3d d43e 99bc
000000b0: b0c5 173d 50e7 653d 5946 bebc 9838 373d
000000c0: cdbb e63d 8d03 37bc 5d8b 07bd df93 e4bd
000000d0: e533 c4bb 42c0 a4bc 1adb e93c e43d 9e3d
000000e0: f3dd 27bd cb84 313d e829 4c3d ad6c 493c
000000f0: 9a7f 0e3d fea3 efbc 4d0e 0f3d c7a2 783d

network_body._body_endoder.seq_layers.2.weight f4 [64, 64]
-0.22652133 0.004649779 0.01324663 -0.14828861 0.1851002 0.048572216 0.003927003 0.089570425
0.1125891 0.096576184 0.100801714 -0.18070763 -0.14003387 0.12493464 -0.185519 -0.28289026
-0.1017866 -0.14108686 -0.33934212 0.12447896 0.058674894 0.18071342 -0.13759756 0.13163635
-0.10523658 -0.025884934 -0.22483142 -0.013732264 -0.18207248 -0.17603917 -0.05891929 0.036513746
0.0012263416 0.17134121 0.20199424 0.04130344 0.03264325 -0.023303526 -0.344456 -0.24881743
-0.20022827 0.20752104 -0.05538859 -0.15157682 0.006778263 -0.054485805 0.15517661 0.25646585
-0.016673291 -0.13511527 0.112473376 -0.14946862 0.05816958 0.15694429 0.13126953 -0.08842687
0.2895058 0.18184891 0.24630322 -0.16214204 -0.12124213 0.16045211 0.1989628 0.18917254
-0.08714649 0.006626864 0.122981556 0.0099719055 0.12261 0.035644833 0.043288987 -0.08896374
-0.07574175 0.029499551 0.122267276 -0.12371996 -0.0071522514 -0.055214196 -0.14630264 -0.059422303
-0.2013838 -0.13665351 0.28499848 0.112512365 -0.07682281 -0.2898642 0.033544816 -0.027423825
0.048384372 0.22751884 0.350421 0.16816495 -0.057100687 -0.117327526 -0.061854832 -0.048477568
0.13307795 0.149762 -0.30336243 0.1902679 0.10023906 -0.1446835 -0.10053327 0.41582376
-0.2046637 -0.23907419 0.007292952 0.18764469 -0.07095175 0.19268307 -0.12241378 -0.26166892
-0.28380933 -0.09806167 0.09024796 0.018515058 0.008740545 -0.12316802 -0.044864893 0.07281506
-0.0021024614 -0.26666975 0.006744375 0.27546355 0.2254618 0.08269658 -0.0844319 0.009800056
-0.12760514 -0.036641616 -0.16142905 -0.028682735 -0.1690141 0.056480024 -0.26845902 -0.12995493
0.085400194 -0.04292795 0.09916957 -0.072304346 -0.068174206 0.26559561 -0.4525756 -0.3141402
0.14636451 -0.070209175 0.3248843 0.019904329 -0.10510119 0.091411486 0.21029279 0.035004273
0.030173765 0.25515112 -0.21867187 -0.03325413 0.03729036 0.0120434845 0.06674845 0.060752902
-0.10205338 -0.07304813 0.26563662 -0.055401582 -0.08668103 -0.1013174 0.21416113 0.22001822
0.13889705 0.02156769 0.34782416 0.08360992 0.038669866 -0.25240153 0.17618874 0.071452014
-0.26509976 -0.04621025 -0.020422943 -0.06102046 -0.23259225 -0.16908748 0.07098149 0.015150453
0.14003466 0.21902719 0.10503087 -0.10476498 0.020949595 -0.21739928 0.074852414 0.032738008
0.03635068 0.24764898 0.40414637 0.026095936 -0.31268638 -0.25844476 -0.028398208 0.15905067
-0.18754117 0.13017802 0.20821762 0.32524088 0.071404904 -0.30582604 0.30374253 0.04662315
-0.031187017 -0.016485853 -0.12498926 -0.15704721 0.041317414 -0.2377748 -0.16260424 -0.010102649
-0.0510385 -0.0986213 0.1045658 0.0911419 0.16453008 0.059568886 -0.24276502 -0.111442484
0.21839567 0.032144606 -0.22740151 0.18907613 0.1647497 0.08035768 -0.11790091 0.01947073
0.17240462 -0.26293257 -0.01051871 -0.07982707 -0.21930116 0.09052193 -0.23044036 -0.053581882
0.025811866 0.068790734 -0.23620543 0.066128 -0.10848491 0.022470808 0.003716938 0.10643316
0.14214404 -0.20253836 -0.045975834 0.18279725 0.09373262 0.015272878 0.08088109 -0.114432365
00000000: 35f5 67be 2c5d 983b 6508 593c f8d8 17be
00000010: e88a 3d3e a9f3 463d 17ae 803b b370 b73d
00000020: 1d95 e63d bcc9 c53d 2171 ce3d 6c0b 39be
00000030: 0a65 0fbe bcdd ff3d b1f8 3dbe fed6 90be
00000040: 7e75 d0bd 1379 10be 40be adbe d3ee fe3d
00000050: 1655 703d f00c 393e 60e6 0cbe aecb 063e
00000060: 4786 d7bd a40c d4bc 353a 66be 4afd 60bc
00000070: 3571 3abe 9d43 34be 5a55 71bd 708f 153d
00000080: 32bd a03a 1274 2f3e 94d7 4e3e cc2d 293d
00000090: eeb4 053d 09e7 bebc 895c b0be ffc9 7ebe
000000a0: a408 4dbe 6580 543e 25df 62bd f436 1bbe
000000b0: 311c de3b 822c 5fbd 9ee6 1e3e 7e4f 833e
000000c0: 6d96 88bc a85b 0abe 7158 e63d 4d0e 19be
000000d0: 3a43 6e3d 01b6 203e 856b 063e 2619 b5bd
000000e0: 1b3a 943e 9a36 3a3e e936 7c3e 9008 26be
000000f0: cb4d f8bd 8f4d 243e e7bc 4b3e 72b6 413e
00000100: dc79 b2bd 2a26 d93b c1dd fb3d 3461 233c
00000110: f41a fb3d 5100 123d cb4f 313d 9f32 b6bd
00000120: 7e1e 9bbd 0ba9 f13c 4467 fa3d e460 fdbd
00000130: 6f5d eabb 4828 62bd 5cd0 15be cd64 73bd
00000140: 8e37 4ebe e6ee 0bbe 52eb 913e e26c e63d
00000150: 4755 9dbd 1569 94be 4a66 093d eea7 e0bc
00000160: b12e 463d b3fa 683e 626a b33e 6f33 2c3e
00000170: 69e2 69bd 6a49 f0bd 7e5b 7dbd 6a90 46bd
00000180: 9645 083e 365b 193e 5252 9bbe 97d5 423e
00000190: 234a cd3d e927 14be 63e4 cdbd dae6 d43e
000001a0: 5c93 51be ddcf 74be b7f9 ee3b ee25 403e
000001b0: 274f 91bd b64e 453e 13b4 fabd 78f9 85be
000001c0: 754f 91be 8fd4 c8bd ecd3 b83d e4ac 973c
000001d0: 8134 0f3c 843f fcbd 40c4 37bd 1020 953d
000001e0: 73c9 09bb f088 88be ebff dc3b 8f09 8d3e
000001f0: 75df 663e d35c a93d a2ea acbd 6a90 203c
00000200: ecaa 02be 8515 16bd a84d 25be 0ef8 eabc
00000210: 0812 2dbe 9957 673d 7673 89be e812 05be
00000220: 4ce6 ae3d 38d5 2fbd 6a19 cb3d 4d14 94bd
00000230: eb9e 8bbd 26fc 873e fdb7 e7be fcd6 a0be
00000240: 94e0 153e d4c9 8fbd 3c57 a63e 670e a33c
00000250: 4b3f d7bd f235 bb3d fe56 573e a460 0f3d
00000260: f92e f73c 2ba3 823e 85eb 5fbe 7c35 08bd
00000270: c7bd 183d 0952 453c 69b3 883d 09d8 783d
00000280: 5d01 d1bd 429a 95bd 8601 883e c5ec 62bd
00000290: d385 b1bd 7f7f cfbd 0e4d 5b3e 754c 613e
000002a0: 073b 0e3e b9ae b03c 0216 b23e ae3b ab3d
000002b0: 4b64 1e3d c63a 81be d26a 343e 6f55 923d
000002c0: 28bb 87be f646 3dbd 044e a7bc 97f0 79bd
000002d0: aa2c 6ebe 4525 2dbe be5e 913d 9b39 783c
000002e0: 3f65 0f3e aa48 603e 6d1a d73d 068f d6bd
000002f0: 7c9e ab3c eb9d 5ebe 394c 993d 4a18 063d
00000300: 73e4 143d b297 7d3e 46ec ce3e 25c7 d53c
00000310: 6e18 a0be df52 84be 5ca3 e8bc 2ede 223e
00000320: cb0a 40be 634d 053e 0037 553e f985 a63e
00000330: bc3c 923d 3b95 9cbe 2484 9b3e ebf7 3e3d
00000340: ea7b ffbc 570d 87bc 5ffa ffbd fcd0 20be
00000350: 733c 293d 3d7b 73be ba81 26be 9585 25bc
00000360: bf0d 51bd f7f9 c9bd 9826 d63d 9ba8 ba3d
00000370: 937a 283e 81fe 733d 6597 78be f53b e4bd
00000380: 1da3 5f3e 10aa 033d f1db 68be 2c9d 413e
00000390: 25b4 283e 9192 a43d 0876 f1bd 1581 9f3c
000003a0: d68a 303e 199f 86be ab56 2cbc 607c a3bd
000003b0: 7c90 60be 9063 b93d 8ff8 6bbe ad78 5bbd
000003c0: 6873 d33c 28e2 8c3d d6df 71be 1e6e 873d
000003d0: 562d debd b314 b83c df97 733b a1f9 d93d
000003e0: 358e 113e 3766 4fbe 2851 3cbd 342f 3b3e
000003f0: e3f6 bf3d 183b 7a3c fca4 a53d 845b eabd

network_body._body_endoder.seq_layers.2.bias f4 [64]
0.029033722 -0.0064869435 0.032300554 0.0270675 0.01594804 -0.029186416 0.029269805 0.04108959
0.023456676 -0.016390875 0.028066356 -0.0037805575 0.022207642 0.04669136 -0.048180226 0.03899064
0.0067894 -0.021784881 -0.0051640808 0.043624163 0.09201462 -0.06936295 -0.0059437756 -0.0070942733
0.03701708 -0.0020026716 0.07189585 -0.02632709 0.0035031114 0.026930457 0.04976751 0.02534272
0.030055588 -0.01337122 0.010111194 -0.015534028 0.05022928 -0.026596466 0.04820307 0.02075535
0.023174722 -0.018940091 0.021660492 0.009353304 -0.030608917 0.020869894 -0.0022052461 0.016517451
0.062314097 0.030910447 -0.0064960294 0.051306404 0.047361523 -0.01668166 0.04289862 -0.0029283909
0.04191998 -0.011956939 -0.017310318 0.0060745087 0.02404541 0.020613043 0.048449043 0.008853015
00000000: 21d8 ed3c 6d90 d4bb 964d 043d a9bc dd3c
00000010: 77a5 823c 5a18 efbc 3bc7 ef3c 8f4d 283d
00000020: 3728 c03c 2846 86bc 6aeb e53c 3bc3 77bb
00000030: cdec b53c 713f 3f3d a158 45bd a6b4 1f3d
00000040: 9d79 de3b 3576 b2bc 7337 a9bb 40af 323d
00000050: 2972 bc3d 2a0e 8ebd 01c4 c2bb 1477 e8bb
00000060: 399f 173d 413f 03bb 223e 933d e9ab d7bc
00000070: 7594 653b 439d dc3c 04d9 4b3d 899b cf3c
00000080: 2337 f63c f612 5bbc 6ca9 253c 7082 7ebc
00000090: 38bd 4d3d d5e0 d9bc 9570 453d 2007 aa3c
000000a0: ead8 bd3c 4028 9bbc 5871 b13c 9a3e 193c
000000b0: 8dbf fabc 57f7 aa3c e485 10bb 9b4f 873c
000000c0: 113d 7f3d e837 fd3c a5dc d4bb aa26 523d
000000d0: 28fe 413d faa7 88bc 77b6 2f3d 3fea 3fbb
000000e0: 49b4 2b3d 09e7 43bc 5ece 8dbc ac0c c73b
000000f0: e1fa c43c afdc a83c 8172 463d 3c0c 113c

network_body.lstm.lstm.weight_ih_l0 f4 [256, 64]
0.1787182 -0.021142075 0.1393296 0.21417771 -0.18271703 0.25799328 0.08729144 0.049188145
-0.015871571 -0.21661538 0.31115305 -0.039316904 0.13469736 0.124052495 -0.06596274 0.15717597
0.17356333 -0.16960496 -0.2295527 -0.19105063 0.18188496 -0.18511891 -0.18730736 0.11021228
-0.0296292 0.09443937 0.20223719 -0.0824313 0.037361443 0.08479874 -0.12210215 0.19212967
-0.10447758 0.14357407 -0.115521334 -0.037815798 0.23714593 -0.06723954 0.09508031 0.043103553
0.14078757 -0.28760508 -0.12267341 -0.09862356 0.09341594 0.21887013 0.016451612 0.11594249
0.07009385 0.1176915 0.25952387 -0.036130764 -0.04301905 0.04871852 0.09775088 0.025068946
-0.11108509 -0.3226443 -0.17299531 0.20352694 0.1210845 0.18589172 -0.008511157 0.09140457
-0.012395489 0.1358454 -0.03275599 0.13258538 -0.12372213 0.15882446 -0.038440313 -0.06315707
0.023859775 -0.14260887 0.17093953 0.1862384 0.19688085 0.1557029 0.037782885 0.11196849
0.11834443 0.11592821 0.16970229 -0.18204744 -0.02488742 0.090220846 -0.22312598 0.0021430315
0.07978581 -0.21830422 -0.01301881 -0.07828068 0.15066165 -0.09103032 -0.064442925 0.048885062
-0.16388202 -0.10085995 -0.0885532 -0.056316055 0.16972518 -0.12420452 -0.11280192 0.23281136
0.22001171 0.0868786 -0.22731282 0.17281026 -0.098228596 -0.12785324 0.16390392 0.089407325
0.11667807 0.030801464 0.119843654 0.20432286 0.05718149 0.152836 0.124698855 -0.019072197
-0.15844758 -0.20578499 0.002000349 0.14671007 0.08867774 -0.09626247 -0.18386188 -0.0072060702
-0.18880208 0.10194603 -0.19039786 -0.1505163 0.19635262 -0.2030424 -0.15429312 -0.16289215
0.0840805 -0.0680913 -0.16090626 0.18965359 -0.08006245 0.29434666 -0.08571944 -0.08479066
-0.12113874 0.16127671 0.115203924 0.040842675 -0.15258144 0.13349923 -0.072266914 0.15267207
-0.11422139 -0.13520649 0.15613507 0.11598664 -0.08792386 -0.060119502 -0.085441545 -0.1637122
0.021924542 0.24033748 0.28344715 0.16821161 0.1343912 -0.097000904 0.20050052 -0.07121181
0.052360296 0.14500794 0.020270145 -0.09817724 0.22302064 0.19528417 0.109583266 -0.060204618
-0.19391848 -0.18701534 0.21693495 0.017444536 0.16899492 0.09876249 0.14197575 -0.08827592
0.20559186 0.04585293 -0.085638344 0.005056162 0.0034251357 0.10546777 -0.18636279 0.21568343
0.1273675 -0.018674044 0.024711981 -0.21769105 0.2049936 0.03469019 0.18592922 0.17037421
-0.16175164 -0.19255544 -0.18612222 -0.20024711 0.081073724 0.07680502 -0.08590109 -0.17273188
-0.110103674 -0.17976195 -0.14301533 -0.09792011 -0.09395915 0.109505765 -0.16401164 -0.09738807
0.18207243 -0.20298994 -0.017553393 0.07917592 -0.006778451 -0.24523582 0.13663697 0.049435657
0.06775587 0.021976149 -0.17077379 -0.15722135 -0.062486876 0.0951758 0.073482335 -0.12810026
-0.110204324 0.15978634 0.0410127 0.02526861 0.16996121 -0.07398137 0.14008762 0.18185084
0.11110186 0.097951815 -0.122912236 0.21938184 -0.072035894 -0.10009863 -0.2060507 0.21810533
0.042687826 -0.07341342 -0.03536878 0.13605902 -0.14469142 0.053816013 0.21425086 0.11187753
00000000: e701 373e 2532 adbc 6bac 0e3e 6751 5b3e
00000010: 2c1a 3bbe b217 843e dbc5 b23d 8279 493d
00000020: 1905 82bc 6cd0 5dbe 744f 9f3e c30a 21bd
00000030: 1bee 093e 3c0f fe3d 7917 87bd bdf2 203e
00000040: 96ba 313e ecac 2dbe dd0f 6bbe c7a2 43be
00000050: 0d40 3a3e d08f 3dbe 80cd 3fbe fab6 e13d
00000060: f0b8 f2bc 6e69 c13d 4417 4f3e bed1 a8bd
00000070: 5008 193d f6aa ad3d b110 fabd a4bd 443e
00000080: 57f8 d5bd 1505 133e 7396 ecbd bde4 1abd
00000090: 62d6 723e e2b4 89bd 77b9 c23d 5a8d 303d
000000a0: 9e2a 103e f940 93be 323c fbbd 26fb c9bd
000000b0: db50 bf3d 7e1f 603e 88c5 863c 4273 ed3d
000000c0: 5d8d 8f3d 3e08 f13d 50e0 843e dafd 13bd
000000d0: be34 30bd 128d 473d 9d31 c83d 645d cd3c
000000e0: 9480 e3bd a231 a5be af25 31be 5e69 503e
000000f0: 26fb f73d 665a 3e3e 6172 0bbc 5232 bb3d
00000100: 7316 4bbc 0e1b 0b3e 252b 06bd 76c4 073e
00000110: 0762 fdbd e1a2 223e 9773 1dbd 7e58 81bd
00000120: 9375 c33c 0f08 12be c60a 2f3e 47b5 3e3e
00000130: 229b 493e 9570 1f3e 3ac2 1a3d bc4f e53d
00000140: 915e f23d c56b ed3d 70c6 2d3e a56a 3abe
00000150: b4e0 cbbc b5c5 b83d 237b 64be 1a72 0c3b
00000160: be66 a33d 248b 5fbe d94c 55bc 9f51 a0bd
00000170: 0c47 1a3e 1b6e babd a7fa 83bd b43b 483d
00000180: b0d0 27be a98f cebd 615b b5bd aaab 66bd
00000190: 70cc 2d3e f05e febd b104 e7bd 1a66 6e3e
000001a0: c04a 613e 68ed b13d b1c4 68be 2cf5 303e
000001b0: 132c c9bd f6eb 02be 6ed6 273e 301b b73d
000001c0: e9f4 ee3d 5a53 fc3c 9770 f53d 033a 513e
000001d0: 2337 6a3d 0a81 1c3e 1d62 ff3d 4c3d 9cbc
000001e0: 1540 22be 4db9 52be 4a18 033b 2a3b 163e
000001f0: ad9c b53d 4225 c5bd 4a46 3cbe e620 ecbb
00000200: 5555 41be 15c9 d03d a8f7 42be f220 1abe
00000210: a910 493e 59ea 4fbe 04ff 1dbe 33cd 26be
00000220: 6632 ac3d 7473 8bbd 9cc4 24be 8d34 423e
00000230: c8f7 a3bd 9bb4 963e ac8d afbd baa6 adbd
00000240: 9617 f8bd b925 253e 09f0 eb3d a64a 273d
00000250: 4f3e 1cbe 06b4 083e ad00 94bd 1156 1c3e
00000260: e7ec e9bd 9273 0abe dfe1 1f3e 678a ed3d
00000270: 6d11 b4bd de3f 76bd fafb aebd 2ca4 27be
00000280: 199b b33c 071b 763e fc1f 913e aa3f 2c3e
00000290: d99d 093e 69a8 c6bd 0250 4d3e 7fd7 91bd
000002a0: c077 563d f67c 143e 930d a63c 2611 c9bd
000002b0: 865f 643e 93f8 473e 316d e03d 1e99 76bd
000002c0: 9192 46be f380 3fbe 3224 5e3e d8e7 8e3c
000002d0: 010d 2d3e fd43 ca3d 1762 113e 01ca b4bd
000002e0: ac86 523e 48d0 3b3d 2863 afbd 29ae a53b
000002f0: 3e78 603b 7cff d73d e3d5 3ebe 1edc 5c3e
00000300: a06c 023e 4ffa 98bc c870 ca3c 67ea 5ebe
00000310: d8e9 513e 4d17 0e3d 3b64 3e3e 9476 2e3e
00000320: 39a2 25be 412d 45be d396 3ebe 940d 4dbe
00000330: fb09 a63d f34b 9d3d e9ec afbd a0e0 30be
00000340: 097e e1bd 8413 38be 9c72 12be 578a c8bd
00000350: a86d c0bd 8f44 e03d abf2 27be 6573 c7bd
00000360: 3271 3a3e 98dc 4fbe 22cc 8fbc fc26 a23d
00000370: c51d debb 191f 7bbe 90ea 0b3e 0b7d 4a3d
00000380: 97c3 8a3d 5307 b43c 53df 2ebe a2fe 20be
00000390: 3df2 7fbd 88eb c23d e87d 963d b72c 03be
000003a0: ceb2 e1bd 089f 233e effc 273d 1e00 cf3c
000003b0: 500a 2e3e 8b83 97bd 2173 0f3e 1b37 3a3e
000003c0: 5f89 e33d f69a c83d 69b9 fbbd a2a5 603e
000003d0: 8e87 93bd 8300 cdbd f4fe 52be 0157 5f3e
000003e0: 6ed9 2e3d c659 96bd dbde 10bd 0e53 0b3e
000003f0: fd29 14be 2e6e 5c3d 9464 5b3e 0c20 e53d

network_body.lstm.lstm.weight_hh_l0 f4 [256, 64]
0.082332864 -0.16584736 0.21044497 0.34103975 0.14133863 -0.26176873 -0.0032260164 0.012945413
0.16187832 0.07887963 0.03939155 -0.02576787 -0.0703567 0.09399752 0.32008398 -0.26580867
-0.08914272 0.22414473 0.28720146 -0.04779496 0.05196942 0.22363994 0.032275062 -0.009767456
0.023677306 0.027067643 -0.041786436 0.010324127 0.10306479 -0.0630804 0.107949264 -0.27573723
-0.1726916 0.11556966 -0.050353758 0.28306934 0.13540603 -0.1755959 0.23752229 -0.07987378
0.053815518 0.06327584 0.036786206 0.006742413 0.037792467 -0.030635795 -0.11800037 0.24246019
-0.03456467 -0.20450091 0.08168375 -0.033411447 0.088472605 0.27734777 -0.14667298 0.1728216
-0.050119676 -0.09341118 0.0062148636 -0.33732137 0.23845829 -0.29250565 -0.018418437 -0.31442425
-0.11677298 0.20798226 0.0663575 -0.15785941 0.063070714 -0.18479666 -0.10970413 -0.012402563
-0.18658273 0.16931222 -0.018542938 -0.04361426 0.22220112 0.04008824 0.24543817 0.08617785
0.023577858 -0.20109083 0.006936086 -0.04261794 0.09853462 0.016081572 -0.1268643 0.16523954
0.08576747 -0.03250551 -0.23399371 0.07351422 0.15993156 -0.14354973 -0.08740009 0.06232331
-0.04363095 0.18868972 0.056610025 0.14646749 -0.09952578 0.0835693 0.220457 -0.2591235
0.22409761 -0.22345324 0.036154486 0.19991915 -0.21839404 0.15440325 -0.112758815 0.059929993
0.15608793 -0.10288026 -0.18093178 -0.095152356 -0.166512 0.018780462 0.08551041 0.023863446
-0.14625484 0.16429597 -0.14661314 -0.06911077 0.12825154 0.16394562 -0.16961487 0.13323542
-0.15026015 0.0911577 0.08479447 -0.03119052 0.113966964 -0.2726671 -0.20785679 0.07594372
0.11331219 0.11257023 0.2746093 0.13789502 0.25756627 0.19844052 -0.112437576 0.021167416
-0.14557935 -0.1604249 0.20748462 0.07354875 0.1141676 0.11411059 -0.08812347 0.007834155
0.100618474 -0.11285017 -0.016099263 0.11583041 0.23359527 -0.10817025 0.05824156 -0.117902435
-0.042550072 0.2742253 -0.27051258 0.026897179 -0.048715442 0.08418669 0.021813849 0.029764278
0.17724577 -0.040958162 -0.03698932 -0.0022686073 0.05453749 -0.17285186 0.095802024 0.0029239245
-0.25582287 0.09428978 -0.05411569 -0.1445296 0.12413269 0.22542563 0.17285882 -0.065081716
-0.08586071 -0.047617707 -0.09385417 0.07193197 0.06560417 -0.100086555 0.21749446 -0.31398827
0.034002677 0.2010121 0.14217278 -0.000571282 -0.1587039 -0.13726766 -0.046808057 0.17120293
-0.05957903 -0.013572765 -0.21845597 -0.014454477 -0.048667718 0.17689678 -0.05543542 -0.012740408
-0.06295523 0.14374216 -0.19786735 -0.20877232 -0.19494003 -0.10088689 0.042869616 0.1318771
-0.010674545 -0.2191335 0.19043367 -0.03866394 0.04711052 -0.0757368 0.1884872 0.061855927
0.18549317 -0.21064423 0.007625833 0.09408694 0.024643753 -0.15931043 -0.12890776 0.11492989
-0.10517842 0.09717958 -0.18138845 0.10672877 -0.04704938 0.075068355 0.15573913 -0.07453226
0.1497184 -0.07484243 -0.12104827 0.10844188 0.13829835 0.15283166 -0.23322172 0.14287046
-0.07841309 0.17724302 0.1703373 -0.028721787 -0.07877942 -0.065889485 -0.104937 -0.10371052
00000000: 229e a83d e4d3 29be e37e 573e c39c ae3e
00000010: 13bb 103e 8d06 86be 936b 53bb ff18 543c
00000020: 6ec3 253e a58b a13d 0959 213d 2417 d3bc
00000030: 2c17 90bd c681 c03d 0ce2 a33e 1318 88be
00000040: 7590 b6bd 3286 653e 120c 933e a6c4 43bd
00000050: e3dd 543d de01 653e db32 043d ae07 20bc
00000060: e9f6 c13c f6bc dd3c 4128 2bbd 8726 293c
00000070: a213 d33d 4c30 81bd 8114 dd3d 6e2d 8dbe
00000080: 11d6 30be c9af ec3d be3f 4ebd 77ee 903e
00000090: e1a7 0a3e 69cf 33be 0b39 733e dd94 a3bd
000000a0: a96d 5c3d c396 813d 22ad 163d 76ef dc3b
000000b0: 46cc 1a3d ebf7 fabc 2eaa f1bd 7c47 783e
000000c0: af93 0dbd b068 51be cf49 a73d 71da 08bd
000000d0: 2031 b53d 8700 8e3e 7131 16be 25f8 303e
000000e0: 4a4a 4dbd 5c4e bfbd 0ea6 cb3b 63b5 acbe
000000f0: 692e 743e 4dc3 95be 43e2 96bc 37fc a0be
00000100: ac26 efbd 4df9 543e 71e6 873d e6a5 21be
00000110: 382b 813d 563b 3dbe 8fac e0bd 1f34 4bbc
00000120: 8b0f 3fbe 2f60 2d3e 5ce7 97bc dea4 32bd
00000130: b188 633e 9133 243d 2554 7b3e 037e b03d
00000140: 5a26 c13c c1ea 4dbe 1b48 e33b 2690 2ebd
00000150: 85cc c93d 80bd 833c b7e8 01be 8e34 293e
00000160: dba6 af3d 7f24 05bd 0c9c 6fbe a08e 963d
00000170: 19c5 233e b3fe 12be d2fe b2bd ba46 7f3d
00000180: 5eb6 32bd e137 413e eadf 673d 93fb 153e
00000190: 2cd4 cbbd 6226 ab3d 7bbf 613e d6ab 84be
000001a0: d879 653e edd0 64be ba16 143d 9bb7 4c3e
000001b0: b0a2 5fbe e31b 1e3e 18ee e6bd 2779 753d
000001c0: 84d5 1f3e e3b2 d2bd 2e46 39be 3ddf c2bd
000001d0: 1f82 2abe 7cd9 993c 1520 af3d 467d c33c
000001e0: d4c3 15be 343d 283e c121 16be f389 8dbd
000001f0: 5f54 033e 5ce1 273e 85af 2dbe de6e 083e
00000200: ccdd 19be e3b0 ba3d b9a8 ad3d 4383 ffbc
00000210: 8367 e93d 069b 8bbe 69d8 54be 6288 9b3d
00000220: 3910 e83d 398b e63d 9799 8c3e 5a34 0d3e
00000230: badf 833e fe33 4b3e ac45 e6bd 4a67 ad3c
00000240: c112 15be 6d46 24be d976 543e baa0 963d
00000250: b4d0 e93d d0b2 e93d 147a b4bd d45a 003c
00000260: 0f11 ce3d fd1d e7bd 9ae2 83bc 7e38 ed3d
00000270: 9933 6f3e 5d88 ddbd b48e 6e3d d576 f1bd
00000280: fc48 2ebd 4267 8c3e a080 8abe 7957 dc3c
00000290: d889 47bd 126a ac3d f5b2 b23c 37d4 f33c
000002a0: ea7f 353e bfc3 27bd 1d82 17bd eaac 14bb
000002b0: b462 5f3d 1400 31be da33 c43d 509f 3f3b
000002c0: 37fb 82be 001b c13d 6aa8 5dbd 91ff 13be
000002d0: 4839 fe3d fad5 663e e701 313e 9049 85bd
000002e0: bdd7 afbd c90a 43bd 9d36 c0bd 1251 933d
000002f0: 7b5b 863d 2efa ccbd deb6 5e3e 12c3 a0be
00000300: 6446 0b3d 1ed6 4d3e be95 113e 16c2 15ba
00000310: 4683 22be e58f 0cbe ceb9 3fbd d24f 2f3e
00000320: 2409 74bd 4d60 5ebc ecb2 5fbe 78d2 6cbc
00000330: cd57 47bd 6e24 353e 4010 63bd 25bd 50bc
00000340: acee 80bd 2531 133e bd9d 4abe 69c8 55be
00000350: 5c9e 47be c99d cebd 0d98 2f3d ca0a 073e
00000360: 49e4 2ebc 8864 60be 0b01 433e 145e 1ebd
00000370: f6f6 403d e51b 9bbd ca02 413e a45c 7d3d
00000380: ecf1 3d3e 1fb3 57be 20e2 f93b a7b0 c03d
00000390: b2e1 c93c 4622 23be 6500 04be 5d60 eb3d
000003a0: c967 d7bd 1606 c73d e5bd 39be 9d94 da3d
000003b0: dab6 40bd 70bd 993d 147a 1f3e 5fa4 98bd
000003c0: c84f 193e fd46 99bd 28e8 f7bd c716 de3d
000003d0: 159e 0d3e e77f 1c3e add1 6ebe a24c 123e
000003e0: 0b97 a0bd 327f 353e e76c 2e3e f449 ebbc
000003f0: 1b57 a1bd 11f1 86bd 36e9 d6bd 2e66 d4bd

network_body.lstm.lstm.bias_ih_l0 f4 [256]
0.12849908 0.018904101 0.06802676 -0.028922815 0.04586499 0.053976085 0.06084408 0.04333692
0.09243769 0.08137394 0.028733196 0.052160647 0.0643444 0.057081364 0.0050023394 -0.03531987
0.017529527 0.14001364 -0.02750559 0.16790964 0.02389429 0.00493387 0.04795344 0.065174565
0.09973754 0.026958061 0.06447268 0.023937976 -0.0034695114 0.03347066 0.061279844 0.05198608
0.049118705 0.10024677 -0.009674547 -0.030108077 0.047478583 0.07113436 -0.0045701205 0.08725413
-0.047962338 0.06543766 0.034384012 0.05836335 -0.006381652 0.053018995 0.04687712 0.007513894
0.03411486 0.10436631 0.0720675 0.1029866 -0.008796434 0.021627879 0.043198004 0.044330902
0.110660374 -0.057956647 0.0096293 0.047858164 0.097441494 0.010722696 0.063154876 0.040244173
0.9993406 1.0447322 0.99156356 1.0018423 1.0220739 1.0419891 1.0048698 1.0098168
0.9968813 0.9999382 1.0343623 1.0454013 0.979402 1.0511566 1.0529195 0.9799929
1.0090206 1.0093484 0.98293984 0.99646884 1.037495 0.99145204 1.0605968 1.026627
1.0087482 0.9998718 0.9814803 1.0224485 1.0031148 1.0069343 0.9971715 1.0401932
1.0464323 1.000589 1.0208462 1.0053587 1.0141517 1.0425642 1.057564 0.9840886
0.98503006 0.99796164 0.970691 1.012561 1.032564 1.0396355 0.99308944 0.96216464
0.9957217 1.0258504 0.9824315 0.9543714 0.94924563 1.031349 1.0385804 0.969269
0.97085965 0.962753 0.9679117 1.0497342 0.9901368 0.99934787 1.0231047 1.0350182
0.010063626 0.01374852 -0.019563183 0.012790474 0.018221747 -0.04265442 -0.043871876 0.0035949328
-0.012898824 -0.018864296 0.06366047 0.040757786 0.0045571825 0.040341254 0.052741624 -0.01459428
0.032021858 0.037318803 0.086626716 -0.008927062 0.021466637 -0.0031427538 0.024175512 -0.050436918
0.020844197 0.025012735 -0.01884931 -0.037027653 0.0020265938 0.010813445 0.024362922 -0.06357592
-0.010052225 0.025095021 -0.0024525353 0.0028099322 -0.028778763 -0.025643375 0.036371972 -0.006631664
0.011671168 -0.029278873 -0.008628221 0.03836681 -0.047838643 -0.046493042 -0.026795989 -0.0106921345
-0.016910506 -0.054553393 -0.021984817 -0.043677125 -0.024448236 0.062415533 -0.016582914 -0.008535848
-0.028099967 0.01887135 0.025891945 -0.043536417 0.042580426 0.018804418 0.02753268 -0.041830674
0.124758095 0.038167395 0.024682948 -0.020500554 0.02105303 0.008140968 0.10168294 0.12294914
0.022270842 0.03284548 -8.6420856e-05 0.0052010193 0.00435119 -0.010449273 -0.007105216 0.006525806
0.09032974 0.15926987 0.005694448 0.12361101 -0.014419531 0.056908272 0.00013274142 -0.017770426
0.0234363 0.06305554 0.064357184 -0.016628351 -0.01027354 0.01161691 0.033432078 0.010459037
0.034723137 0.015393646 -0.006761588 0.0002386506 0.067693606 0.02202546 0.0024732542 0.10169212
-0.021367477 -0.01998032 0.01575553 -0.055921007 -0.03233644 0.011159628 0.0593887 0.022453865
0.02845625 0.05038183 0.0919554 0.038682412 -0.0069926633 0.0014062555 -0.031908054 0.038311005
0.06652402 -0.023671366 0.07687368 -0.035532076 0.036918 0.07406812 0.04668267 0.010994476
00000000: 4395 033e c6dc 9a3c 9d51 8b3d 8aef ecbc
00000010: eedc 3b3d 0716 5d3d a437 793d 0e82 313d
00000020: f94f bd3d 61a7 a63d e161 eb3c 67a6 553d
00000030: ffc6 833d 26ce 693d aaea a33b 91ab 10bd
00000040: 159a 8f3c bc5f 0f3e 6753 e1bc 81f0 2b3e
00000050: f5bd c33c 4dac a13b d46a 443d 3e7a 853d
00000060: 3243 cc3d 27d7 dc3c 410a 843d 9319 c43c
00000070: be60 63bb 8818 093d 9300 7b3d 5bef 543d
00000080: b230 493d 2e4e cd3d fe81 1ebc 37a5 f6bc
00000090: e778 423d e4ae 913d f3c0 95bb 4bb2 b23d
000000a0: 2874 44bd 2e04 863d 40d6 0c3d 680e 6f3d
000000b0: 2d1d d1bb 722a 593d 3902 403d 1c37 f63b
000000c0: 06bc 0b3d 01be d53d 2098 933d a3ea d23d
000000d0: eb1e 10bc f32c b13c 64f0 303d 5294 353d
000000e0: e8a1 e23d f363 6dbd 36c4 1d3c ec06 443d
000000f0: 688f c73d 3fae 2f3c 5857 813d 13d7 243d
00000100: c9d4 7f3f c9b9 853f 1cd7 7d3f 5e3c 803f
00000110: 51d3 823f e65f 853f 939f 803f ad41 813f
00000120: 9d33 7f3f f3fb 7f3f fc65 843f b6cf 853f
00000130: 17ba 7a3f 4d8c 863f 11c6 863f d1e0 7a3f
00000140: 9627 813f 5432 813f f2a1 7b3f 9518 7f3f
00000150: a3cc 843f cdcf 7d3f a3c1 873f 8368 833f
00000160: a91e 813f 99f7 7f3f 4b42 7b3f 98df 823f
00000170: 1166 803f 39e3 803f a246 7f3f 0d25 853f
00000180: 7ef1 853f 4d13 803f 17ab 823f 98af 803f
00000190: b9cf 813f be72 853f 425e 873f 3bed 7b3f
000001a0: ee2a 7c3f 6a7a 7f3f 357f 783f 999b 813f
000001b0: 0f2b 843f c712 853f 1c3b 7e3f 6c50 763f
000001c0: 9ee7 7e3f 114f 833f a180 7b3f af51 743f
000001d0: c301 733f 3e03 843f 34f0 843f 0322 783f
000001e0: 428a 783f fb76 763f 10c9 773f b15d 863f
000001f0: 9b79 7d3f 43d5 7f3f 18f5 823f 7a7b 843f
00000200: e8e1 243c 7941 613c f842 a0bc 238f 513c
00000210: c645 953c 67b6 2ebd ffb2 33bd f798 6b3b
00000220: 9755 53bc 4c89 9abc 6c60 823d a3f1 263d
00000230: 6b54 953b df3c 253d 9a07 583d d91c 6fbc
00000240: 5a29 033d 9adb 183d 5969 b13d d042 12bc
00000250: cdda af3c a9f6 4dbb b90b c63c f196 4ebd
00000260: 73c1 aa3c 82e7 cc3c de69 9abc 4faa 17bd
00000270: 9ad0 043b e02a 313c c094 c73c 1834 82bd
00000280: 16b2 24bc 1394 cd3c b7ba 20bb d726 383b
00000290: 71c1 ebbc 0e12 d2bc c7fa 143d 6e4e d9bb
000002a0: 6d38 3f3c 3fda efbc 625d 0dbc 8426 1d3d
000002b0: 74f2 43bd 7d6f 3ebd 4383 dbbc 102e 2fbc
000002c0: e787 8abc 6173 5fbd 8119 b4bc c9e6 32bd
000002d0: ab47 c8bc 6ea7 7f3d e4d8 87bc f1d9 0bbc
000002e0: e731 e6bc 1798 9a3c 581b d43c 3e53 32bd
000002f0: d068 2e3d b90b 9a3c 378c e13c a456 2bbd
00000300: 2c81 ff3d 6a55 1c3d e533 ca3c c7f0 a7bc
00000310: 6777 ac3c b261 053c 253f d03d c2cc fb3d
00000320: 5771 b63c fb88 063d d83c b5b8 506d aa3b
00000330: 6d94 8e3b 6d33 2bbc dfd2 e8bb 6ed6 d53b
00000340: ccfe b83d a417 233e 7e98 ba3b c527 fd3d
00000350: e63f 6cbc a618 693d 8130 0b39 4993 91bc
00000360: 7cfd bf3c 4323 813d b3cd 833d 2e38 88bc
00000370: 5a52 28bc da54 3e3c 13f0 083d 615c 2b3c
00000380: d939 0e3d a235 7c3c 5090 ddbb 483e 7a39
00000390: f2a2 8a3d bd6e b43c 5216 223b f543 d03d
000003a0: d90a afbc c5ad a3bc be11 813c 6d0d 65bd
000003b0: 3773 04bd dfd6 363c 9141 733d 2bf1 b73c
000003c0: 151d e93c 2e5d 4e3d 1d53 bc3d 7371 1e3d
000003d0: b622 e5bb 1b52 b83a 05b2 02bd 00ec 1c3d
000003e0: bf3d 883d 74ea c1bc f36f 9d3d 158a 11bd
000003f0: 5437 173d 07b1 973d 5436 3f3d 2d22 343c

network_body.lstm.lstm.bias_hh_l0 f4 [256]
0.12849908 0.018904097 0.068026766 -0.028922815 0.045865 0.053976085 0.060844064 0.04333691
0.09243766 0.08137392 0.0287332 0.05216065 0.064344406 0.05708136 0.005002346 -0.035319857
0.017529521 0.14001359 -0.027505577 0.16790968 0.023894291 0.00493385 0.04795344 0.065174565
0.09973754 0.026958056 0.0644727 0.023937974 -0.0034695072 0.033470638 0.061279852 0.05198608
0.04911871 0.10024675 -0.009674541 -0.030108074 0.047478564 0.07113435 -0.0045701154 0.08725414
-0.047962338 0.065437645 0.03438399 0.05836334 -0.006381649 0.053018995 0.0468771 0.007513889
0.034114856 0.1043663 0.072067514 0.10298655 -0.008796418 0.021627871 0.043198016 0.0443309
0.11066036 -0.05795665 0.0096293045 0.047858156 0.09744145 0.01072268 0.063154854 0.04024418
0.9993406 1.0447322 0.99156344 1.0018423 1.0220739 1.0419891 1.0048697 1.0098168
0.9968812 0.9999382 1.0343623 1.0454013 0.97940195 1.0511566 1.0529195 0.979993
1.0090206 1.0093484 0.9829399 0.99646884 1.0374951 0.9914522 1.0605968 1.026627
1.0087482 0.99987197 0.9814804 1.0224485 1.0031148 1.0069343 0.9971715 1.0401932
1.0464323 1.000589 1.0208464 1.0053588 1.0141517 1.0425642 1.0575641 0.9840885
0.98502994 0.99796176 0.97069114 1.0125611 1.032564 1.0396357 0.9930895 0.96216464
0.9957216 1.0258504 0.9824316 0.9543713 0.94924563 1.031349 1.0385804 0.9692689
0.9708597 0.962753 0.9679117 1.0497342 0.99013674 0.999348 1.0231047 1.0350182
0.010063612 0.01374852 -0.019563172 0.012790474 0.018221736 -0.04265442 -0.04387185 0.0035949121
-0.012898828 -0.018864295 0.06366048 0.040757794 0.004557182 0.040341254 0.052741617 -0.0145942755
0.03202183 0.0373188 0.08662673 -0.008927077 0.021466635 -0.0031427406 0.024175512 -0.05043692
0.020844202 0.025012724 -0.018849302 -0.03702767 0.0020265852 0.0108134365 0.024362916 -0.063575916
-0.010052235 0.025095046 -0.002452538 0.0028099348 -0.028778758 -0.02564338 0.036371972 -0.0066316733
0.011671175 -0.029278878 -0.008628204 0.038366795 -0.047838643 -0.046493042 -0.02679599 -0.0106921205
-0.016910514 -0.054553397 -0.021984803 -0.043677118 -0.02444824 0.06241554 -0.016582912 -0.008535847
-0.028099952 0.018871356 0.02589194 -0.043536417 0.042580422 0.018804424 0.027532674 -0.041830674
0.124758035 0.038167432 0.024682963 -0.02050057 0.021053016 0.008140993 0.101682924 0.12294914
0.022270853 0.03284548 -8.642976e-05 0.0052010007 0.004351172 -0.010449254 -0.007105223 0.006525789
0.09032974 0.15926987 0.0056944443 0.123610996 -0.014419531 0.056908228 0.00013276075 -0.017770419
0.023436278 0.063055545 0.06435724 -0.01662835 -0.01027356 0.011616901 0.033432066 0.010459032
0.03472315 0.015393646 -0.0067616166 0.00023863581 0.0676936 0.022025479 0.0024732354 0.1016921
-0.021367492 -0.019980293 0.015755542 -0.055921018 -0.032336418 0.011159618 0.059388738 0.022453858
0.028456235 0.05038181 0.09195541 0.03868244 -0.006992666 0.0014062691 -0.031908054 0.038310997
0.06652405 -0.023671368 0.076873705 -0.035532076 0.03691798 0.0740681 0.046682674 0.010994444
00000000: 4395 033e c4dc 9a3c 9e51 8b3d 8aef ecbc
00000010: f0dc 3b3d 0716 5d3d a037 793d 0b82 313d
00000020: f54f bd3d 5fa7 a63d e361 eb3c 68a6 553d
00000030: 00c7 833d 25ce 693d b8ea a33b 8eab 10bd
00000040: 129a 8f3c b95f 0f3e 6053 e1bc 84f0 2b3e
00000050: f6bd c33c 22ac a13b d46a 443d 3e7a 853d
00000060: 3243 cc3d 24d7 dc3c 430a 843d 9219 c43c
00000070: ac60 63bb 8218 093d 9500 7b3d 5bef 543d
00000080: b330 493d 2b4e cd3d f781 1ebc 35a5 f6bc
00000090: e278 423d e3ae 913d e8c0 95bb 4cb2 b23d
000000a0: 2874 44bd 2c04 863d 3ad6 0c3d 660e 6f3d
000000b0: 271d d1bb 722a 593d 3402 403d 1237 f63b
000000c0: 05bc 0b3d 00be d53d 2298 933d 9dea d23d
000000d0: da1e 10bc ef2c b13c 67f0 303d 5194 353d
000000e0: e6a1 e23d f463 6dbd 3bc4 1d3c ea06 443d
000000f0: 628f c73d 2eae 2f3c 5557 813d 15d7 243d
00000100: c9d4 7f3f c9b9 853f 1ad7 7d3f 5e3c 803f
00000110: 51d3 823f e65f 853f 929f 803f ad41 813f
00000120: 9b33 7f3f f3fb 7f3f fc65 843f b6cf 853f
00000130: 16ba 7a3f 4d8c 863f 11c6 863f d2e0 7a3f
00000140: 9627 813f 5432 813f f3a1 7b3f 9518 7f3f
00000150: a4cc 843f d0cf 7d3f a3c1 873f 8368 833f
00000160: a91e 813f 9cf7 7f3f 4d42 7b3f 98df 823f
00000170: 1166 803f 39e3 803f a246 7f3f 0d25 853f
00000180: 7ef1 853f 4d13 803f 18ab 823f 99af 803f
00000190: b9cf 813f be72 853f 435e 873f 39ed 7b3f
000001a0: ec2a 7c3f 6c7a 7f3f 377f 783f 9a9b 813f
000001b0: 0f2b 843f c812 853f 1d3b 7e3f 6c50 763f
000001c0: 9ce7 7e3f 114f 833f a380 7b3f ad51 743f
000001d0: c301 733f 3e03 843f 34f0 843f 0222 783f
000001e0: 438a 783f fb76 763f 10c9 773f b15d 863f
000001f0: 9a79 7d3f 45d5 7f3f 18f5 823f 7a7b 843f
00000200: d9e1 243c 7941 613c f242 a0bc 238f 513c
00000210: c045 953c 67b6 2ebd f8b2 33bd 9e98 6b3b
00000220: 9b55 53bc 4b89 9abc 6d60 823d a5f1 263d
00000230: 6a54 953b df3c 253d 9807 583d d41c 6fbc
00000240: 5329 033d 99db 183d 5b69 b13d e042 12bc
00000250: ccda af3c 70f6 4dbb b90b c63c f296 4ebd
00000260: 76c1 aa3c 7ce7 cc3c da69 9abc 53aa 17bd
00000270: 75d0 043b d72a 313c bd94 c73c 1734 82bd
00000280: 21b2 24bc 2094 cd3c c3ba 20bb e226 383b
00000290: 6ec1 ebbc 1112 d2bc c7fa 143d 824e d9bb
000002a0: 7538 3f3c 42da efbc 505d 0dbc 8026 1d3d
000002b0: 74f2 43bd 7d6f 3ebd 4483 dbbc 012e 2fbc
000002c0: eb87 8abc 6273 5fbd 7919 b4bc c7e6 32bd
000002d0: ad47 c8bc 70a7 7f3d e3d8 87bc f0d9 0bbc
000002e0: df31 e6bc 1a98 9a3c 551b d43c 3e53 32bd
000002f0: cf68 2e3d bc0b 9a3c 348c e13c a456 2bbd
00000300: 2481 ff3d 7455 1c3d ed33 ca3c d0f0 a7bc
00000310: 6077 ac3c cd61 053c 233f d03d c2cc fb3d
00000320: 5d71 b63c fb88 063d a041 b5b8 286d aa3b
00000330: 4794 8e3b 5933 2bbc eed2 e8bb 49d6 d53b
00000340: ccfe b83d a417 233e 7698 ba3b c327 fd3d
00000350: e63f 6cbc 9a18 693d b135 0b39 4593 91bc
00000360: 70fd bf3c 4423 813d bbcd 833d 2d38 88bc
00000370: 6f52 28bc d054 3e3c 10f0 083d 5c5c 2b3c
00000380: dd39 0e3d a235 7c3c 8d90 ddbb 503a 7a39
00000390: f1a2 8a3d c76e b43c 0116 223b f343 d03d
000003a0: e10a afbc b6ad a3bc c411 813c 700d 65bd
000003b0: 3173 04bd d5d6 363c 9b41 733d 27f1 b73c
000003c0: 0d1d e93c 285d 4e3d 1e53 bc3d 7a71 1e3d
000003d0: bc22 e5bb 9052 b83a 05b2 02bd feeb 1c3d
000003e0: c33d 883d 75ea c1bc f66f 9d3d 158a 11bd
000003f0: 4f37 173d 04b1 973d 5536 3f3d 0a22 343c

action_model._discrete_distribution.branches.0.weight f4 [2, 64]
0.110137396 -0.11448452 0.12840511 0.06806564 0.094473965 -0.13106878 -0.13707504 0.16473891
-0.14975289 0.102013834 0.095200494 0.12770046 0.11406122 0.08605151 0.107000016 -0.11556558
0.11130677 -0.1323836 -0.0050335047 0.16514365 0.08992802 -0.07042144 0.11707058 -0.12572914
-0.043994613 0.069712184 -0.07465933 -0.08807227 0.090148516 0.1450641 0.053601522 -0.12674296
-0.09333187 0.15665674 -0.05880197 0.113136575 -0.1159995 -0.08591342 0.08594682 -0.13783245
0.095893994 -0.08892959 0.1290609 0.10644442 -0.068737805 -0.11495782 -0.17687611 0.1417035
-0.13208531 -0.09791217 0.09330151 0.16171572 -0.0031060542 0.07728037 -0.09846153 0.15465552
0.089193285 -0.0684762 0.15127489 -0.13180028 0.123888455 0.11493895 0.15791947 -0.1310295
-0.14030829 0.1279936 -0.12006724 -0.060602687 -0.10094601 0.10847822 0.12670645 -0.16988863
0.13553102 -0.082204066 -0.08574438 -0.10106095 -0.10543212 -0.107291795 -0.1154922 0.09757634
-0.10990681 0.13915485 -0.0006541227 -0.16843091 -0.100330755 0.08589528 -0.12911317 0.12798238
0.033930205 -0.07376167 0.06863781 0.082757875 -0.087044 -0.14209731 -0.078540966 0.10615892
0.10176323 -0.16129795 0.045358215 -0.07672112 0.10051532 0.08629108 -0.11117139 0.14887331
-0.12778845 0.0643648 -0.13254414 -0.09730205 0.11328362 0.09157776 0.18760222 -0.15731409
0.14031325 0.12254384 -0.120442174 -0.13727152 0.007478934 -0.08996292 0.12559144 -0.14603114
-0.11086793 0.07458336 -0.13628738 0.127056 -0.13395162 -0.08659125 -0.1676772 0.11386829
00000000: b78f e13d dc76 eabd a17c 033e 0066 8b3d
00000010: 917b c13d e536 06be 665d 0cbe 51b1 283e
00000020: d258 19be a1ec d03d 7af8 c23d e9c3 023e
00000030: ee98 e93d c63b b03d d322 db3d a6ad ecbd
00000040: cef4 e33d 918f 07be 19f0 a4bb 6b1b 293e
00000050: 2f2c b83d 1e39 90bd b3c2 ef3d 24bf 00be
00000060: b233 34bd 43c5 8e3d fee6 98bd 3c5f b4bd
00000070: c99f b83d af8b 143e 458d 5b3d e8c8 01be
00000080: c824 bfbd a06a 203e 56da 70bd 26b4 e73d
00000090: 2591 edbd 60f3 afbd e304 b03d f323 0dbe
000000a0: 1264 c43d b820 b6bd 8a28 043e 88ff d93d
000000b0: 68c6 8cbd 016f ebbd 031f 35be b91a 113e
000000c0: 5f41 07be 2d86 c8bd dd14 bf3d ce98 253e
000000d0: f18e 4bbb 2c45 9e3d 33a6 c9bd 045e 1e3e
000000e0: f8aa b63d 403d 8cbd cee7 1a3e a7f6 06be
000000f0: 3bb9 fd3d 1d65 eb3d a4b5 213e 992c 06be
00000100: faac 0fbe c110 033e d0e5 f5bd 863a 78bd
00000110: c8bc cebd d429 de3d 56bf 013e 49f7 2dbe
00000120: a5c8 0a3e 9b5a a8bd c09a afbd 0bf9 cebd
00000130: ccec d7bd cdbb dbbd 2d87 ecbd 1bd6 c73d
00000140: d216 e1bd 9c7e 0e3e 6e79 2bba 2779 2cbe
00000150: 367a cdbd dde9 af3d 3e36 04be d00d 033e
00000160: 66fa 0a3d 5c10 97bd fb91 8c3d f67c a93d
00000170: 2044 b2bd f581 11be 16da a0bd d969 d93d
00000180: 3e69 d03d 4a2b 25be 89c9 393d f61f 9dbd
00000190: fada cd3d 61b9 b03d d3ad e3bd 3f72 183e
000001a0: fada 02be b1d1 833d a7b9 07be 4c46 c7bd
000001b0: 3e01 e83d 1f8d bb3d cc1a 403e f216 21be
000001c0: 47ae 0f3e 44f8 fa3d 63aa f6bd e890 0cbe
000001d0: d811 f53b 7b3e b8bd 0b9b 003e 3089 15be
000001e0: ba0e e3bd 29bf 983d eb8e 0bbe f81a 023e
000001f0: 9d2a 09be c156 b1bd 92b3 2bbe c733 e93d

action_model._discrete_distribution.branches.0.bias f4 [2]
0.025261903 -0.025262007
00000000: 0df2 ce3c 45f2 cebc

exp_avg f4 [64, 3]
0.001964575 2.3851595e-07 0.00023355136 0.00067303015 -9.116589e-08 8.120072e-05 0.0034522102 1.16210135e-08
0.0003964118 0.00019355075 2.559653e-07 -3.1159427e-05 -0.003476409 -4.960952e-07 -0.0004055174 -0.0040001213
-2.1612034e-07 -0.00049384806 0.005329711 1.05791905e-07 0.00067400694 3.7666723e-05 -2.0625592e-07 4.0893883e-06
-0.003752029 -4.9625502e-08 -0.00043125785 0.0045538046 -7.118214e-09 0.0005522658 -0.0021860192 -5.7167097e-07
-0.00024671995 0.0036854807 1.1364444e-07 0.0004254287 -0.005465354 -6.27687e-07 -0.0006633996 -0.009245924
-1.1014414e-06 -0.0010876689 0.0077503175 -2.8021006e-08 0.00090072217 0.0081696035 -1.3463395e-08 0.0009368294
-0.0014271786 -3.7813064e-07 -0.00015210635 0.0030043537 1.057344e-07 0.00035904642 -0.0018492027 -1.2599135e-06
-0.00022568052 -8.1792045e-05 5.3257303e-08 -7.4024324e-06 0.0034720704 2.3509581e-07 0.00040915035 -0.010845906
-1.0797903e-06 -0.0012717007 -0.0010755995 -3.0419278e-07 -0.00012356993 -0.0028437765 5.620939e-08 -0.0003524503
0.002593351 3.3461475e-08 0.00029717063 -0.001757048 -4.862619e-07 -0.00020456707 0.013578946 4.0220058e-07
0.0015676474 0.007843025 1.4481848e-08 0.00090734754 0.0042607533 3.721372e-08 0.0004982035 0.0055706357
2.3095971e-07 0.00066350406 -0.002778479 -1.5208283e-06 -0.0003435136 -0.006333741 -4.0240093e-07 -0.0007482378
0.0049811476 2.0953128e-07 0.0005984171 0.0012811754 -8.3041074e-11 0.00014539351 -0.012638866 -1.2189523e-06
-0.0014733577 0.006996037 7.767953e-08 0.00080501323 0.007178232 3.0451304e-07 0.0008016348 -0.0015220031
4.5940602e-08 -0.00014937267 0.00018099864 6.305977e-08 2.152482e-05 0.0060808803 7.937541e-07 0.0006971148
0.000758275 7.990399e-08 0.00012242177 -0.009887285 -9.405461e-07 -0.001146912 -0.00071983313 -8.0900224e-07
-8.837265e-05 0.005983853 1.8149825e-10 0.0007134411 -0.0067117224 -1.1146054e-06 -0.00080776756 0.006413013
1.3250708e-07 0.0007330185 -0.008823366 -1.1202076e-06 -0.0010321749 -0.008957349 -7.9713425e-07 -0.001051771
0.00036182202 -3.2205623e-08 4.2082404e-05 0.0026087416 1.6465201e-07 0.00029358378 0.002064419 3.782763e-07
0.0002368341 0.0006982155 2.6853192e-07 8.728341e-05 0.005453598 7.235039e-08 0.0006793614 -0.0033204681
-5.7408e-07 -0.00038360173 -0.0059600435 -5.150547e-07 -0.0006969278 -0.00046863317 -9.3403196e-07 -6.02829e-05
0.0010030491 -5.18508e-07 0.00012418615 -0.009327805 -2.2166273e-06 -0.0011028796 -0.0066946708 -9.2203356e-07
-0.0007859076 0.010828058 -9.225824e-08 0.0012685156 0.006526892 -1.121164e-07 0.0007662086 0.0038299242
8.545585e-08 0.00045321215 -0.009414064 -1.0262959e-06 -0.0011288085 -0.004618317 -1.0470883e-06 -0.0005486886
00000000: 19c0 003b 620d 8034 77e5 7439 4a6e 303a
00000010: fac6 c3b3 4e4a aa38 7a3e 623b c2a5 4732
00000020: 7ed5 cf39 e2f3 4a39 9a6b 8934 2eb1 02b8
00000030: 77d4 63bb 672b 05b5 a09b d4b9 7313 83bb
00000040: b50e 68b4 9575 01ba dba4 ae3b b72f e333
00000050: d7af 303a 56fc 1d38 3277 5db4 9437 8936
00000060: 9ae4 75bb d123 55b3 731a e2b9 1538 953b
00000070: 7994 f4b1 eec5 103a 5143 0fbb ee74 19b5
00000080: 315a 81b9 1b88 713b b10c f433 130c df39
00000090: b616 b3bb 527e 28b5 fee7 2dba 377c 17bc
000000a0: 3dd5 93b5 1d90 8eba 60f6 fd3b d8b2 f0b2
000000b0: 711e 6c3a cdd9 053c a34c 67b2 8f95 753a
000000c0: 2b10 bbba e101 cbb4 bd7e 1fb9 b1e4 443b
000000d0: 1a10 e333 653e bc39 f260 f2ba 4c1a a9b5
000000e0: a7a4 6cb9 c587 abb8 06bd 6433 6962 f8b6
000000f0: ad8b 633b a56e 7c34 3b83 d639 07b3 31bc
00000100: 50ed 90b5 32af a6ba 21fb 8cba f04f a3b4
00000110: 8d92 01b9 a75e 3abb e16a 7133 14c9 b8b9
00000120: 36f5 293b 48b7 0f33 91cd 9b39 bf4c e6ba
00000130: aa87 02b5 0e81 56b9 3a7a 5e3c 07ee d734
00000140: 8579 cd3a 0880 003c d7cb 7832 10db 6d3a
00000150: ca9d 8b3b ebd4 1f33 df99 023a e189 b63b
00000160: b9fd 7734 01ef 2d3a 2417 36bb 431f ccb5
00000170: 9d19 b4b9 458b cfbb 9009 d8b4 6425 44ba
00000180: e538 a33b 85fb 6034 17df 1c3a 1ded a73a
00000190: f89b b6ae c674 1839 3f13 4fbc e29a a3b5
000001a0: ae1d c1ba 033f e53b c6d0 a633 8607 533a
000001b0: 6037 eb3b f47b a334 cd24 523a f37d c7ba
000001c0: 3a50 4533 eca0 1cb9 74ca 3d39 7a6b 8733
000001d0: 3390 b437 1f42 c73b 5e12 5535 95be 363a
000001e0: f9c6 463a af97 ab33 585e 0039 47fe 21bc
000001f0: d679 7cb5 fb53 96ba 2fb3 3cba 362a 59b5
00000200: b554 b9b8 3214 c43b 378f 472f 3906 3b3a
00000210: 02ee dbbb 8d99 95b5 5dc0 53ba 4124 d23b
00000220: 4547 0e34 0a28 403a e18f 10bc 0a5a 96b5
00000230: 0b4a 87ba d8c1 12bc a6fa 55b5 94db 89ba
00000240: eeb2 bd39 7552 0ab3 a381 3038 6cf7 2a3b
00000250: 33cb 3034 26ec 9939 344b 073b e615 cb34
00000260: ab56 7839 7308 373a bf2a 9034 ed0b b738
00000270: 19b4 b23b 0c5f 9b33 2c17 323a 369c 59bb
00000280: 7a1a 1ab5 271e c9b9 784c c3bb 4a42 0ab5
00000290: 08b2 36ba e1b2 f5b9 30ba 7ab5 45d8 7cb8
000002a0: be78 833a 992f 0bb5 f737 0239 a6d3 18bc
000002b0: 5ec1 14b6 808e 90ba f85e dbbb aa81 77b5
000002c0: 5e05 4eba 2b68 313c 811f c6b3 5244 a63a
000002d0: 8adf d53b a5c4 f0b3 64db 483a 77ff 7a3b
000002e0: da83 b733 1b9d ed39 723d 1abc 42bf 89b5
000002f0: 87f4 93ba 4055 97bb ae89 8cb5 ded5 0fba
