results/Test9/Jumper/Jumper-499986.pt (torch, 927964 bytes, 57 tensors)

network_body._body_endoder.seq_layers.0.weight f4 [64, 3]
0	0xbeba6293	-0.3640333
1	0xbd2950d6	-0.041336857
2	0xbf203b24	-0.6259024
3	0xbee3bcc9	-0.4447997
4	0xbe856f19	-0.26061323
5	0x3dd33dcb	0.103145204
6	0xbdd4a32f	-0.10382687
7	0xbc1bac3f	-0.009501516
8	0xbf936920	-1.1516457
9	0x3f82207d	1.0166165
10	0x3f0af68d	0.54282457
11	0xbe75bfc7	-0.23998939
12	0xbee34562	-0.44388872
13	0xbda08935	-0.0783867
14	0x3f0b55d2	0.54427826
15	0x3c84fee3	0.01623482
16	0xbd342344	-0.043978944
17	0x3e7fdb09	0.24985899
18	0x3f4a8f39	0.7912479
19	0x3d46009b	0.04834042
20	0xbec7b258	-0.39003253
21	0xbf619479	-0.88117176
22	0x3effb983	0.49946222
23	0xbf260461	-0.6485043
24	0xbf0de805	-0.5543216
25	0x3ecc6305	0.39919296
26	0x3f036c1e	0.5133685
27	0x3ea753d1	0.32681134
28	0xbf2a693f	-0.6656684
29	0x3d80bbce	0.06285821
30	0xbe308ebb	-0.17241947
31	0x3f1cc560	0.6123867
32	0x3e1979aa	0.14987817
33	0x3ea6ce28	0.3257916
34	0xbf678303	-0.90434283
35	0x3e511827	0.2041937
36	0x3eb6210a	0.35572082
37	0x3f5829a1	0.8443852
38	0x3e319401	0.17341615
39	0xbdf5f486	-0.1200953
40	0xbed7b06d	-0.4212679
41	0x3f5f2601	0.87167364
42	0x3e2a08b3	0.16604881
43	0xbf6e0f0c	-0.9299171
44	0xbecc7d6b	-0.39939436
45	0x3f0b870e	0.5450295
46	0xbee7b64a	-0.45256263
47	0xbf579a46	-0.8421978
48	0xbeadbf3e	-0.3393497
49	0x3e08acfc	0.13347238
50	0x3dc0629d	0.09393809
51	0xbe52d579	-0.20589246
52	0x3cf1d744	0.029521592
53	0xbf36a5a6	-0.7134651
54	0x3da9e95d	0.08296464
55	0x3f8457ef	1.0339335
56	0xbdbcb1eb	-0.09213623
57	0xbf4f1900	-0.8089752
58	0x3e474caf	0.19462846
59	0xbf394138	-0.7236514
60	0xbc06f679	-0.008237475
61	0x3e2b75be	0.16744134
62	0xbed76819	-0.42071608
63	0xbdd5d702	-0.104414
64	0x3f6ad165	0.9172576
65	0x3ed16d14	0.40903533
66	0xbf40069a	-0.75010073
67	0xbf0838be	-0.5321158
68	0x3f714f2e	0.94261444
69	0x3f385563	0.7200529
70	0x3f065c83	0.5248491
71	0x3df7a435	0.12091867
72	0xbe2e414d	-0.17017098
73	0xbf2c244a	-0.6724287
74	0xbee33c9f	-0.44382188
75	0xbdaf7a34	-0.0856823
76	0x3f0bf3f0	0.54669094
77	0xbda5f356	-0.08103053
78	0x3e4e70c9	0.20160212
79	0x3e306161	0.17224647
80	0xbf3c7d8f	-0.7362909
81	0x3cd5d97c	0.026104681
82	0xbf044c93	-0.51679343
83	0xbf301b86	-0.68792
84	0xbccb48de	-0.02481502
85	0xbf3147c5	-0.69250137
86	0xbe866bda	-0.2625416
87	0xbbf3f3eb	-0.007444849
88	0xbeed90a7	-0.46399423
89	0xbe266f99	-0.16253509
90	0xbf590314	-0.8477032
91	0xbe182e5d	-0.14861436
92	0x3f94907c	1.1606593
93	0x3e9f9468	0.31167912
94	0xbe7de437	-0.24794088
95	0x3f4d61b1	0.8022719
96	0x3ed08599	0.40726927
97	0xbe8fcf06	-0.28087634
98	0xbe0a8d80	-0.1353054
99	0xbe82c966	-0.2554428
100	0xbea7b909	-0.32758358
101	0xbe8a0be4	-0.26962197
102	0xbddced31	-0.10787428
103	0x3cbe2804	0.02321244
104	0x3ebbba89	0.36665753
105	0x3edbe8d1	0.42951062
106	0x3d82d337	0.06387942
107	0xbf61d9d9	-0.88223034
108	0x3f046469	0.51715714
109	0x3f708255	0.9394887
110	0xbf8a7785	-1.0817724
111	0x3f0b9982	0.5453111
112	0xbee0b59c	-0.43888557
113	0x3f235b27	0.6381096
114	0xbf7b7f9d	-0.982416
115	0xbe1c4899	-0.15262069
116	0xbeab04e1	-0.3340216
117	0x3cbb5499	0.022867488
118	0x3f5a4169	0.8525606
119	0xbf087049	-0.53296334
120	0x3f212dbd	0.62960416
121	0x3e007f9e	0.12548682
122	0x3c1bb838	0.00950437
123	0xbe29067d	-0.16506381
124	0x3dc4fa59	0.096180625
125	0x3edd33b1	0.432035
126	0xbeb4c82e	-0.35308975
127	0x3f8682de	1.0508687
128	0xbeede222	-0.46461588
129	0x3f2bf893	0.6717617
130	0xbf78489b	-0.9698579
131	0xbe4542fa	-0.19263831
132	0xbaf0e091	-0.0018377473
133	0xbd464220	-0.048402905
134	0x3f68f2f4	0.9099572
135	0x3f2df075	0.67945033
136	0x3e88b5ef	0.26701304
137	0xbf8de7c2	-1.1086352
138	0xbd92d955	-0.07170359
139	0xbe1f6d25	-0.15568979
140	0x3ed0f81a	0.40814286
141	0xbd1915d4	-0.037374333
142	0x3e90cd94	0.28281844
143	0x3f8ba5fb	1.0910028
144	0xbf6f1dfb	-0.9340512
145	0xbf84c583	-1.0372776
146	0xbf0a81e1	-0.5410443
147	0xbcea5724	-0.028606005
148	0xbe91680c	-0.28399694
149	0xbd919e3a	-0.071102574
150	0x3e9a1a5e	0.30098242
151	0xbed3ac53	-0.4134241
152	0xba62dd14	-0.0008654159
153	0x3f1317d8	0.5745826
154	0x3f28be07	0.6591496
155	0xbeb95a5e	-0.36201757
156	0x3f9f016f	1.2422312
157	0xbee97823	-0.4559947
158	0x3e8ca469	0.27469185
159	0x3f1abd1e	0.6044482
160	0xbf4dbaa5	-0.8036292
161	0x3f93aaaf	1.1536463
162	0x3edc4a77	0.43025562
163	0xbe3d053c	-0.18459028
164	0x3f5dfba4	0.867121
165	0xbf87e4f7	-1.061675
166	0x3f3de039	0.7417026
167	0xbe42c40f	-0.19020103
168	0x3f5ee094	0.8706143
169	0x3ed6478e	0.41851467
170	0xbd39162d	-0.045187164
171	0xbe697743	-0.22799401
172	0x3ec9267b	0.3928717
173	0x3f419839	0.756229
174	0xbd8cb86d	-0.06871114
175	0xbdbf2713	-0.09333625
176	0x3e8b1881	0.27167132
177	0x3eb41796	0.35174245
178	0xbf5f4225	-0.87210304
179	0xbf448ab9	-0.76774174
180	0x3f1629ed	0.58657724
181	0xbf9dda06	-1.233216
182	0xbefb0e93	-0.49034557
183	0x3e093769	0.13400044
184	0xbf2da6e1	-0.6783276
185	0x3c5dcc4a	0.013537476
186	0x3ede77ad	0.4345068
187	0x3ecf5177	0.4049184
188	0x3f9e5804	1.237061
189	0xbe7babd0	-0.2457726
190	0x3d5e5b92	0.054286547
191	0x3e850930	0.25983572

network_body._body_endoder.seq_layers.0.bias f4 [64]
0	0x3c496f18	0.012294553
1	0xbd0a440b	-0.033756297
2	0xbc57ea07	-0.013178355
3	0xbbf4e4a3	-0.0074735447
4	0x3d4dbd3d	0.0502293
5	0x3b2755ab	0.002553324
6	0xbb85e6d7	-0.004086356
7	0x3d64cd9e	0.055860154
8	0x3d638edd	0.055556167
9	0xbc12a031	-0.008949325
10	0x3d3e0b1a	0.046397306
11	0xbd088da0	-0.03333819
12	0x3d493402	0.049121864
13	0x3d220dda	0.03956399
14	0xbc4ebfa9	-0.0126189375
15	0xbb870f3a	-0.004121688
16	0x3d183a97	0.03716525
17	0xbceb4201	-0.028717997
18	0x3d24aa22	0.040201314
19	0xbcaff45a	-0.02147882
20	0xbcc52391	-0.024064811
21	0x3d54977f	0.05190229
22	0xbc69dfdc	-0.014274564
23	0xbbbb0d6d	-0.0057083876
24	0x3cccc053	0.024994051
25	0x3d44a676	0.048010312
26	0xbcf6764b	-0.030085703
27	0x3d1870ab	0.037216824
28	0x3c2b2c4d	0.010447574
29	0xbc84bfc9	-0.016204732
30	0x3da360a8	0.0797742
31	0x3c8dad01	0.017294409
32	0xbd1b9cdf	-0.0379914
33	0x3de34d71	0.11098755
34	0x3d04d631	0.03243083
35	0x3ccb917d	0.024849648
36	0xbceff751	-0.029292734
37	0x3cd8181f	0.02637869
38	0xbd2838c6	-0.04106977
39	0x3cfb85d3	0.03070346
40	0xbce4a26b	-0.027909478
41	0x3d4b71fe	0.04966926
42	0x3d4b1516	0.049580656
43	0xbc8e3e77	-0.01736377
44	0x3d09d144	0.033646837
45	0x3d53ae51	0.051679913
46	0xbcbc1b36	-0.022962194
47	0x3d2d3b00	0.042292595
48	0x3dc9233d	0.09821174
49	0xbc971e6d	-0.018447125
50	0xbcc777ae	-0.02434906
51	0xbdb1500c	-0.08657846
52	0x3b189fb8	0.002328856
53	0xbc7586c4	-0.014985744
54	0x3ceb86d1	0.028750809
55	0x3d98b282	0.07455923
56	0xbd2f3187	-0.042771842
57	0x3d1f0e90	0.038832247
58	0x3d52940d	0.051410723
59	0x3ba7c60c	0.0051200446
60	0x3d0d10e0	0.03443992
61	0xbce523f4	-0.027971245
62	0x3d0f0bcc	0.03492336
63	0x3d68a21c	0.056795225

network_body._body_endoder.seq_layers.2.weight f4 [64, 64]
0	0xbe63e641	-0.22255804
1	0xba52693f	-0.0008026547
2	0x3d07435b	0.03302322
3	0xbe11d4ad	-0.14241286
4	0x3e2ecf7b	0.17071335
5	0x3cc72f7d	0.024314636
6	0x3c495ed1	0.012290672
7	0x3db45402	0.08805086
8	0x3dd152fb	0.102209054
9	0x3dc86bdc	0.097861975
10	0x3db5c474	0.08875361
11	0xbe3b6cc7	-0.18303214
12	0xbe0e89dd	-0.13919778
13	0x3d678b14	0.05652912
14	0xbe19dac8	-0.15024865
15	0xbe85c688	-0.2612803
16	0xbddad3c1	-0.1068492
17	0xbe07fe94	-0.13280708
18	0xbea7347c	-0.3265723
19	0x3dfabb24	0.122427255
20	0x3dad1fbf	0.08453321
21	0x3ddf8473	0.109139346
22	0xbe17d0ad	-0.14825697
23	0x3e096ddb	0.13420813
24	0xbdc49cc1	-0.09600211
25	0xbc649d9b	-0.013953592
26	0xbe0d18cf	-0.13778995
27	0x3d8bb9b0	0.068225265
28	0xbe1c7cd7	-0.15281998
29	0xbe22454e	-0.1584675
30	0xbd942026	-0.07232694
31	0x3cd4a92f	0.02595958
32	0x3bf565e8	0.007488955
33	0x3e353335	0.17695315
34	0x3dd0585e	0.10173105
35	0x3d8c4f05	0.06851009
36	0x3d862210	0.06549466
37	0xbce4fd11	-0.027952703
38	0xbeb2093c	-0.3477267
39	0xbe200905	-0.1562844
40	0xbe49ea60	-0.19718313
41	0x3e13d5d6	0.1443704
42	0xbd529d13	-0.05141933
43	0xbe150536	-0.14552769
44	0xbcc56ae6	-0.024098825
45	0xbd05eada	-0.032694675
46	0x3d94ca21	0.072651155
47	0x3e61e3f1	0.22059609
48	0xbc9a710d	-0.018852735
49	0xbe07e415	-0.132706
50	0x3deba422	0.11505915
51	0xbe0e3c4c	-0.13890189
52	0x3d741c29	0.059597168
53	0x3e173503	0.14766316
54	0x3dfb51c5	0.12271456
55	0xbdbbf12d	-0.0917686
56	0x3e963b0e	0.2934193
57	0x3ddb5b97	0.10710829
58	0x3e415ee3	0.18883853
59	0xbe0725d8	-0.1319803
60	0xbde0fd18	-0.10985774
61	0x3e24e360	0.16102362
62	0x3e3f6ab7	0.18693052
63	0x3e32f8d4	0.17477733
64	0xbdaff5a4	-0.08591774
65	0x3c91f210	0.01781562
66	0x3ddbad18	0.107263744
67	0xbacf6a9d	-0.001582462
68	0x3e12a078	0.14319026
69	0x3d62a3e9	0.0553321
70	0x3cee6553	0.02910105
71	0xbda7d563	-0.08194997
72	0xbd724d22	-0.05915559
73	0x3cba9361	0.022775354
74	0x3e102a58	0.14078653
75	0xbe01b7fe	-0.12667844
76	0xbc5ca393	-0.0134667335
77	0x3c30342e	0.010754628
78	0xbe411813	-0.1885684
79	0xbdb32165	-0.08746604
80	0xbe433d26	-0.19066295
81	0xbe0f5302	-0.13996509
82	0x3e8870f5	0.2664868
83	0x3df5efc0	0.12008619
84	0xbdcac20a	-0.09900291
85	0xbe55e7df	-0.20889233
86	0x3d4d9b5a	0.050196983
87	0xbd11c9dd	-0.035592902
88	0x3d3481f2	0.044069238
89	0x3e613733	0.21993713
90	0x3e842d8a	0.25815994
91	0x3dae9b50	0.08525717
92	0xbdaa4144	-0.0831323
93	0xbe05913a	-0.13043681
94	0xbd2c7605	-0.04210474
95	0xbd2fe10c	-0.04293923
96	0x3df81542	0.121134296
97	0x3e18c75e	0.14919803
98	0xbe4d11ed	-0.2002637
99	0x3e203217	0.15644108
100	0x3d78b0d6	0.06071552
101	0xbe14b99d	-0.14523931
102	0xbdbbb720	-0.09165788
103	0x3ea70575	0.3262135
104	0xbe5a42c3	-0.2131453
105	0xbe2baa43	-0.16764168
106	0x3c0d6d99	0.008632087
107	0x3e3412a7	0.1758524
108	0xbd3410c4	-0.0439613
109	0x3e286553	0.16444902
110	0xbd0e5a3f	-0.034754034
111	0xbe6aa9bd	-0.22916313
112	0xbe8d5c61	-0.27609542
113	0xbdc26b8f	-0.094931714
114	0x3da858bd	0.082200505
115	0x3b0af10c	0.0021200804
116	0x3aed28f0	0.0018093865
117	0xbdf39300	-0.118932724
118	0xbd299387	-0.04140046
119	0x3da7b9cb	0.08189734
120	0xbc3ed041	-0.011646331
121	0xbe3a31bc	-0.18183035
122	0x3d798dbb	0.06092618
123	0x3e744268	0.23853457
124	0x3e5510fe	0.20807263
125	0x3d9d5dc1	0.07683898
126	0xbd9e23b3	-0.07721653
127	0x3cf7e2cb	0.03025951
128	0xbde57468	-0.11203843
129	0xbcdde602	-0.027087215
130	0xbe0d0bf6	-0.13774094
131	0xbd1c0051	-0.03808624
132	0xbe2c0389	-0.16798224
133	0x3d01087a	0.031502225
134	0xbe8d42f8	-0.27590156
135	0xbdf122a2	-0.11774184
136	0x3db5e16c	0.088808864
137	0xbd619517	-0.055073824
138	0x3dc720fe	0.0972309
139	0xbdb1f9f4	-0.08690253
140	0xbda65d84	-0.081233054
141	0x3e685cad	0.22691603
142	0xbedba887	-0.42902014
143	0xbe9eaebb	-0.30992684
144	0x3e1faad9	0.15592517
145	0xbd55a961	-0.052163485
146	0x3ea306c4	0.318411
147	0x3d034630	0.032049358
148	0xbda315c7	-0.07963138
149	0x3d92cf77	0.07168477
150	0x3e5c8406	0.21534738
151	0x3cbf4b73	0.023351407
152	0x3d46a9b3	0.04850168
153	0x3e8b198b	0.27167925
154	0xbe1d8be5	-0.15385397
155	0x3bda52ad	0.0066626878
156	0x3d78beda	0.060728885
157	0x3d0186d5	0.031622726
158	0x3d89a12b	0.067201935
159	0x3d28e661	0.04123533
160	0xbde3069a	-0.110852435
161	0xbd6924bd	-0.056919802
162	0x3e613d38	0.2199601
163	0xbd3a54df	-0.045491096
164	0xbd92e6c6	-0.07172923
165	0xbdf015c5	-0.11722902
166	0x3e66dc50	0.2254498
167	0x3e8c7e57	0.2744014
168	0x3e02e96a	0.12784353
169	0xbc7e2126	-0.015510833
170	0x3eb9e334	0.36306155
171	0x3d98d3ad	0.07462249
172	0x3c396005	0.011314397
173	0xbe7e6b5f	-0.24845646
174	0x3de5887a	0.112076715
175	0x3d3433d5	0.043994743
176	0xbe819246	-0.2530691
177	0xbd05cc73	-0.03266568
178	0xbd01788e	-0.03160911
179	0xbd8860f5	-0.06659118
180	0xbe7acd9b	-0.24492495
181	0xbe406af0	-0.18790793
182	0x3d573a7e	0.052546017
183	0x3cd3832e	0.025819387
184	0x3e043fe2	0.12914994
185	0x3e40127a	0.18757048
186	0x3d92785b	0.07151862
187	0xbdb99fea	-0.09063704
188	0x3c8358be	0.016033527
189	0xbe6aa42e	-0.22914192
190	0x3d6079bb	0.05480359
191	0x3d08950e	0.033345275
192	0x3d183e45	0.03716876
193	0x3e846092	0.25854927
194	0x3ec6c5a4	0.38822663
195	0x3c714897	0.014726779
196	0xbe958edc	-0.29210556
197	0xbe72be43	-0.23705392
198	0xbd2deff4	-0.042465165
199	0x3e29c4e1	0.1657901
200	0xbe2f6f9c	-0.1713242
201	0x3dfd6c4e	0.12374173
202	0x3e679c33	0.22618179
203	0x3ea5348b	0.3226665
204	0x3d85fb38	0.06542057
205	0xbe74b9b2	-0.23898962
206	0x3e855740	0.2604313
207	0x3c95444d	0.018221045
208	0xbca980ca	-0.020691294
209	0xbca5f7d7	-0.02025978
210	0xbe146222	-0.1449056
211	0xbe195335	-0.14973147
212	0x3c97b5e2	0.018519346
213	0xbe0cb27f	-0.13739966
214	0xbe157ca8	-0.14598334
215	0xbc927ffe	-0.017883297
216	0xbd6507df	-0.05591571
217	0xbdd93a23	-0.10606792
218	0x3b9a1cd3	0.004703143
219	0x3c18e450	0.009331778
220	0x3e0cbb44	0.13743311
221	0x3d38ffcf	0.045165833
222	0xbe648682	-0.22316936
223	0xbdd75440	-0.10514116
224	0x3e538be8	0.20658839
225	0x3cfe5ea5	0.03105099
226	0xbdea6eea	-0.114469364
227	0x3e1e4200	0.15454865
228	0x3dfe0577	0.12403386
229	0x3da4bba5	0.08043603
230	0xbddfdb0b	-0.10930451
231	0xbd8ee3f7	-0.069770746
232	0x3e28167f	0.16414832
233	0xbe40708a	-0.1879293
234	0xbc1e542f	-0.009663626
235	0xbdbb2fe0	-0.09139991
236	0xbe43c606	-0.19118509
237	0x3d7d9bd9	0.061916206
238	0xbe0bb8bd	-0.13644691
239	0xbca28a68	-0.019841388
240	0x3d08339f	0.033252355
241	0x3d90f9f1	0.070789225
242	0xbe79de8f	-0.24401306
243	0x3d4bf12e	0.049790554
244	0xbdebad31	-0.11507643
245	0x3ce086dc	0.027408056
246	0x3c00f6c7	0.007871336
247	0x3deba863	0.115067266
248	0x3e08156a	0.13289419
249	0xbde08f69	-0.10964853
250	0x3c370397	0.0111702895
251	0x3e14819a	0.14502564
252	0x3d9c7b8f	0.076407544
253	0x3c1ca622	0.0095610935
254	0x3db5c915	0.08876244
255	0xbdc0533a	-0.09390874

network_body._body_endoder.seq_layers.2.bias f4 [64]
0	0x3d06218a	0.03274683
1	0xbc817e62	-0.015807334
2	0x3cadcb0e	0.021214988
3	0x3c935762	0.017986003
4	0x3bc599ed	0.0060303123
5	0xbce60866	-0.028080177
6	0x3d0366b1	0.032080356
7	0x3d27bed4	0.040953472
8	0x3cdcfab1	0.026975008
9	0xbcc6a454	-0.02424828
10	0x3d64cfe5	0.055862326
11	0x3c7eefa2	0.015560063
12	0x3c65819a	0.01400795
13	0x3cfd3640	0.030909657
14	0xbd2db1b8	-0.042405814
15	0x3d0bf895	0.034172613
16	0xbafc0141	-0.0019226448
17	0xbc873a61	-0.01650733
18	0xbbb68258	-0.0055697374
19	0x3d347572	0.044057317
20	0x3dac55bf	0.08414792
21	0xbd41cb6a	-0.04731313
22	0xbc3c11c2	-0.011478843
23	0xbba02713	-0.0048874705
24	0x3d07caa9	0.033152256
25	0xbc3e297a	-0.0116065685
26	0x3d7b9d1f	0.06142914
27	0xbca3042b	-0.019899448
28	0x3ab38fb5	0.0013699444
29	0x3caa07d8	0.020755693
30	0x3d25f398	0.040515512
31	0x3c69e9b6	0.014276912
32	0x3cbd412c	0.023102365
33	0xbca86a7f	-0.020558594
34	0xbc73719b	-0.014858629
35	0xbca9622c	-0.020676695
36	0x3d38134b	0.044940274
37	0xbcfd329d	-0.030907923
38	0x3d3567a9	0.04428831
39	0x3c990e4a	0.018683571
40	0x3c8d62ac	0.017258964
41	0xbd2240ae	-0.039612465
42	0xbc8b076e	-0.016971316
43	0x3b2d2fc6	0.002642618
44	0xbd120586	-0.0356498
45	0x3cfc5c99	0.030805873
46	0x3c1eeb7e	0.0096997
47	0x3c9478ea	0.018124063
48	0x3d55fe4f	0.05224448
49	0x3cf6be75	0.030120114
50	0x3b125c2d	0.0022332773
51	0x3d4752cc	0.048662946
52	0x3d15f7c6	0.03661325
53	0xbce2a081	-0.027664425
54	0x3d20a349	0.03921822
55	0x3b2f3415	0.0026733924
56	0x3d2fe8e4	0.04294671
57	0xbd0c0173	-0.03418107
58	0xbc87b227	-0.016564442
59	0x3c262811	0.0101413885
60	0x3caad218	0.020852134
61	0x3c40454a	0.01173527
62	0x3d1eab25	0.038737435
63	0x3b5ec877	0.0033993998

network_body.lstm.lstm.weight_ih_l0 f4 [256, 64]
0	0x3e299c40	0.16563511
1	0xbd24d7b9	-0.04024479
2	0x3e1f590e	0.15561315
3	0x3e47c008	0.19506848
4	0xbe2c7a18	-0.1684345
5	0x3e8c5610	0.2740941
6	0x3d8c72fe	0.068578705
7	0x3cfbe9be	0.030751105
8	0xbc71aa70	-0.014750108
9	0xbe4e1e1a	-0.2012867
10	0x3e95eab3	0.29280624
11	0xbd56b48e	-0.052418284
12	0x3e0c6f92	0.13714436
13	0x3dce2367	0.10065346
14	0xbd340c61	-0.043957118
15	0x3e0c9533	0.1372879
16	0x3e1d529e	0.15363547
17	0xbe19b7ee	-0.1501157
18	0xbe685083	-0.22686963
19	0xbe366f7a	-0.17815962
20	0x3e34c166	0.176519
21	0xbe2879c2	-0.16452697
22	0xbe505ec0	-0.20348644
23	0x3dbee0dc	0.09320232
24	0xbc8c29c1	-0.017109754
25	0x3d99cb9d	0.07509539
26	0x3e4fff52	0.2031224
27	0xbdb4e398	-0.088324726
28	0x3cad49c2	0.021153335
29	0x3d85931a	0.06522198
30	0xbde47455	-0.11155001
31	0x3e310874	0.17288381
32	0xbdd1763a	-0.10227628
33	0x3e0378ae	0.12839004
34	0xbe1236f5	-0.14278777
35	0xbd61943e	-0.055073015
36	0x3e66d00d	0.22540303
37	0xbdab8427	-0.083748154
38	0x3dcc0ca9	0.09963352
39	0x3d3687c5	0.044563074
40	0x3e1cfb44	0.15330225
41	0xbe8b3ecb	-0.27196345
42	0xbde394b3	-0.111123465
43	0xbdf00152	-0.11719002
44	0x3d86b31a	0.0657713
45	0x3e6234f0	0.22090507
46	0xbb4de1f8	-0.0031415205
47	0x3dc32c4c	0.09529933
48	0x3dadb973	0.08482637
49	0x3e070be9	0.13188137
50	0x3e787bc0	0.24265957
51	0xbd39ac87	-0.04533055
52	0xbd19967b	-0.037497025
53	0x3d7fe4ea	0.06247417
54	0x3da86887	0.08223062
55	0x3d2ecaec	0.04267399
56	0xbde9065c	-0.11378166
57	0xbe9c81b0	-0.30567694
58	0xbe25f6bf	-0.16207407
59	0x3e3e1305	0.18561943
60	0x3dba5bc4	0.09099534
61	0x3e4a82c2	0.19776443
62	0x3b9413e1	0.0045189713
63	0x3d94f52a	0.07273324
64	0xbb90c29b	-0.00441773
65	0x3e110604	0.14162451
66	0xbd1e7de5	-0.03869428
67	0x3e0f08bd	0.13968177
68	0xbe04a2b0	-0.12952685
69	0x3e1b6a43	0.15177254
70	0xbd039e0e	-0.032133155
71	0xbd76f74c	-0.060294434
72	0x3c9deddf	0.019278465
73	0xbe17cb75	-0.14823706
74	0x3e33fe06	0.17577371
75	0x3e46828d	0.19385739
76	0x3e443d23	0.19163947
77	0x3e2600a6	0.16211185
78	0x3cfbc752	0.030734692
79	0x3df137b5	0.117782034
80	0x3e0059b5	0.1253422
81	0x3dde6508	0.10859114
82	0x3e34bea2	0.17650846
83	0xbe3fbf0f	-0.18725227
84	0xbcd3bf7f	-0.025848148
85	0x3daaea23	0.08345439
86	0xbe5dd3f3	-0.21662883
87	0x3c06f626	0.008237397
88	0x3d9892c4	0.07449868
89	0xbe58eda7	-0.21184407
90	0xbc8603cf	-0.016359238
91	0xbd97df13	-0.07415595
92	0x3e2283f0	0.15870643
93	0xbdae11e6	-0.084995076
94	0xbd8d0d09	-0.06887252
95	0x3d6a0e94	0.05714281
96	0xbe2c1f50	-0.1680882
97	0xbdbfb173	-0.09360018
98	0xbd9d372e	-0.0767654
99	0xbd4aa71b	-0.04947577
100	0x3e2db310	0.16962838
101	0xbdf1745a	-0.117897704
102	0xbdefc4b3	-0.11707439
103	0x3e6adc22	0.22935537
104	0x3e5b752b	0.21431415
105	0x3da60e3a	0.08108182
106	0xbe6d7243	-0.23188119
107	0x3e379776	0.17928872
108	0xbdc4f268	-0.09616548
109	0xbe0138a7	-0.12619267
110	0x3e2de638	0.16982353
111	0x3dc7d917	0.097582035
112	0x3de38ec6	0.11111216
113	0x3ccd805c	0.02508562
114	0x3dfe10e7	0.124055676
115	0x3e511fbf	0.20422266
116	0x3d58a185	0.052888412
117	0x3e1423e3	0.14466815
118	0x3dfc1d42	0.12310268
119	0xbcda9a06	-0.026684772
120	0xbe25c920	-0.16190004
121	0xbe5873db	-0.21137945
122	0x3bf9ae80	0.007619679
123	0x3e1ca3f1	0.15296914
124	0x3dc24fd9	0.09487886
125	0xbdcfc597	-0.10145109
126	0xbe41d8c7	-0.1893035
127	0xba361399	-0.00069456693
128	0xbe31659b	-0.17323916
129	0x3d2f5295	0.042803366
130	0xbe221961	-0.15829994
131	0xbe4b3257	-0.19843422
132	0x3e6e779d	0.23287816
133	0xbe246d45	-0.16057308
134	0xbe431ffc	-0.1905517
135	0xbe137191	-0.14398791
136	0x3df867f0	0.121291995
137	0xbd9b118c	-0.07571706
138	0xbe39340b	-0.18086259
139	0x3e3659c0	0.17807674
140	0xbd31dadf	-0.043421622
141	0x3e6a5547	0.22884093
142	0xbd525443	-0.05134989
143	0xbe075408	-0.13215649
144	0xbe2fe338	-0.17176521
145	0x3e45300f	0.19256614
146	0x3da3ea8a	0.08003719
147	0x3d9a1911	0.07524312
148	0xbdf1eacd	-0.11812363
149	0x3e2db850	0.16964841
150	0xbe05b76f	-0.13058256
151	0x3de61866	0.112351224
152	0xbda0fddb	-0.07860919
153	0xbe3ee34e	-0.18641397
154	0x3e4255c9	0.18978037
155	0x3da460e9	0.08026297
156	0xbe0aca27	-0.13553677
157	0xbddcb7a1	-0.10777212
158	0xbd428ad2	-0.04749567
159	0xbe57272c	-0.21011037
160	0x3d832c91	0.06404985
161	0x3e3d0f7c	0.18462938
162	0x3e52651b	0.20546381
163	0x3ded8cdd	0.11599133
164	0x3e3025f4	0.17201978
165	0xbe19da24	-0.1502462
166	0x3e665bf5	0.22496016
167	0xbd125bea	-0.035732187
168	0x3db7b58d	0.08970175
169	0x3e29c56d	0.16579218
170	0x3cbb892f	0.022892563
171	0xbe09afa4	-0.13445908
172	0x3e5da180	0.21643639
173	0x3e65c19c	0.22437137
174	0x3db0507b	0.086091004
175	0xbdae35f6	-0.08506386
176	0xbe258562	-0.16164163
177	0xbe1e3188	-0.15448582
178	0x3e3dccb9	0.18535127
179	0x3d4e55a0	0.050374627
180	0x3e527525	0.205525
181	0x3dacc305	0.084356345
182	0x3e306c75	0.17228873
183	0xbd58c5b0	-0.052922904
184	0x3e742644	0.23842722
185	0x3d8531fb	0.06503674
186	0xbe09067c	-0.1338138
187	0xbd048209	-0.032350574
188	0xba664061	-0.0008783397
189	0x3e129511	0.14314677
190	0xbe1d4214	-0.15357238
191	0x3e2d74bb	0.1693906
192	0x3dd79c49	0.10527856
193	0x3cd08725	0.025455067
194	0x3c1774a1	0.009244115
195	0xbe328ae6	-0.17435798
196	0x3e3e6d8d	0.18596478
197	0x3badeace	0.005307532
198	0x3e5836b0	0.21114612
199	0x3e1c1370	0.1524179
200	0xbe35fc3c	-0.17772001
201	0xbe2fb884	-0.17160231
202	0xbe484183	-0.1955624
203	0xbe593ec2	-0.21215346
204	0x3d7f4c7f	0.06232881
205	0x3e01cf62	0.12676767
206	0xbdb47fa9	-0.08813412
207	0xbdfcd4fe	-0.123453125
208	0xbd81cde4	-0.06338099
209	0xbe41121e	-0.18854567
210	0xbe008290	-0.12549806
211	0xbde948f1	-0.113908656
212	0xbde89a38	-0.1135754
213	0x3dcf1406	0.10111241
214	0xbdfd970f	-0.12382328
215	0xbd6c84a5	-0.057743687
216	0x3e2a45b4	0.16628152
217	0xbe22a863	-0.15884547
218	0xbd0b91a3	-0.034074437
219	0x3de1fe70	0.11034858
220	0x3ce766fc	0.028247349
221	0xbe49f019	-0.19720496
222	0x3df36950	0.11885321
223	0x3db78be2	0.089622274
224	0x3d3e2096	0.046417795
225	0x3d77364f	0.060354527
226	0xbe08296a	-0.13297048
227	0xbdf0bee8	-0.117551625
228	0xbdab0355	-0.08350245
229	0x3e0b11a6	0.13580951
230	0x3d7e9aac	0.062159225
231	0xbe145d0e	-0.14488623
232	0xbe073836	-0.13205037
233	0x3e28122f	0.16413186
234	0x3d4c3cf6	0.049862824
235	0x3d580b33	0.052745055
236	0x3e23770a	0.15963379
237	0xbdbc6b4f	-0.09200155
238	0x3e13b739	0.14425363
239	0x3e36db4e	0.17857096
240	0x3dc62237	0.09674495
241	0x3dac053c	0.08399436
242	0xbdd678e0	-0.10472274
243	0x3e4c9549	0.19978823
244	0xbdb87e9b	-0.09008523
245	0xbdad3106	-0.08456616
246	0xbe65f51b	-0.22456782
247	0x3e494cd2	0.19658211
248	0x3cdc0ebe	0.026862498
249	0xbd8b8331	-0.06812132
250	0xbbdaf20c	-0.0066816863
251	0x3e2989c1	0.16556455
252	0xbe230652	-0.1592038
253	0x3d0f3f02	0.0349722
254	0x3e4b5e3e	0.1986017
255	0x3e208923	0.15677314

network_body.lstm.lstm.weight_hh_l0 f4 [256, 64]
0	0x3d91eaf3	0.07124891
1	0xbe0da746	-0.13833341
2	0x3e7b634c	0.24549598
3	0x3e9f8417	0.31155464
4	0x3e2a99f9	0.16660298
5	0xbe6b6ed3	-0.22991495
6	0x3c91ae66	0.017783355
7	0x3c00d353	0.007862884
8	0x3e3a79a8	0.1821047
9	0x3dcc42aa	0.09973653
10	0x3c9dd43a	0.019266237
11	0xbd333645	-0.043752927
12	0xbcdbb2e2	-0.026818696
13	0x3d930902	0.071794525
14	0x3e98e152	0.29859406
15	0xbe8154fb	-0.25260147
16	0xbde3e475	-0.11127559
17	0x3e50d209	0.20392622
18	0x3e8af770	0.27141905
19	0xbcc0b3ce	-0.023523238
20	0x3d0c113e	0.03419613
21	0x3e6eb697	0.2331184
22	0x3bc6eff6	0.006071086
23	0x3c2bec52	0.010493355
24	0x3b5c317b	0.0033598829
25	0xbbb760db	-0.005596263
26	0xbcbd1edb	-0.023086002
27	0x3cbea066	0.023269843
28	0x3da8e7db	0.08247348
29	0xbd35ffbc	-0.04443334
30	0x3d9d6ed0	0.076871514
31	0xbe80bcd3	-0.2514406
32	0xbe15aac2	-0.1461592
33	0x3dc62e7c	0.09676835
34	0xbd9a6a5c	-0.07539818
35	0x3e729b1f	0.23691987
36	0x3e230d69	0.15923084
37	0xbe2071ae	-0.15668365
38	0x3e58baf0	0.21165061
39	0xbd6bbe28	-0.057554394
40	0x3d1bba46	0.03801944
41	0x3cb9e0ae	0.022690143
42	0xba591ee7	-0.0008282498
43	0xbc5e9083	-0.013584259
44	0x3d778af7	0.06043526
45	0xbba1d376	-0.004938538
46	0xbdc468ab	-0.09590276
47	0x3e78a9d5	0.24283536
48	0xbc8b690f	-0.01701787
49	0xbe3b1800	-0.18270874
50	0x3cb8b011	0.022544893
51	0x3c0b9f1e	0.008521823
52	0x3dcd9077	0.1003732
53	0x3e8207da	0.25396615
54	0xbe03e0ff	-0.12878798
55	0x3e6de33e	0.23231217
56	0xbbd5d544	-0.0065256674
57	0xbe00c5b6	-0.1257542
58	0xb7765483	-1.46824195e-05
59	0xbea408d8	-0.32037997
60	0x3e5ec22b	0.21753757
61	0xbe7e3ad4	-0.24827129
62	0xbd1ad7c2	-0.03780342
63	0xbe94277f	-0.28936383
64	0xbdf4a710	-0.11945927
65	0x3e4c6d9a	0.19963685
66	0x3d742914	0.059609488
67	0xbe1f3eba	-0.15551272
68	0x3d5d27fa	0.053993203
69	0xbe3f0bdc	-0.18656868
70	0xbdeb10c3	-0.114778064
71	0xbc893feb	-0.016754111
72	0xbe42c1c7	-0.19019233
73	0x3e24eb31	0.16105343
74	0xbc68b808	-0.014204033
75	0xbd27bf75	-0.040954072
76	0x3e54d97c	0.20786089
77	0x3d3b66d5	0.045752365
78	0x3e80d766	0.25164336
79	0x3da7acb4	0.081872374
80	0x3cf205a3	0.029543703
81	0xbe46c8c8	-0.1941253
82	0x3c702431	0.014657066
83	0xbd45df7e	-0.048308842
84	0x3dd32402	0.10309602
85	0x3ca36d4e	0.019949581
86	0xbdf358a1	-0.11882139
87	0x3e24f488	0.16108906
88	0x3dd120ee	0.10211359
89	0xbd063321	-0.032763604
90	0xbe6b0788	-0.22952092
91	0x3d8d0bcf	0.06887018
92	0x3e286dcc	0.16448134
93	0xbe1c3d3a	-0.15257731
94	0xbdb90897	-0.090348415
95	0x3d594044	0.053039804
96	0xbd3139c6	-0.043267988
97	0x3e4749b7	0.19461714
98	0x3d78396a	0.06060163
99	0x3e1b18a1	0.15146114
100	0xbdd4628f	-0.10370361
101	0x3da28a7a	0.079365686
102	0x3e664274	0.22486287
103	0xbe827db8	-0.2548654
104	0x3e62d462	0.2215133
105	0xbe5cf024	-0.21575981
106	0x3d23bde6	0.039976023
107	0x3e50a635	0.20375903
108	0xbe69aca5	-0.22819765
109	0x3e126bef	0.14298986
110	0xbdf19a2a	-0.117969826
111	0x3d8a7bb2	0.06761874
112	0x3e281d96	0.16417536
113	0xbdda9c85	-0.10674385
114	0xbe2ff1fb	-0.17182152
115	0xbdd06429	-0.10175354
116	0xbe29ffb9	-0.16601457
117	0x3cc63026	0.02419288
118	0x3da2acba	0.07943101
119	0x3c88f4e7	0.016718341
120	0xbe1ac0cc	-0.15112609
121	0x3e29c90c	0.165806
122	0xbe17836a	-0.14796224
123	0xbd939924	-0.07206944
124	0x3e066a96	0.13126597
125	0x3e1db717	0.15401874
126	0xbe298da8	-0.16557944
127	0x3e02c317	0.12769733
128	0xbe11fc45	-0.1425639
129	0x3dff8a18	0.12477511
130	0x3d71f1f3	0.05906863
131	0xbd4e933d	-0.050433386
132	0x3e0ba71f	0.1363797
133	0xbe7e6ce1	-0.24846222
134	0xbe324672	-0.17409685
135	0x3de1fdbf	0.11034726
136	0x3e0fc6c5	0.14040668
137	0x3e18a711	0.14907481
138	0x3e797082	0.24359325
139	0x3dddf6c0	0.108380795
140	0x3e8f6f50	0.28014612
141	0x3e2d6154	0.16931659
142	0xbe0ac61a	-0.13552132
143	0x3d0f92f1	0.035052244
144	0xbe3adb00	-0.18247604
145	0xbe488fec	-0.19586152
146	0x3e3c2f77	0.18377481
147	0x3dbff6c0	0.09373236
148	0x3dc07969	0.09398157
149	0x3dafe50e	0.085886106
150	0xbde7b910	-0.11314595
151	0x3d228678	0.03967902
152	0x3d892c8c	0.0669795
153	0xbe293394	-0.16523582
154	0x3c414476	0.0117961075
155	0x3e0adec2	0.13561538
156	0x3e51721d	0.20453687
157	0xbe04f434	-0.12983781
158	0x3d1b44d2	0.03790743
159	0xbdb001ab	-0.08594068
160	0xbc5d75d6	-0.013516864
161	0x3e7f58ee	0.24936268
162	0xbe862e72	-0.2620731
163	0xbad8e257	-0.0016546947
164	0xbc4dcbb1	-0.012560771
165	0x3df0c280	0.11755848
166	0x3a3384ae	0.0006848079
167	0x3d674d9b	0.056470495
168	0x3e1855b5	0.14876445
169	0xbd8acdb8	-0.06777519
170	0xbd90f040	-0.07077074
171	0xbd02d5f8	-0.031942338
172	0x3d999555	0.07499186
173	0xbe098de9	-0.1343304
174	0x3df9f564	0.12205008
175	0xbc732c89	-0.014842161
176	0xbe7fd7d0	-0.2498467
177	0x3dfb2497	0.12262838
178	0xbd941b27	-0.072317414
179	0xbe051811	-0.12997462
180	0x3dcb2da3	0.09920814
181	0x3e459443	0.19294839
182	0x3e2f4277	0.17115198
183	0xbc9e3ac1	-0.019315125
184	0xbda67327	-0.08127432
185	0xbd0f88d0	-0.035042584
186	0xbdbba77b	-0.09162804
187	0x3dadf8ff	0.08494758
188	0x3d14f90b	0.03637032
189	0xbda35df0	-0.079769015
190	0x3e40f2bc	0.18842596
191	0xbe90d8f6	-0.28290528
192	0x3d3f7fc0	0.04675269
193	0x3e482416	0.19545016
194	0x3e048b5a	0.12943783
195	0xbbde2fc4	-0.0067805964
196	0xbe3423a3	-0.1759172
197	0xbe076032	-0.1322029
198	0xbd56a0a7	-0.052399304
199	0x3e0fd296	0.14045176
200	0xbd6e36c0	-0.058157682
201	0xbd2fcc71	-0.04291958
202	0xbe606c13	-0.21916227
203	0xbc451ad5	-0.012030323
204	0xbd87bb75	-0.066275515
205	0x3e34c0fc	0.17651743
206	0xbd775eb5	-0.060393054
207	0xbc1726fe	-0.009225605
208	0xbd60710a	-0.054795302
209	0x3e1bcc48	0.15214646
210	0xbe53a234	-0.20667344
211	0xbe3ff631	-0.18746258
212	0xbe4c79db	-0.19968359
213	0xbda08615	-0.07838074
214	0x3d216496	0.039402567
215	0x3e056c05	0.13029487
216	0x3c8df149	0.017326968
217	0xbe572a75	-0.2101229
218	0x3e2dc157	0.16968285
219	0xbd092831	-0.033485595
220	0x3d7993f3	0.06093211
221	0xbdc35836	-0.09538309
222	0x3e48414d	0.1955616
223	0x3d7bf102	0.06150914
224	0x3e375010	0.17901635
225	0xbe58669d	-0.21132894
226	0x3c8af09b	0.016960433
227	0x3dea89da	0.11452074
228	0x3c917952	0.017758045
229	0xbe2c20e8	-0.16809428
230	0xbe0909b5	-0.13382609
231	0x3dcb087c	0.09913728
232	0xbdcb362d	-0.099224426
233	0x3dd401c5	0.103519
234	0xbe3df394	-0.18549949
235	0x3de897e4	0.11357096
236	0xbd2bd1ac	-0.041948006
237	0x3d98f891	0.07469285
238	0x3e20f97d	0.15720172
239	0xbda21659	-0.07914419
240	0x3e332187	0.17493258
241	0xbda17018	-0.07882708
242	0xbdd9dee4	-0.10638216
243	0x3dbd0a62	0.09230496
244	0x3e195d80	0.14977074
245	0x3e2289e2	0.1587291
246	0xbe40cbd1	-0.1882775
247	0x3dec7c94	0.11547199
248	0xbdaf31de	-0.08554433
249	0x3e3cfcb2	0.1845577
250	0x3e1df792	0.15426472
251	0xbcb1ee64	-0.021720119
252	0xbd974d0b	-0.07387742
253	0xbdae0ba3	-0.08498313
254	0xbdd4cd84	-0.103907615
255	0xbddd8eb5	-0.10818235

network_body.lstm.lstm.bias_ih_l0 f4 [256]
0	0x3ddcdfcd	0.10784874
1	0x3cd24dd8	0.025671884
2	0x3d022078	0.031769246
3	0xbca6e91f	-0.020374833
4	0x3d0220bd	0.031769503
5	0x3d2dd19c	0.042436227
6	0x3d811459	0.06302709
7	0x3c8f9ea2	0.017531697
8	0x3dbd8055	0.09252993
9	0x3d8fe1bb	0.070254765
10	0x3cb29a7c	0.02180218
11	0x3d5c763a	0.053823687
12	0x3d1b9a0f	0.03798872
13	0x3d642995	0.05570372
14	0x3bdd915e	0.006761714
15	0xbca018ae	-0.019543018
16	0x3c43c408	0.011948593
17	0x3e0f5a67	0.1399933
18	0xbc89c726	-0.016818594
19	0x3e02dea6	0.12780246
20	0x3cb3c2d2	0.021943484
21	0xbb566c36	-0.0032718307
22	0x3d2f380f	0.04277807
23	0x3d84e10d	0.064882375
24	0x3d9cb742	0.07652141
25	0x3cbc5522	0.022989813
26	0x3ce1828e	0.027528074
27	0x3cc0ab76	0.023519259
28	0x3c137e35	0.009002258
29	0x3cff1081	0.0311358
30	0x3d557fd9	0.05212388
31	0x3d4fd1dd	0.05073725
32	0x3d5ade3a	0.053434588
33	0x3dbac370	0.09119308
34	0x3c9120bd	0.017715806
35	0xbc4b3cbc	-0.012404617
36	0x3d87beee	0.06628214
37	0x3d78a87c	0.060707554
38	0x3b6a7891	0.003577743
39	0x3d78d2cf	0.060747918
40	0xbd4e8591	-0.050420348
41	0x3d0f42ed	0.034975935
42	0x3d545aeb	0.05184452
43	0x3d709d62	0.058743842
44	0xbba1c128	-0.004936356
45	0x3d5d3794	0.05400808
46	0x3d97b1f5	0.074069895
47	0xbbbcab64	-0.005757736
48	0x3c75db4e	0.0150059
49	0x3dd57422	0.10422541
50	0x3d8c5dbf	0.06853818
51	0x3d9c1dcb	0.0762287
52	0xbb046a27	-0.0020204873
53	0x3cbbb4b4	0.022913314
54	0x3cd31e9b	0.02577143
55	0x3bbf9c09	0.0058474583
56	0x3d820665	0.06348876
57	0xbd2a5ce6	-0.0415925
58	0x3c2bed48	0.010493584
59	0x3d45cf6c	0.048293516
60	0x3dbd75bf	0.09250974
61	0x3b8c900d	0.004289633
62	0x3d7ddc4d	0.061977673
63	0x3d4bf9e7	0.049798872
64	0x3f818e2a	1.012151
65	0x3f84a7ff	1.0363768
66	0x3f80ac96	1.0052669
67	0x3f830efc	1.0238948
68	0x3f848fbc	1.0356364
69	0x3f8354e5	1.0260283
70	0x3f809797	1.0046262
71	0x3f816e48	1.011178
72	0x3f7f33ac	0.9968822
73	0x3f7db21a	0.99099886
74	0x3f82fc6f	1.0233287
75	0x3f86554e	1.0494783
76	0x3f7ed7cf	0.9954805
77	0x3f868748	1.0510035
78	0x3f85f563	1.0465511
79	0x3f7d7bad	0.9901684
80	0x3f800218	1.0000639
81	0x3f80d6fa	1.0065606
82	0x3f7cfe01	0.9882508
83	0x3f817168	1.0112734
84	0x3f847abf	1.0349959
85	0x3f7e3b2c	0.9930904
86	0x3f875753	1.0573524
87	0x3f81ed0b	1.0150465
88	0x3f7d1185	0.9885486
89	0x3f7df9c1	0.9920922
90	0x3f7fec46	0.999699
91	0x3f82c5d5	1.0216624
92	0x3f81a638	1.0128851
93	0x3f7e74f1	0.9939719
94	0x3f7cf379	0.9880901
95	0x3f852116	1.0400722
96	0x3f848033	1.0351623
97	0x3f7bab62	0.98308384
98	0x3f7e9dda	0.9945961
99	0x3f8195aa	1.0123799
100	0x3f827387	1.0191506
101	0x3f83b170	1.0288525
102	0x3f85b752	1.044657
103	0x3f800405	1.0001227
104	0x3f8011cc	1.0005431
105	0x3f82a031	1.0205137
106	0x3f7b7589	0.9822622
107	0x3f819c4d	1.0125824
108	0x3f842b86	1.0325782
109	0x3f850c02	1.039429
110	0x3f8116bb	1.0085062
111	0x3f7a4d14	0.9777386
112	0x3f808186	1.0039527
113	0x3f834b88	1.0257425
114	0x3f7d59b8	0.98965025
115	0x3f776f47	0.9665417
116	0x3f759a94	0.9593899
117	0x3f842519	1.0323821
118	0x3f845e3e	1.034126
119	0x3f7aea3d	0.9801367
120	0x3f7ee6a7	0.995707
121	0x3f7805bb	0.96883744
122	0x3f77ee9e	0.96848476
123	0x3f86673b	1.0500253
124	0x3f7d0aad	0.98844415
125	0x3f80a53d	1.0050427
126	0x3f82d931	1.0222532
127	0x3f83acbc	1.0287089
128	0x3bd556ef	0.0065106074
129	0x3cdbbc53	0.026823198
130	0xbc257508	-0.010098703
131	0x3c9692f0	0.018380612
132	0x3c52594d	0.012838674
133	0xbd040145	-0.032227773
134	0xbd2d5d5d	-0.042325366
135	0x3c038132	0.008026408
136	0xbc5358c1	-0.012899579
137	0xbc7f2321	-0.01557234
138	0x3d5ab18f	0.05339199
139	0x3d2a9c28	0.04165283
140	0x3c609ff2	0.013710009
141	0x3d251f95	0.040313322
142	0x3d3ad370	0.0456118
143	0xbd01691b	-0.031594377
144	0x3cea2acb	0.028584858
145	0x3d108032	0.035278507
146	0x3d936618	0.07197207
147	0xbc90e8df	-0.017689167
148	0x3caee15b	0.021347692
149	0xbc5a1182	-0.013309838
150	0x3cc5ecdb	0.024160793
151	0xbd3d3fed	-0.046203543
152	0x3c8bd0cf	0.017067341
153	0x3c8f108f	0.01746395
154	0xbc6ed72a	-0.014577666
155	0xbd16c57f	-0.03680944
156	0x3bfdf3f3	0.0077500283
157	0x3b2df819	0.0026545583
158	0x3c859615	0.016306916
159	0xbd81f3d7	-0.06345337
160	0xbb4f86c5	-0.0031666022
161	0x3c800cd8	0.015631124
162	0xbcfa1f7e	-0.030532595
163	0xb9d29e66	-0.00040172337
164	0xbce4e539	-0.027941333
165	0xbca0e8e8	-0.019642308
166	0x3ca05dbe	0.01957595
167	0xbc19cac2	-0.00938672
168	0x3b795325	0.0038043943
169	0xbccb588d	-0.024822498
170	0xbc2a5759	-0.010396802
171	0x3d1d2fdf	0.03837573
172	0xbd3fff44	-0.0468743
173	0xbd406f28	-0.046981007
174	0xbcc75b44	-0.024335511
175	0xbb22440f	-0.0024759804
176	0xbcfb9d7f	-0.030714748
177	0xbd5f72ad	-0.054552723
178	0xbd01e922	-0.031716473
179	0xbd123b03	-0.03570081
180	0xbcd6716f	-0.026177136
181	0x3d7e36f1	0.062064115
182	0xbcf0654d	-0.029345179
183	0xbb5f1c7d	-0.003404408
184	0xbca33741	-0.019923808
185	0x3bcb2ada	0.0062001767
186	0x3cfddab1	0.03098807
187	0xbd32d1ea	-0.04365722
188	0x3d27ba5a	0.040949203
189	0x3c8c0232	0.01709089
190	0x3cdec651	0.027194174
191	0xbcca2f4c	-0.024680756
192	0x3df75b1b	0.12077924
193	0x3da397b0	0.079879165
194	0x3c8978a0	0.016781151
195	0xbbeeccc5	-0.007287594
196	0xbbad4f1b	-0.005288971
197	0x3bac0528	0.005249638
198	0x3dec951c	0.11551878
199	0x3df2a990	0.11848748
200	0x3d378f24	0.044814244
201	0x3ccf4967	0.025303556
202	0x3bfc7f78	0.007705625
203	0x3c94294d	0.0180861
204	0xbc925fe5	-0.017867992
205	0x3bbfe793	0.005856463
206	0x3bb55b5f	0.005534574
207	0x3c680537	0.0141614
208	0x3db2e150	0.08734381
209	0x3e20064e	0.15627405
210	0x3cb20ec6	0.02173556
211	0x3e0aea9b	0.13566057
212	0x3bccc529	0.0062490893
213	0x3d523345	0.051318426
214	0x3c35ab4a	0.011088202
215	0xbc1fa986	-0.009745007
216	0x3bd534e7	0.0065065506
217	0x3d8eba2e	0.06969105
218	0x3da60d98	0.081080616
219	0x3ccb28f6	0.024799805
220	0x3cc43864	0.02395267
221	0x3cde8a33	0.027165508
222	0x3d6b269b	0.057409864
223	0x3cbe2de0	0.023215234
224	0x3d8509fd	0.06496046
225	0x3d25ba25	0.040460724
226	0x3bd675d3	0.0065448075
227	0x3cdfbdb1	0.027312132
228	0x3db1ddf0	0.08684909
229	0x3d550dc4	0.05201508
230	0x3ccb1db2	0.024794433
231	0x3e0284ea	0.12746015
232	0x3b96e416	0.0046048267
233	0xbc7c19ab	-0.015386979
234	0x3d253268	0.040331274
235	0xbd0336fa	-0.03203485
236	0xbbff85e7	-0.007797945
237	0x3c3ef033	0.011653948
238	0x3d9c7357	0.07639187
239	0x3d4f29cd	0.050576974
240	0x3d113a66	0.035456084
241	0x3da22a81	0.07918263
242	0x3dedb765	0.11607245
243	0x3d24c5a1	0.040227536
244	0x3af0ab4e	0.00183616
245	0x3c33614e	0.010948492
246	0xbcf91e1a	-0.030409861
247	0x3c1b49d8	0.009478055
248	0x3d5c9f3c	0.053862795
249	0xbcb800c6	-0.022461306
250	0x3d8a5a49	0.06755502
251	0xbc2fd827	-0.010732687
252	0x3d8c2aea	0.06844123
253	0x3d90a9e7	0.07063656
254	0x3d66ebcb	0.056377213
255	0x3d235de9	0.03988448

network_body.lstm.lstm.bias_hh_l0 f4 [256]
0	0x3ddcdfce	0.10784875
1	0x3cd24dd3	0.025671875
2	0x3d022079	0.03176925
3	0xbca6e91e	-0.02037483
4	0x3d0220bf	0.03176951
5	0x3d2dd19c	0.042436227
6	0x3d811456	0.06302707
7	0x3c8f9e9a	0.017531682
8	0x3dbd8051	0.0925299
9	0x3d8fe1ba	0.07025476
10	0x3cb29a7d	0.021802181
11	0x3d5c763b	0.05382369
12	0x3d1b9a0f	0.03798872
13	0x3d642994	0.055703714
14	0x3bdd916d	0.006761721
15	0xbca018a9	-0.019543009
16	0x3c43c400	0.0119485855
17	0x3e0f5a64	0.13999325
18	0xbc89c721	-0.016818585
19	0x3e02dea8	0.12780249
20	0x3cb3c2d3	0.021943485
21	0xbb566c91	-0.003271852
22	0x3d2f380f	0.04277807
23	0x3d84e10d	0.064882375
24	0x3d9cb742	0.07652141
25	0x3cbc551e	0.022989806
26	0x3ce18293	0.027528083
27	0x3cc0ab74	0.023519255
28	0x3c137e44	0.009002272
29	0x3cff107f	0.031135796
30	0x3d557fdb	0.052123886
31	0x3d4fd1dd	0.05073725
32	0x3d5ade39	0.053434584
33	0x3dbac36c	0.09119305
34	0x3c9120be	0.017715808
35	0xbc4b3cb9	-0.012404614
36	0x3d87beeb	0.066282116
37	0x3d78a87a	0.060707547
38	0x3b6a78aa	0.0035777488
39	0x3d78d2cf	0.060747918
40	0xbd4e8592	-0.05042035
41	0x3d0f42ed	0.034975935
42	0x3d545ae6	0.0518445
43	0x3d709d60	0.058743834
44	0xbba1c122	-0.0049363533
45	0x3d5d3793	0.054008078
46	0x3d97b1f2	0.07406987
47	0xbbbcab69	-0.0057577384
48	0x3c75db46	0.015005892
49	0x3dd57421	0.104225405
50	0x3d8c5dc1	0.0685382
51	0x3d9c1dca	0.07622869
52	0xbb0469ee	-0.002020474
53	0x3cbbb4b1	0.022913309
54	0x3cd31e9e	0.025771435
55	0x3bbf9c15	0.005847464
56	0x3d820662	0.06348874
57	0xbd2a5ce5	-0.041592497
58	0x3c2bed44	0.01049358
59	0x3d45cf6a	0.04829351
60	0x3dbd75b9	0.092509694
61	0x3b8c8fef	0.004289619
62	0x3d7ddc47	0.06197765
63	0x3d4bf9e7	0.049798872
64	0x3f818e2a	1.012151
65	0x3f84a7ff	1.0363768
66	0x3f80ac95	1.0052668
67	0x3f830efc	1.0238948
68	0x3f848fbc	1.0356364
69	0x3f8354e5	1.0260283
70	0x3f809796	1.004626
71	0x3f816e48	1.011178
72	0x3f7f33aa	0.9968821
73	0x3f7db21a	0.99099886
74	0x3f82fc6f	1.0233287
75	0x3f86554e	1.0494783
76	0x3f7ed7cf	0.9954805
77	0x3f868748	1.0510035
78	0x3f85f563	1.0465511
79	0x3f7d7bae	0.99016845
80	0x3f800218	1.0000639
81	0x3f80d6fa	1.0065606
82	0x3f7cfe02	0.98825085
83	0x3f817168	1.0112734
84	0x3f847ac0	1.034996
85	0x3f7e3b2e	0.9930905
86	0x3f875753	1.0573524
87	0x3f81ed0b	1.0150465
88	0x3f7d1185	0.9885486
89	0x3f7df9c4	0.9920924
90	0x3f7fec47	0.99969906
91	0x3f82c5d5	1.0216624
92	0x3f81a638	1.0128851
93	0x3f7e74f1	0.9939719
94	0x3f7cf379	0.9880901
95	0x3f852116	1.0400722
96	0x3f848033	1.0351623
97	0x3f7bab63	0.9830839
98	0x3f7e9dda	0.9945961
99	0x3f8195ab	1.01238
100	0x3f827387	1.0191506
101	0x3f83b170	1.0288525
102	0x3f85b753	1.0446571
103	0x3f800405	1.0001227
104	0x3f8011cc	1.0005431
105	0x3f82a032	1.0205138
106	0x3f7b758a	0.98226225
107	0x3f819c4e	1.0125825
108	0x3f842b86	1.0325782
109	0x3f850c03	1.0394291
110	0x3f8116bb	1.0085062
111	0x3f7a4d14	0.9777386
112	0x3f808185	1.0039526
113	0x3f834b88	1.0257425
114	0x3f7d59ba	0.98965037
115	0x3f776f45	0.9665416
116	0x3f759a94	0.9593899
117	0x3f842519	1.0323821
118	0x3f845e3e	1.034126
119	0x3f7aea3e	0.98013675
120	0x3f7ee6a8	0.99570704
121	0x3f7805bb	0.96883744
122	0x3f77ee9e	0.96848476
123	0x3f86673b	1.0500253
124	0x3f7d0aac	0.9884441
125	0x3f80a53d	1.0050427
126	0x3f82d931	1.0222532
127	0x3f83acbc	1.0287089
128	0x3bd556cf	0.0065105925
129	0x3cdbbc54	0.0268232
130	0xbc257504	-0.0100986995
131	0x3c9692f2	0.018380616
132	0x3c525945	0.012838666
133	0xbd040146	-0.032227777
134	0xbd2d5d57	-0.042325344
135	0x3c038127	0.008026398
136	0xbc5358c5	-0.012899582
137	0xbc7f2321	-0.01557234
138	0x3d5ab190	0.053391993
139	0x3d2a9c2a	0.041652836
140	0x3c609ff4	0.013710011
141	0x3d251f95	0.040313322
142	0x3d3ad36e	0.04561179
143	0xbd01691b	-0.031594377
144	0x3cea2abf	0.028584836
145	0x3d108031	0.035278503
146	0x3d93661b	0.071972094
147	0xbc90e8e3	-0.017689174
148	0x3caee15a	0.02134769
149	0xbc5a1174	-0.013309825
150	0x3cc5ecdb	0.024160793
151	0xbd3d3fee	-0.046203546
152	0x3c8bd0d3	0.017067349
153	0x3c8f1089	0.01746394
154	0xbc6ed722	-0.014577659
155	0xbd16c583	-0.036809456
156	0x3bfdf3eb	0.0077500246
157	0x3b2df7f8	0.0026545506
158	0x3c859612	0.01630691
159	0xbd81f3d6	-0.06345336
160	0xbb4f86e0	-0.0031666085
161	0x3c800ce5	0.015631149
162	0xbcfa1f7e	-0.030532595
163	0xb9d29e6e	-0.0004017236
164	0xbce4e539	-0.027941333
165	0xbca0e8ec	-0.019642316
166	0x3ca05dbf	0.019575952
167	0xbc19cacd	-0.00938673
168	0x3b79535d	0.0038044073
169	0xbccb5890	-0.024822503
170	0xbc2a574c	-0.01039679
171	0x3d1d2fdb	0.038375717
172	0xbd3fff45	-0.046874303
173	0xbd406f28	-0.046981007
174	0xbcc75b44	-0.024335511
175	0xbb2243d3	-0.0024759665
176	0xbcfb9d83	-0.030714756
177	0xbd5f72ae	-0.054552726
178	0xbd01e91d	-0.031716455
179	0xbd123b01	-0.0357008
180	0xbcd6716b	-0.026177129
181	0x3d7e36f3	0.062064122
182	0xbcf0654d	-0.029345179
183	0xbb5f1c9d	-0.0034044154
184	0xbca3373a	-0.019923795
185	0x3bcb2ace	0.006200171
186	0x3cfddaaf	0.030988066
187	0xbd32d1ea	-0.04365722
188	0x3d27ba59	0.0409492
189	0x3c8c0232	0.01709089
190	0x3cdec64e	0.027194168
191	0xbcca2f4d	-0.024680758
192	0x3df75b12	0.12077917
193	0x3da397b2	0.07987918
194	0x3c8978a0	0.016781151
195	0xbbeeccdf	-0.007287606
196	0xbbad4f16	-0.005288969
197	0x3bac0562	0.005249665
198	0x3dec9518	0.11551875
199	0x3df2a995	0.118487515
200	0x3d378f25	0.044814248
201	0x3ccf4973	0.025303578
202	0x3bfc7f77	0.0077056247
203	0x3c942943	0.018086081
204	0xbc925ff4	-0.01786802
205	0x3bbfe7b9	0.005856481
206	0x3bb55b53	0.0055345683
207	0x3c680531	0.014161394
208	0x3db2e151	0.08734382
209	0x3e20064e	0.15627405
210	0x3cb20ebf	0.021735547
211	0x3e0aea9b	0.13566057
212	0x3bccc542	0.006249101
213	0x3d52333c	0.051318392
214	0x3c35ab63	0.011088225
215	0xbc1fa982	-0.009745004
216	0x3bd534cd	0.0065065385
217	0x3d8eba2f	0.069691055
218	0x3da60d9f	0.08108067
219	0x3ccb28f7	0.024799807
220	0x3cc43858	0.023952648
221	0x3cde8a2c	0.027165495
222	0x3d6b2697	0.05740985
223	0x3cbe2dd9	0.023215221
224	0x3d850a00	0.06496048
225	0x3d25ba26	0.040460728
226	0x3bd6759d	0.0065447823
227	0x3cdfbda8	0.027312115
228	0x3db1ddef	0.086849086
229	0x3d550dce	0.05201512
230	0x3ccb1da6	0.02479441
231	0x3e0284e9	0.12746014
232	0x3b96e408	0.00460482
233	0xbc7c1989	-0.015386947
234	0x3d253268	0.040331274
235	0xbd0336fc	-0.03203486
236	0xbbff85b8	-0.007797923
237	0x3c3ef02c	0.011653941
238	0x3d9c735b	0.0763919
239	0x3d4f29cb	0.050576966
240	0x3d113a65	0.03545608
241	0x3da22a7e	0.07918261
242	0x3dedb765	0.11607245
243	0x3d24c5a5	0.04022755
244	0x3af0ab41	0.0018361585
245	0x3c336157	0.010948501
246	0xbcf91e16	-0.030409854
247	0x3c1b49d5	0.009478052
248	0x3d5c9f3f	0.053862806
249	0xbcb800c9	-0.022461312
250	0x3d8a5a4b	0.06755503
251	0xbc2fd826	-0.010732686
252	0x3d8c2ae6	0.0684412
253	0x3d90a9e4	0.07063654
254	0x3d66ebcb	0.056377213
255	0x3d235de3	0.03988446

action_model._discrete_distribution.branches.0.weight f4 [2, 64]
0	0x3dc06dff	0.0939598
1	0xbe142853	-0.14468507
2	0x3de087a7	0.10963374
3	0x3d890478	0.066903055
4	0x3da6597f	0.08122539
5	0xbdf6cc1f	-0.12050652
6	0xbe17733d	-0.14790054
7	0x3e18de1b	0.14928477
8	0xbe18e45b	-0.1493086
9	0x3da7d3c8	0.08194691
10	0x3dc1595b	0.09440871
11	0x3dfb8ac3	0.12282326
12	0x3dd043f7	0.10169213
13	0x3dba4fcf	0.090972535
14	0x3dd64536	0.1046242
15	0xbdeef854	-0.116684586
16	0x3e04b8f8	0.12961185
17	0xbdf33bb8	-0.11876625
18	0xbbd7d911	-0.0065871556
19	0x3e1a5abc	0.15073675
20	0x3da931e4	0.08261469
21	0xbd297aaf	-0.041376766
22	0x3ddd86c9	0.10816724
23	0xbdf72884	-0.120682746
24	0xbcfdfe6e	-0.03100511
25	0x3dc872d9	0.097875305
26	0xbd97df1e	-0.07415603
27	0xbda88c08	-0.08229834
28	0x3dc7541d	0.0973284
29	0x3e17df18	0.14831197
30	0x3d8ccb9d	0.06874774
31	0xbe0153ab	-0.12629573
32	0xbde2f360	-0.11081576
33	0x3e1a3204	0.15058142
34	0xbdaa55bf	-0.08317136
35	0x3e0494ad	0.1294734
36	0xbe06b489	-0.13154806
37	0xbdd1e2d6	-0.10248344
38	0x3db66c2c	0.08907351
39	0xbe033330	-0.12812495
40	0x3de26d9a	0.11056061
41	0xbd92f07a	-0.071747735
42	0x3e0f3a0f	0.13986991
43	0x3def089a	0.116715625
44	0xbd78763b	-0.06065963
45	0xbdf696e1	-0.120404966
46	0xbe337bd3	-0.17527704
47	0x3e0bc969	0.1365105
48	0xbdee20d8	-0.11627358
49	0xbdd0254e	-0.10163365
50	0x3e02b335	0.12763675
51	0x3e12b8dd	0.14328332
52	0x3cdfd539	0.027323352
53	0x3da9d3de	0.082923636
54	0xbd8f3e27	-0.069942765
55	0x3de91a3c	0.11381957
56	0x3d8c0a5c	0.068379134
57	0xbd9c43ad	-0.07630096
58	0x3e00f0a0	0.12591791
59	0xbdde59e9	-0.10856993
60	0x3e093acc	0.13401335
61	0x3dc8df07	0.09808164
62	0x3e269b70	0.16270232
63	0xbe0d8635	-0.13820727
64	0xbdfe380c	-0.12413034
65	0x3e21fd9b	0.15819399
66	0xbdcf7420	-0.10129571
67	0xbd737762	-0.059440024
68	0xbdb39a98	-0.08769721
69	0x3dc8880e	0.09791575
70	0x3e0cd526	0.13753185
71	0xbe1e240e	-0.15443441
72	0x3e0a542a	0.13508669
73	0xbd7e8370	-0.062137067
74	0xbdadfb93	-0.084952496
75	0xbdc4fbf6	-0.0961837
76	0xbdbe97bd	-0.093062855
77	0xbde5cfc7	-0.11221271
78	0xbde7a972	-0.11311616
79	0x3dca20c9	0.098695345
80	0xbe0349ed	-0.12821169
81	0x3e008cff	0.12553786
82	0x3a6bd4e9	0.00089962647
83	0xbe1db86f	-0.15402387
84	0xbdbe7fda	-0.093017295
85	0x3d68dc3c	0.056850657
86	0xbdf630a0	-0.12020993
87	0x3dfbc5bd	0.12293575
88	0x3cab8b4b	0.020940444
89	0xbdd0bdea	-0.10192473
90	0x3d8b8a10	0.06813443
91	0x3d9da9b9	0.07698388
92	0xbdc0f875	-0.094223894
93	0xbe14d548	-0.14534485
94	0xbdbfdf0c	-0.09368715
95	0x3dd87f21	0.10571123
96	0x3df437ce	0.119247064
97	0xbe1ef2a5	-0.15522249
98	0x3d8ecd5c	0.06972763
99	0xbdbe9530	-0.09305799
100	0x3dedb2a4	0.116063386
101	0x3dd2a8cf	0.10286104
102	0xbdea14ed	-0.114297725
103	0x3e0e8172	0.13916567
104	0xbe11dfa0	-0.14245462
105	0x3d4141f1	0.047182027
106	0xbe12cb22	-0.14335302
107	0xbddc4f55	-0.10757319
108	0x3dd775ae	0.105204925
109	0x3dc6b4cd	0.09702454
110	0x3e3e7793	0.18600301
111	0xbe1bc59e	-0.15212104
112	0x3dfefa89	0.124501295
113	0x3e014b9c	0.12626499
114	0xbe1e7e08	-0.15477765
115	0xbdf361ec	-0.118839115
116	0xbcbc0410	-0.022951156
117	0xbdc3cd1b	-0.09560605
118	0x3dc6cdfa	0.09707256
119	0xbdd77086	-0.10519509
120	0xbdb86e03	-0.09005358
121	0x3da8c5a3	0.08240821
122	0xbde32f29	-0.110929795
123	0x3dd4a24d	0.10382519
124	0xbe1388cd	-0.14407654
125	0xbd8ed099	-0.069733806
126	0xbe309954	-0.1724599
127	0x3df7e6b8	0.12104553

action_model._discrete_distribution.branches.0.bias f4 [2]
0	0x3d1ecee8	0.03877154
1	0xbd1eceef	-0.038771566
