Jumper.onnx (onnx, 154598 bytes, 9 tensors)

network_body._body_endoder.seq_layers.0.weight f4 [64, 3]
0	0xbec659d3	-0.38740405
1	0x3e3d0363	0.18458323
2	0x3dcfc143	0.101442836
3	0x3ed374a5	0.4129993
4	0x3e06b8f1	0.13156487
5	0xbe0f15d0	-0.13973165
6	0xbddaf33d	-0.10690925
7	0x3f304b77	0.6886515
8	0x3eff6367	0.49880525
9	0xbe243ce9	-0.1603886
10	0x3f9606f7	1.1720876
11	0xbee2d197	-0.4430053
12	0x3eb55515	0.35416475
13	0x3ef25df4	0.47337306
14	0xbd12ad3f	-0.03580975
15	0xbe8551ac	-0.26038873
16	0x3eaa2432	0.3323074
17	0x3fa3c723	1.2795147
18	0xbd4c0338	-0.049807757
19	0x3ebedd4f	0.3727822
20	0x3f1e32bd	0.6179617
21	0xbcd01ca7	-0.025404288
22	0x3ed2f6de	0.4120397
23	0x3ebee1f3	0.3728176
24	0x3f98e81a	1.1945832
25	0x3e541ddf	0.2071452
26	0xbeef44b5	-0.46732107
27	0xbf052684	-0.52011895
28	0x3e91a9e8	0.2844994
29	0x3f24a962	0.6432096
30	0xbe0d78c9	-0.13815607
31	0xbc849652	-0.01618496
32	0x3f1d8016	0.6152357
33	0x3d6a6cb7	0.057232585
34	0x3eacd768	0.33758092
35	0x3f5a9281	0.853798
36	0x3eb37166	0.35047454
37	0x3f00a47b	0.5025098
38	0x3ec18831	0.37799218
39	0xbea353fa	-0.31900007
40	0xbf078d5d	-0.5295008
41	0x3ed94a20	0.42439365
42	0xbd3562f4	-0.044283822
43	0x3f083d94	0.5321896
44	0x3edef458	0.43545794
45	0x3d6bc653	0.057562184
46	0x3d836eba	0.06417604
47	0xbed43354	-0.4144541
48	0xbed9e998	-0.4256103
49	0xbf4055b8	-0.75130796
50	0x3f1ae76e	0.60509384
51	0xbf448dc6	-0.7677883
52	0x3f1b1193	0.6057369
53	0xbe843c7b	-0.25827393
54	0xbf503eb5	-0.81345683
55	0xbeed0f4b	-0.4630073
56	0xbedd4871	-0.4321933
57	0xbe3e0474	-0.18556386
58	0x3f682cc0	0.90693283
59	0x3f6a8d4f	0.9162187
60	0xbe0f1d48	-0.13976014
61	0x3f0e71ed	0.55642587
62	0xbe0abba6	-0.13548145
63	0xbf23cdd3	-0.6398594
64	0x3e4d093c	0.20023054
65	0x3f8923c3	1.0714039
66	0xbda93f9c	-0.08264086
67	0xbe7c3b69	-0.24632038
68	0x3e818c29	0.25302246
69	0xbf13d495	-0.5774625
70	0xbf34bca3	-0.70600337
71	0x3e1cdacf	0.15317844
72	0x3f754be6	0.95818937
73	0xbd16fe81	-0.036863808
74	0xbf20ec24	-0.6286032
75	0x3ed8ffa5	0.4238254
76	0x3e8ed875	0.2789952
77	0x3e8181bc	0.25294292
78	0x3da03e14	0.078243405
79	0x3dbf1ccc	0.093316644
80	0x3ff5987d	1.9187161
81	0xbe1ce7eb	-0.15322845
82	0x3edd1079	0.4317663
83	0x3ebf71a0	0.37391376
84	0xbfa81766	-1.3132141
85	0x3f96f746	1.1794212
86	0x3bb36c00	0.005475521
87	0xbeafc7ad	-0.34332028
88	0xbe1b3877	-0.15158258
89	0x3c7d9f88	0.01547993
90	0xbefa57b0	-0.48895025
91	0xbf315998	-0.69277334
92	0xbed81a52	-0.4220758
93	0xbee89703	-0.45427713
94	0x3f1e37da	0.6180397
95	0x3d3f6b33	0.046733093
96	0xbead7de4	-0.3388511
97	0xbe20e50d	-0.15712376
98	0xbefbd1b8	-0.4918344
99	0xbf81df04	-1.0146184
100	0x3eae4597	0.34037468
101	0xbd7ad965	-0.06124248
102	0xbebdc099	-0.37061003
103	0x3eb07bcb	0.34469447
104	0xbdcf2e90	-0.10116303
105	0xbc0bb7b2	-0.008527683
106	0xbf25d2ba	-0.6477467
107	0xbdab51a8	-0.08365184
108	0x3f4d2c78	0.8014598
109	0x3f50d6da	0.8157784
110	0x3e9fd115	0.31214204
111	0xbf643cca	-0.89155257
112	0x3f347391	0.7048884
113	0x3eea6cff	0.45786282
114	0xbd7094e8	-0.058735758
115	0xbc8a3a81	-0.0168736
116	0x3de73cea	0.11290915
117	0x3e9bd2b4	0.3043419
118	0xbe9e45e6	-0.30912703
119	0x3f46d323	0.7766592
120	0xbf08a6cc	-0.5337951
121	0x3ebb6609	0.36601284
122	0xbe862a57	-0.26204178
123	0xbf407d46	-0.7519115
124	0x3ecd5816	0.40106267
125	0x3e9adb52	0.30245453
126	0x3c85a26f	0.016312806
127	0x3ee195ec	0.44059694
128	0x3f2af232	0.6677581
129	0xbeae2425	-0.3401195
130	0x3ddfa19b	0.10919496
131	0xbdc3b99b	-0.09556886
132	0x3f1b2511	0.60603434
133	0x3ea289da	0.31745797
134	0xbc3a7ca4	-0.011382256
135	0x3f5b8e1c	0.85763717
136	0x3d83c001	0.06433106
137	0xbfd78f91	-1.6840688
138	0x3e2d8171	0.16943909
139	0xbda53f4a	-0.08068712
140	0x3f8680b2	1.0508025
141	0xbe025f13	-0.1273158
142	0x3f447948	0.7674756
143	0xbf315da8	-0.69283533
144	0xbdb49d9b	-0.08819123
145	0x3e04ced4	0.12969524
146	0x3eb41d87	0.35178778
147	0xbf43b9c1	-0.7645531
148	0x3f248be6	0.6427597
149	0x3f15b5a9	0.58480316
150	0x3eff5761	0.49871352
151	0xbed2868d	-0.4111828
152	0x3f7b29c6	0.98110616
153	0x3eeb0c76	0.45907944
154	0xbef8b295	-0.48573747
155	0x3f1c94c1	0.6116448
156	0x3fb4d668	1.4127932
157	0xbe15df0e	-0.1463587
158	0x3e8ab734	0.27092898
159	0xbe8d35b5	-0.27580038
160	0xbe49c404	-0.1970368
161	0xbe2ee02c	-0.17077702
162	0x3da0fdda	0.07860918
163	0x3eac9574	0.33707774
164	0x3e0b74b1	0.13618733
165	0xbfb571e9	-1.4175388
166	0xbf11c648	-0.5694318
167	0xbf314b71	-0.6925574
168	0xbe2c7f16	-0.16845354
169	0x3e07c595	0.13258965
170	0xbf71c798	-0.9444518
171	0xbf8dedea	-1.1088231
172	0x3faa3d82	1.3300021
173	0x3f7382ab	0.9512126
174	0xbf3fbd98	-0.7489867
175	0x3e7c256d	0.24623652
176	0xbd45613f	-0.048188444
177	0xbf647200	-0.8923645
178	0x3da853a2	0.08219077
179	0xbe01da56	-0.12680945
180	0xbf6c7917	-0.9237227
181	0xbf749cce	-0.95551765
182	0x3f99972d	1.199926
183	0x3ed8dc95	0.4235579
184	0x3f3360a3	0.7006933
185	0xbf4c010b	-0.7968909
186	0x3df00a5a	0.117207244
187	0x3f9bcb92	1.21715
188	0xbeca1f0a	-0.39476806
189	0xbefcd40d	-0.49380532
190	0xbdc769cb	-0.09736975
191	0xbf694b8b	-0.91130894

network_body._body_endoder.seq_layers.0.bias f4 [64]
0	0x3d5937b5	0.053031642
1	0xbd378be7	-0.044811156
2	0x3c1ebd88	0.009688742
3	0x3d359740	0.044333696
4	0xbc1c4d32	-0.009539889
5	0x3d026590	0.03183514
6	0x3ca93a35	0.020657638
7	0x3d06b69e	0.032889
8	0xbcae5278	-0.021279559
9	0x3d738e60	0.05946195
10	0x3a64f774	0.0008734383
11	0x3d19a023	0.037506234
12	0xbbe6e51e	-0.007046356
13	0x3d854c85	0.065087356
14	0x3cd1f0e9	0.02562757
15	0x3c9ca903	0.01912356
16	0x3d5fa0fe	0.054596893
17	0x3d639146	0.055558465
18	0x3bd0b8ae	0.006369672
19	0x3d319757	0.04335722
20	0x3d0c3c87	0.03423741
21	0x3d6ccb2a	0.05781094
22	0xbc892460	-0.016740978
23	0xbcbf503d	-0.02335369
24	0xbc99fab7	-0.018796308
25	0x3c536547	0.012902564
26	0x3cf82bd8	0.030294344
27	0x3c6024a4	0.013680611
28	0x3d989108	0.074495375
29	0x3ddc1162	0.10745503
30	0x3d3f14ec	0.046650812
31	0x3bb4cf1d	0.005517854
32	0x3bd455b3	0.0064799427
33	0x3ae854da	0.0017725483
34	0x3d714f36	0.058913432
35	0x3c48f438	0.012265258
36	0xbc55cff0	-0.013050064
37	0x3daf6eac	0.08566031
38	0xbbbe8a7e	-0.0058148494
39	0xbd8707fa	-0.06593318
40	0x3db2841c	0.08716604
41	0x3d6c89df	0.05774867
42	0x3d119f0e	0.035552077
43	0x3dcf282c	0.10115084
44	0x3c0727c5	0.008249228
45	0x3cc1a075	0.023636082
46	0x3d046b86	0.032329105
47	0x3dbfaf8a	0.09359653
48	0xbc8f127f	-0.017464874
49	0x3d9288b4	0.0715498
50	0xbc87c015	-0.016571084
51	0xbd3b1e80	-0.045683384
52	0xbd9b1272	-0.075718775
53	0xbc4c731c	-0.012478616
54	0x3c0b22dc	0.008492198
55	0xbd33a205	-0.043855686
56	0x3c761607	0.0150199
57	0x3dccee67	0.10006409
58	0x3d73d928	0.05953327
59	0x3ca8eed4	0.020621695
60	0x3d12bcf9	0.03582475
61	0x3c39b1f8	0.011333935
62	0x3d26cc18	0.040721983
63	0xbc91e832	-0.017810915

network_body._body_endoder.seq_layers.2.weight f4 [64, 64]
0	0x3dab451e	0.083627924
1	0xbc38c6d3	-0.011277872
2	0xbe98845c	-0.29788482
3	0x3c00ae33	0.007854032
4	0xbb8076ac	-0.003920397
5	0xbe8b45ff	-0.2720184
6	0xbe07f031	-0.1327522
7	0xbe114580	-0.14186668
8	0x3d8e8d9d	0.06960604
9	0xbe11c204	-0.14234167
10	0x3d80709c	0.062714785
11	0x3cbcacd5	0.023031631
12	0xbe0ef091	-0.13958956
13	0xbc1734bb	-0.0092288805
14	0xbe186088	-0.14880574
15	0xbdb5878d	-0.08863745
16	0xbd3a2ee1	-0.045454863
17	0xbdf3546e	-0.11881338
18	0xbd09c49e	-0.033634774
19	0x3d89640c	0.067085356
20	0xbe433ee7	-0.19066964
21	0x3de5f477	0.112282686
22	0xbd507a96	-0.050898157
23	0x3d198fa2	0.037490495
24	0x3d8c5a49	0.06853158
25	0xbe8cb4ea	-0.27481776
26	0x3e18efa8	0.14935172
27	0x3d5639fe	0.0523014
28	0xbe69c7b1	-0.22830082
29	0xbcc68f2a	-0.024238188
30	0x3c671ab1	0.014105485
31	0xbda1b6fe	-0.07896231
32	0xbe81ccc3	-0.25351533
33	0x3de415c6	0.111369655
34	0x3e10279c	0.1407761
35	0x3cfbd4e8	0.03074117
36	0xbdf14d28	-0.117822945
37	0xbbf974aa	-0.0076127844
38	0xbdd9bc58	-0.10631627
39	0x3c92c855	0.017917791
40	0x3e2f3d00	0.17113113
41	0xbe85617d	-0.2605094
42	0xbdb8ae7b	-0.090176545
43	0xbc71889e	-0.014742045
44	0x3e401b75	0.18760474
45	0x3c80c6a8	0.015719727
46	0xbe4d2933	-0.20035248
47	0x3de0092b	0.10939249
48	0xbe561bb1	-0.20909001
49	0xbd648d7c	-0.055798993
50	0xbdfbaabc	-0.122884244
51	0x3e0ea0fa	0.13928595
52	0xbdc5632f	-0.096380584
53	0x3bb81b11	0.005618461
54	0xbd09766e	-0.03356021
55	0x3c9eb252	0.01937214
56	0xbe1240e3	-0.14282565
57	0xbdd429bd	-0.103595234
58	0xbd37bd11	-0.044858042
59	0xbb992a71	-0.004674249
60	0xbdc9a8a7	-0.09846621
61	0x3e87c94c	0.26520765
62	0x3d30f913	0.043206286
63	0xbe0bdad8	-0.13657701
64	0xbda05159	-0.07828016
65	0x3bef2690	0.007298298
66	0xbe29449c	-0.16530079
67	0xbdbbf4ea	-0.09177573
68	0xbea6ddb8	-0.32591033
69	0x3d830cbe	0.06398915
70	0xbceef6c9	-0.02917041
71	0xbe0dcb75	-0.13847144
72	0xbd2f1191	-0.042741362
73	0x3d981734	0.07426301
74	0xbd33945e	-0.043842666
75	0xbe17b6af	-0.14815782
76	0xbdbea8f3	-0.09309568
77	0xbbea5565	-0.007151293
78	0xbd223f00	-0.039610863
79	0x3d7dadca	0.061933316
80	0xbdc78469	-0.09742052
81	0xbc8d9f5d	-0.017287904
82	0x3e60d02b	0.2195441
83	0xbe482bc4	-0.19547945
84	0xbd971907	-0.073778205
85	0x3d3e359d	0.04643785
86	0x3d1a6132	0.03769035
87	0x3d9e59ae	0.07731949
88	0xbe80f248	-0.25184846
89	0x3cf31cf4	0.029676892
90	0xbe32b981	-0.17453577
91	0xbe71f4c6	-0.2362853
92	0xbdf9eb0e	-0.12203036
93	0xbd3d86ab	-0.046271008
94	0x3e8e8a23	0.27839765
95	0x3dc64863	0.096817754
96	0x3e66c547	0.22536193
97	0xbe9c103f	-0.30481145
98	0x3dec264b	0.11530741
99	0x3e73d398	0.23811185
100	0x3d55422e	0.052065067
101	0xbcbd9876	-0.023143988
102	0x3b0aba94	0.0021168338
103	0x3d46b63f	0.048513647
104	0x3d89603d	0.06707809
105	0x3d692a56	0.05692514
106	0x3bb27f3d	0.005447297
107	0xbd30dbaa	-0.043178238
108	0x3e0f632d	0.14002676
109	0x3d3ca829	0.046058808
110	0x3d2da9a5	0.042398114
111	0xbd8d56de	-0.06901334
112	0xbe5118b9	-0.20419587
113	0xbe2f1c55	-0.17100652
114	0x3dee7381	0.11643124
115	0x3dd98c20	0.1062243
116	0xbdde005e	-0.10839914
117	0x3e5f0355	0.21778615
118	0x3b7f2cb2	0.0038936553
119	0x3e8be6ce	0.27324528
120	0x3e07fe0e	0.13280508
121	0x3da4882e	0.08033787
122	0xbca8d59c	-0.02060967
123	0xbe3bcfd0	-0.18340993
124	0xbdb803c6	-0.08985095
125	0x3de9b5d4	0.11411634
126	0xbaae4be2	-0.0013297761
127	0xbe29340e	-0.16523764
128	0xbb444e0a	-0.0029953741
129	0xbd426891	-0.047463004
130	0xbdfb66ec	-0.1227549
131	0x3d612c66	0.054973982
132	0xbe53d412	-0.20686367
133	0xbe61c51e	-0.2204785
134	0xbe0bba15	-0.13645203
135	0xbbed2da4	-0.007238107
136	0x3d26f2b7	0.040758815
137	0xbd274e03	-0.040845882
138	0xbec01dfb	-0.37522873
139	0xbdd4d253	-0.10391679
140	0xbd025d6d	-0.03182738
141	0xbd1fccda	-0.03901372
142	0x3e2fdf55	0.17175038
143	0x3e5cae5f	0.21550892
144	0xbcf0c7cf	-0.029392151
145	0xbd8295b1	-0.063762076
146	0xbe810c39	-0.25204638
147	0xbe49452c	-0.19655293
148	0x3d4293e8	0.047504336
149	0xbe64c680	-0.22341347
150	0xbee16576	-0.4402272
151	0xbe86e8ee	-0.26349586
152	0x3de9df7c	0.114195794
153	0x3c8ddc80	0.017317057
154	0x3d105369	0.035235796
155	0xbe111299	-0.1416725
156	0x3d42e8ec	0.047585413
157	0xbe404e9d	-0.18779989
158	0x3dc6c979	0.097063966
159	0x3ba89f41	0.0051459377
160	0x3d4ce3a2	0.050021775
161	0x3e5148fc	0.20437998
162	0xbc41bb62	-0.011824461
163	0xbd7d6b15	-0.0618697
164	0xbd36f13f	-0.044663664
165	0xbd1b3ad1	-0.03789789
166	0xbdb0b3bd	-0.08628032
167	0xbe216791	-0.15762164
168	0xbdf68ff5	-0.120391764
169	0xbcb32706	-0.021869194
170	0xbe19ff71	-0.1503885
171	0xbe10e32c	-0.14149159
172	0x3e3a3c1f	0.18186997
173	0x3e4f71ea	0.20258299
174	0x3d96989c	0.07353327
175	0x3c962a1b	0.018330624
176	0xbe8f05a2	-0.27933985
177	0xbdc4e7f3	-0.09614553
178	0x3c632d7a	0.013865823
179	0xbca0aad6	-0.01961271
180	0x3dd89bbc	0.10576579
181	0xbcb443f1	-0.022005053
182	0x3cccf87c	0.02502083
183	0x3e47f1db	0.19525854
184	0xbdbca5ad	-0.09211288
185	0xbe0de85a	-0.13858166
186	0xbdd35e37	-0.103207044
187	0xbe1836d3	-0.14864664
188	0xbcd9900c	-0.026557945
189	0x3e93786a	0.28802806
190	0x3d79c6f1	0.06098074
191	0x3d4ad178	0.04951617
192	0x3cb124c4	0.021623977
193	0x3d8f7b54	0.07005945
194	0xbc10a9ef	-0.008829578
195	0x3ddbf16d	0.10739408
196	0x3d6f17c9	0.058372293
197	0xbdfd8966	-0.12379722
198	0xbd46b6ab	-0.04851405
199	0xbe56b463	-0.2096725
200	0x3deae208	0.11468893
201	0xbdb080b3	-0.086182974
202	0xbc448a20	-0.011995822
203	0xbe289b5c	-0.16465515
204	0x3e43b3ec	0.19111603
205	0x3d4be684	0.049780384
206	0x3d8f0081	0.06982518
207	0x3e01a98e	0.12662336
208	0xbe18bb2b	-0.14915149
209	0xbde49b05	-0.1116238
210	0x3e0e20c0	0.1387968
211	0xbe39b5de	-0.18135783
212	0x3d611349	0.054950032
213	0x3cb40adc	0.021977834
214	0x3ce8098c	0.028324865
215	0x3cb6b4f4	0.022303082
216	0xbdde440e	-0.10852824
217	0x3cadf97d	0.02123713
218	0x3e446c8c	0.19182032
219	0xbe82b4c4	-0.25528538
220	0xbc5b4217	-0.013382456
221	0x3e2840e5	0.16431005
222	0x3e133fc5	0.14379795
223	0xbe34198b	-0.17587869
224	0xbd9614ab	-0.07328161
225	0xbe2653c7	-0.16242896
226	0xbd901350	-0.070349336
227	0x3dc69355	0.0969607
228	0xbda1de9c	-0.079037875
229	0xbe8f36dc	-0.27971542
230	0x3db273d6	0.087135
231	0x3d9acab4	0.07558194
232	0x3c9825a9	0.018572645
233	0xbdea0743	-0.11427166
234	0x3da648bf	0.08119344
235	0xbd39d0d9	-0.04536519
236	0x3e68b393	0.22724752
237	0x3d4d95cc	0.050191686
238	0xbce6027f	-0.028077362
239	0x3db38c29	0.08766968
240	0x3dbfd4e4	0.093667775
241	0xbe5004fa	-0.20314398
242	0xbe60fa00	-0.21970367
243	0x3e51f9e1	0.20505477
244	0xbb92f653	-0.0044849305
245	0xbdeabe72	-0.11462106
246	0x3d9eba1c	0.07750341
247	0x3d842d9b	0.06454011
248	0x3e61fe32	0.22069624
249	0x3cdf7966	0.027279567
250	0x3bf5a7eb	0.007496824
251	0x3c9637ff	0.018337248
252	0xbe3da1df	-0.1851878
253	0x3e4f105c	0.20221084
254	0x3c9b599f	0.018963633
255	0x3d8cbd04	0.06871989

network_body._body_endoder.seq_layers.2.bias f4 [64]
0	0xbbe351b5	-0.0069372305
1	0x3ba3da7f	0.005000412
2	0x3cd3a55b	0.025835684
3	0xbc069b7c	-0.008215781
4	0xbbd23a31	-0.0064156284
5	0x3b6b0cd8	0.003586581
6	0xbb23192a	-0.0024886825
7	0x3c75bf10	0.014999166
8	0x3cc9072b	0.02453955
9	0x3d1588c1	0.03650737
10	0x3cb1b0ad	0.02169069
11	0x3b9ea8cd	0.0048419
12	0xbb9a62ad	-0.00471147
13	0xb9a30552	-0.00031093747
14	0x3cbbb440	0.022913098
15	0x3b991e06	0.0046727685
16	0xbc870a94	-0.016484536
17	0x3b263622	0.0025361856
18	0x3d45869c	0.048224077
19	0x3ba43d40	0.0050121844
20	0x3caadfcb	0.020858666
21	0x3d83ee4a	0.064419344
22	0xbc44189e	-0.01196876
23	0x3cc9f2e2	0.024651948
24	0x3cae215b	0.02125614
25	0xbcb4422d	-0.022004211
26	0x3cb96a25	0.022633621
27	0x39a9e010	0.00032401131
28	0xbd19067c	-0.0373597
29	0x3cf07131	0.029350849
30	0xba876b72	-0.0010331704
31	0xb9be68ae	-0.00036317616
32	0x3bf9c792	0.0076226676
33	0xbc90c742	-0.017673139
34	0x3d207b03	0.039179813
35	0xbcf63674	-0.030055262
36	0x3d5a81c0	0.053346395
37	0x3ca3d909	0.020000951
38	0xbc8f28b1	-0.017475458
39	0x3ba6f764	0.005095409
40	0x3c1de65a	0.00963744
41	0x3bdd7050	0.0067577735
42	0x3c5f293c	0.013620671
43	0x3cafed26	0.021475386
44	0x3d486f91	0.048934523
45	0x3d186248	0.037203103
46	0x3c780baa	0.0151395
47	0xbbdea77b	-0.0067948676
48	0x3ca0e6f7	0.019641383
49	0x3d2bb04e	0.041916184
50	0xbc0cd3b7	-0.008595399
51	0xbc3d7b19	-0.011564993
52	0x3cd89244	0.026436932
53	0x3d25c8fb	0.040474873
54	0xbca2bc9f	-0.019865332
55	0xbd1a3d63	-0.0376562
56	0x3cd0fe64	0.025511928
57	0x3cadbd2e	0.021208372
58	0x3d261b50	0.04055339
59	0xbcdb2b62	-0.026754085
60	0x3d69ce43	0.057081472
61	0xbcb0604b	-0.021530291
62	0x3c8cb693	0.017176902
63	0xbb3d62e3	-0.0028898052

action_model._discrete_distribution.branches.0.weight f4 [2, 64]
0	0x3dcfbc5c	0.101433486
1	0xbd9ba9a3	-0.07600715
2	0xbde5f936	-0.11229174
3	0xbe0c9670	-0.13729262
4	0xbe4a0b72	-0.19730929
5	0x3e0cd4b6	0.13753018
6	0x3e1c4d26	0.15263805
7	0xbe08f1de	-0.13373515
8	0x3e04d628	0.12972319
9	0xbdb3e24e	-0.087833986
10	0xbde313a5	-0.11087731
11	0x3e11faa8	0.14255774
12	0xbde78567	-0.11304741
13	0x3dd8c6cc	0.105847925
14	0x3dcfde76	0.10149853
15	0xbe12ab26	-0.143231
16	0xbdc2d400	-0.09513092
17	0x3e069b2a	0.13145128
18	0x3deede36	0.11663477
19	0xbe6069eb	-0.21915404
20	0xbd85d4ac	-0.065347046
21	0x3e50a785	0.20376404
22	0x3da33afe	0.07970236
23	0xbdf5c693	-0.12000766
24	0xbdff590c	-0.12468156
25	0xbdfc8f4a	-0.12332018
26	0x3e0875f6	0.13326249
27	0xbe398223	-0.1811605
28	0x3e047ca2	0.12938169
29	0xbdae417c	-0.08508584
30	0xbe088cd8	-0.13334978
31	0x3e488221	0.1958089
32	0x3dfdd8c8	0.12394863
33	0xbe3725e2	-0.17885545
34	0xbdc6ac2c	-0.09700808
35	0x3ddde120	0.10833955
36	0xbdf8815b	-0.121340476
37	0xbdaabdf4	-0.08337012
38	0x3e5cd416	0.2156528
39	0x3daab5a5	0.08335427
40	0x3dd17174	0.102267176
41	0xbda2e08d	-0.07952986
42	0xbde4914b	-0.11160525
43	0x3dca447f	0.09876346
44	0xbe0a7a9a	-0.13523331
45	0x3de56641	0.11201144
46	0x3db6da78	0.08928388
47	0x3e4fee6d	0.20305796
48	0xbe3da62e	-0.18520424
49	0x3e373345	0.17890652
50	0xbe093f5c	-0.13403076
51	0xbdd74a8e	-0.10512267
52	0xbe125c0a	-0.14292923
53	0x3d34e743	0.04416586
54	0x3dc190d1	0.0945145
55	0x3e02af6e	0.12762234
56	0xbddc8394	-0.10767284
57	0xbdbb261d	-0.09138129
58	0xbe2d87ac	-0.16946286
59	0xbe284409	-0.16432203
60	0xbde59bd8	-0.112113655
61	0x3de19a1d	0.11015723
62	0xbe80f5d9	-0.25187567
63	0x3ddf4d1f	0.109033816
64	0xbdf7e781	-0.12104703
65	0x3defc264	0.11706999
66	0x3e051ac0	0.12998486
67	0x3e0baf12	0.13641003
68	0x3e2043e0	0.15650892
69	0xbdfe8fc2	-0.124297634
70	0xbe34692b	-0.17618243
71	0x3e149608	0.14510357
72	0xbe0c6e78	-0.13714015
73	0x3da5838a	0.0808173
74	0x3dd83b6a	0.10558207
75	0xbe166c93	-0.14689855
76	0x3e297b67	0.1655098
77	0xbe05df5b	-0.13073485
78	0xbe07baec	-0.13254899
79	0x3e0ee2a2	0.13953641
80	0x3daa714f	0.08322393
81	0xbdf195d2	-0.11796154
82	0xbdde734a	-0.108618334
83	0x3e6e43ff	0.23268126
84	0x3d8a2221	0.06744791
85	0xbe46a242	-0.19397834
86	0xbd6c2d28	-0.05766025
87	0x3e051080	0.12994576
88	0x3e03c7d7	0.12869202
89	0x3dfb39ab	0.12266859
90	0xbe15ee95	-0.14641793
91	0x3e327026	0.17425594
92	0xbe0e5521	-0.13899662
93	0x3dc65ef7	0.09686082
94	0x3dc5bb3d	0.096548535
95	0xbe633e9b	-0.22191851
96	0xbdeaa5f7	-0.114574365
97	0x3e39e853	0.18155031
98	0x3decb9e7	0.115588956
99	0xbdeb1407	-0.11478429
100	0x3de7e127	0.11322241
101	0x3dbac3a1	0.091193445
102	0xbe420f46	-0.18951139
103	0xbdb36f0b	-0.08761414
104	0xbdc994e4	-0.09842852
105	0x3db7052d	0.08936534
106	0x3dde85fb	0.108653985
107	0xbddfd89d	-0.109299876
108	0x3e31f2e4	0.17377812
109	0xbded97c7	-0.11601215
110	0xbdc4035c	-0.09570953
111	0xbe582da1	-0.21111156
112	0x3e2a2a4e	0.166177
113	0xbe53fcfd	-0.20701976
114	0x3ddcf6ef	0.10789286
115	0x3dc08ce7	0.09401875
116	0x3df1938b	0.1179572
117	0xbd5a3fa5	-0.053283352
118	0xbdc6f2a9	-0.097142525
119	0xbe0843a7	-0.13307057
120	0x3dedbd13	0.11608329
121	0x3dbf030c	0.09326753
122	0x3e21d114	0.15802413
123	0x3e3e5974	0.18588811
124	0x3dfce824	0.12348965
125	0xbe0b1f49	-0.13586153
126	0x3e8fbc37	0.28073284
127	0xbdfcc869	-0.12342913

action_model._discrete_distribution.branches.0.bias f4 [2]
0	0x3bcf5592	0.0063273394
1	0xbbcf5383	-0.006327094

98 f4 [1, 256, 64]
0	0xbe19d2b4	-0.15021783
1	0xbd49859f	-0.049199697
2	0x3e868238	0.26271224
3	0xbd08c41c	-0.03339015
4	0xbe48937c	-0.19587511
5	0xbe5911ec	-0.21198243
6	0xbe89443c	-0.2680987
7	0x3e42ef42	0.19036582
8	0x3e6be095	0.2303489
9	0x3e910474	0.2832371
10	0xbdeee044	-0.11663869
11	0xbda294bd	-0.07938526
12	0xbc2435b8	-0.010022573
13	0xbdffa08f	-0.12481796
14	0xbd0713a0	-0.0329777
15	0x3e5e86a2	0.21731046
16	0x3dfa60e5	0.122255124
17	0xbe0e56d5	-0.13900311
18	0xbe40f88b	-0.18844812
19	0x3d1afdde	0.037839763
20	0xbdfc55b3	-0.12321033
21	0xbc9f107e	-0.019417044
22	0x3e35d12c	0.17755574
23	0xbde7a991	-0.11311639
24	0xbdcf651e	-0.101267084
25	0xbe6d5c1b	-0.23179667
26	0x3e0bf212	0.13666561
27	0x3ea04990	0.31306124
28	0xbe650241	-0.22364141
29	0xbdd825ec	-0.10554108
30	0xbd4632ee	-0.048388414
31	0xbe566873	-0.20938282
32	0x3d1e9301	0.038714413
33	0xbdfe1988	-0.124072134
34	0x3e2b4cdc	0.16728538
35	0xbbcd3356	-0.0062622232
36	0xbc8f498a	-0.01749112
37	0x3dbec4cd	0.093148805
38	0x3e3474f2	0.17622736
39	0xbaf6c383	-0.0018826578
40	0x3d036443	0.03207804
41	0xbd3a39e1	-0.045465354
42	0x3dafa9e1	0.08577324
43	0x3daeda09	0.08537681
44	0xbe9921f3	-0.29908714
45	0x3e38737b	0.18012802
46	0xbe00c28e	-0.12574217
47	0x3d327e88	0.0435777
48	0xbdd2063b	-0.102550946
49	0x3e2c9a51	0.16855742
50	0x3e0015b0	0.12508273
51	0xbe2acbba	-0.16679278
52	0xbda17b89	-0.078848906
53	0x3e438eb2	0.19097403
54	0x3d063f8b	0.032775443
55	0xbbb72d31	-0.005590104
56	0xbe29fab9	-0.1659955
57	0x3d2da15f	0.042390224
58	0x3e5525ab	0.2081515
59	0x3dc8bd5e	0.09801744
60	0x3e7cb621	0.24678852
61	0xbdd48a19	-0.103779025
62	0x3dca8782	0.09889127
63	0x3e7fd7e8	0.24984705
64	0x3e13f489	0.14448752
65	0x3e294d2a	0.16533342
66	0xbdb07b3d	-0.08617256
67	0xbe278427	-0.16359006
68	0xbd408637	-0.047002997
69	0xbe3bd0f8	-0.18341434
70	0xbdea54a1	-0.11441923
71	0xbe4cb42d	-0.19990607
72	0x3dc7b315	0.09750954
73	0xbe2850c8	-0.16437066
74	0xbe48e4e2	-0.19618562
75	0xbd125405	-0.03572466
76	0x3bc0ad94	0.005880067
77	0xbe4dc219	-0.20093574
78	0x3e236a53	0.15958528
79	0x3d2741a9	0.040834103
80	0x3e2e495e	0.17020175
81	0xbe1ab821	-0.15109302
82	0x3d746286	0.05966427
83	0x3d7c02ca	0.061526097
84	0xbd807e1c	-0.062740535
85	0xbae03469	-0.0017105463
86	0x3dd87913	0.10569968
87	0xbd6b3404	-0.057422653
88	0x3da8471d	0.08216689
89	0xbe798ad8	-0.24369371
90	0xbe2a8b02	-0.1665459
91	0xbdc9c7f9	-0.09852595
92	0x3d80443c	0.06263015
93	0xbdf57f79	-0.11987204
94	0xbdb092ff	-0.08621787
95	0xbcbd6a50	-0.023121983
96	0x3dd81a7a	0.10551925
97	0x3dc76c9c	0.097375125
98	0x3dce82a4	0.100835115
99	0x3e67b3cb	0.2262718
100	0x3e1498aa	0.14511362
101	0x3e4c2edf	0.19939755
102	0x3e3a41f4	0.18189222
103	0xbe46ffac	-0.19433469
104	0xbc9872ed	-0.018609488
105	0xbe018e3b	-0.12651913
106	0xbdada747	-0.08479171
107	0x3db79f38	0.089659154
108	0x3db5f716	0.088850185
109	0x3e0fde87	0.14049731
110	0x3e2f1d78	0.17101085
111	0xbd18b144	-0.03727843
112	0xbe620899	-0.22073592
113	0x3d18da12	0.037317343
114	0xbe3a25ef	-0.18178533
115	0xbd40de1a	-0.047086813
116	0xbc14b85d	-0.009077159
117	0xbe362c04	-0.17790228
118	0xbe40e91c	-0.18838924
119	0xbd40a6a6	-0.04703393
120	0xbe22a4f5	-0.15883239
121	0x3d6c708d	0.057724524
122	0x3e676d36	0.22600254
123	0xbde70b26	-0.11281423
124	0xbd36283c	-0.044471964
125	0x3c63a8d5	0.013895233
126	0xbe1da541	-0.1539507
127	0x3df3b6bd	0.11900089
128	0xbdda36e8	-0.10655004
129	0xbdd87770	-0.10569656
130	0xbd19ca02	-0.037546165
131	0xbe1c60e3	-0.15271334
132	0xbe3d28ec	-0.18472642
133	0xbe2ed296	-0.1707252
134	0xbd0a1c87	-0.033718612
135	0x3d661d98	0.056180567
136	0x3e15c135	0.14624484
137	0xbdf7fff1	-0.12109364
138	0x3d417231	0.047228042
139	0xbd22cfed	-0.039749075
140	0x3de8145e	0.1133201
141	0xbe0ab58d	-0.13545819
142	0xbddcb16f	-0.1077603
143	0xbdc4c833	-0.096084975
144	0xbdcaabfd	-0.098960854
145	0x3daa9130	0.083284736
146	0xbd6aca5f	-0.057321902
147	0xbd8fda83	-0.070241
148	0x3c0f8535	0.008759786
149	0x3de7854a	0.1130472
150	0x3d8640fa	0.06555362
151	0xbcf75dd7	-0.030196114
152	0xbdaeb428	-0.08530456
153	0xbe028f02	-0.12749866
154	0x3e8a41c7	0.2700331
155	0x3e5f0661	0.21779777
156	0xbbc5468c	-0.0060203727
157	0x3d55cc13	0.052196573
158	0x3e1f5d49	0.15562929
159	0xbd9ad56f	-0.075602405
160	0xbd8e0556	-0.069346115
161	0xbe92d15d	-0.28675357
162	0x3e7a2d4c	0.24431342
163	0xbddafba1	-0.10692526
164	0xbd0bfa4e	-0.034174256
165	0x3e575ab6	0.21030697
166	0xbd48c76d	-0.049018312
167	0xbe3ab176	-0.18231758
168	0xbe40284c	-0.18765372
169	0xbe4d253d	-0.20033737
170	0x3d03f422	0.032215245
171	0xbe526228	-0.20545256
172	0x3e331b93	0.17490987
173	0xbdb0e367	-0.086371236
174	0xbe1b1e3a	-0.1514825
175	0x3e88e0e9	0.26734093
176	0xbcda9aca	-0.026685137
177	0xbdb1c5eb	-0.08680328
178	0x3d1ebd88	0.03875497
179	0xbe9bbcff	-0.3041763
180	0x3de63510	0.112405896
181	0x3d7d91f4	0.06190677
182	0x3de1b401	0.11020661
183	0x3d20339a	0.03911171
184	0xbe65db9d	-0.22447057
185	0xbda17262	-0.07883145
186	0xbd04e175	-0.032441575
187	0xbdfc810a	-0.123293
188	0x3de42a9d	0.1114094
189	0xbc57709d	-0.013149408
190	0x3e1ca5b2	0.15297583
191	0x3d6be0e5	0.057587523
192	0xbd8b774c	-0.068098634
193	0x3d19cd29	0.03754917
194	0x3ba74753	0.005104938
195	0xbdd35610	-0.103191495
196	0xbcbb58c0	-0.022869468
197	0xbe88db4f	-0.2672982
198	0xbe09b91d	-0.13449521
199	0x3d62744f	0.0552867
200	0x3df268a0	0.11836362
201	0x3e3b5e5d	0.18297715
202	0xbe6733b1	-0.22578312
203	0xbe9af8a2	-0.30267817
204	0x3d85673d	0.06513832
205	0x3d89e355	0.06732813
206	0xbd109263	-0.035295855
207	0xbe64eaf1	-0.22355248
208	0xbe3ec79d	-0.18630834
209	0xbdab086b	-0.08351215
210	0xbdd288ea	-0.102800205
211	0xbcd1c6db	-0.025607517
212	0xbe75c49f	-0.24000786
213	0xbe979c7e	-0.29611582
214	0xbc73988b	-0.014867912
215	0x3da77eb8	0.081784666
216	0x3dd28637	0.10279506
217	0x3cf2b7ff	0.029628752
218	0xbe084cab	-0.13310497
219	0x3ea51c5b	0.32248196
220	0xbdd8985b	-0.105759345
221	0x3e2b1555	0.16707356
222	0x3df044e8	0.11731893
223	0x3df6ff4c	0.12060413
224	0x3d1fe2ac	0.03903453
225	0x3c76338f	0.015026941
226	0x3ea35f7c	0.31908786
227	0xbdb62db7	-0.08895438
228	0x3e8083c4	0.2510053
229	0x3db8b107	0.0901814
230	0xbe7d1ebf	-0.2471876
231	0xbbe7e7aa	-0.007077177
232	0xbe4a6439	-0.19764794
233	0xbea2c8a4	-0.31793702
234	0x3e9c3916	0.30512303
235	0x3e075100	0.13214493
236	0x3e539576	0.20662484
237	0x3e931cc4	0.28732884
238	0x3e0ea574	0.13930303
239	0xbcf0bcb2	-0.029386852
240	0x3e1e0c06	0.15434274
241	0x3e03a720	0.12856722
242	0x3ce82faf	0.02834305
243	0xbea0cc51	-0.3140588
244	0xbdcc700d	-0.099823095
245	0x3d6f3ffb	0.058410626
246	0x3de45cd3	0.11150517
247	0x3e3972a2	0.18110135
248	0x3d540128	0.051758915
249	0xbe5f4294	-0.21802741
250	0x3da563a9	0.08075649
251	0x3d0a9c37	0.033840384
252	0xbe02f11b	-0.12787287
253	0xbe25b1d3	-0.16181116
254	0x3e5df9d1	0.21677329
255	0x3e938f7d	0.2882041

99 f4 [1, 256, 64]
0	0x3da4222b	0.080143295
1	0xbe637181	-0.22211267
2	0xbe970ad4	-0.2950045
3	0xbd83650d	-0.06415758
4	0xbd3d3474	-0.0461926
5	0xbe126c2e	-0.1429908
6	0xbe051361	-0.12995674
7	0xbdfb15e0	-0.12260032
8	0x3e4d63ba	0.20057574
9	0x3de33b06	0.11095242
10	0xbe61b9b7	-0.22043501
11	0xbd33b2a8	-0.04387155
12	0xbdf8df90	-0.12152016
13	0xbde6d09a	-0.11270256
14	0xbbb89210	-0.0056326464
15	0x3d068d3c	0.032849535
16	0x3d6cbf02	0.057799347
17	0x3e17dc6e	0.14830181
18	0xbe0be3e5	-0.13661154
19	0xbd5b4c49	-0.053539548
20	0x3d8109b2	0.06300677
21	0x3e35295c	0.17691559
22	0x3e243e5a	0.1603941
23	0xbe5c6189	-0.21521582
24	0x3cbf6774	0.02336476
25	0xbd920342	-0.07129528
26	0xbe0aeb25	-0.13566263
27	0x3d2ae146	0.041718744
28	0xbd9a5971	-0.07536591
29	0xbe6aac5f	-0.22917317
30	0x3de20a4b	0.110371195
31	0xbd9824d8	-0.074289024
32	0x3e433853	0.19064455
33	0xbd0f1b6e	-0.03493827
34	0xbb053f7e	-0.0020332034
35	0xbe3dbf5c	-0.18530029
36	0x3e3c3c5a	0.18382397
37	0xbcc25703	-0.023723131
38	0xbda426b9	-0.08015198
39	0x3e5f319f	0.21796273
40	0xbcdd5def	-0.02702233
41	0x3c4b4704	0.012407068
42	0xbd2b8bd7	-0.04188141
43	0xbd4afe5d	-0.049558986
44	0x3de70484	0.11280158
45	0x3e4f5d39	0.20250405
46	0xbc6cb0ca	-0.014446447
47	0x3cfd479e	0.030917939
48	0x3b844f77	0.0040377933
49	0x3de98f74	0.11404315
50	0x3e138eac	0.14409894
51	0x3d1f04ee	0.03882306
52	0xbe549409	-0.20759596
53	0xbded9b8c	-0.11601934
54	0xbe0df64f	-0.1386349
55	0x3e97f5c3	0.2967969
56	0xbc91ed11	-0.017813237
57	0xbe10bd12	-0.14134625
58	0xbd987e76	-0.074459955
59	0x3d7cf8cc	0.06176071
60	0x3c3c6cce	0.01150055
61	0x3df8c6fc	0.12147328
62	0x3d6b83c5	0.057498712
63	0xbdb20a0e	-0.08693324
64	0xbe091a8a	-0.1338903
65	0xbe5ac056	-0.21362433
66	0xbd2a28f7	-0.041542973
67	0x3d4b4a97	0.04963168
68	0x3dbf58c7	0.09343105
69	0x3c8e58d3	0.017376339
70	0x3db11364	0.086462766
71	0x3a1eb6c9	0.0006054459
72	0x3e514fad	0.2044055
73	0xbd7208d3	-0.059090447
74	0x3b241bf0	0.0025041066
75	0xbd08a8d6	-0.03336414
76	0x3db7abcb	0.08968314
77	0x3e625c9f	0.22105645
78	0x3e190301	0.14942552
79	0x3df001cf	0.11719095
80	0xbd8216bf	-0.06351995
81	0x3dc86da0	0.09786534
82	0xbe079925	-0.13242014
83	0xbe3b3e43	-0.1828547
84	0x3dda30c2	0.10653831
85	0x3df9a5ef	0.121898524
86	0xbd6dbea0	-0.058043122
87	0x3e169bf4	0.14707929
88	0x3d47a511	0.048741404
89	0xbcf416c5	-0.029796014
90	0xbdfbd3b0	-0.122962356
91	0x3dd6c87a	0.104874566
92	0x3d07860e	0.03308683
93	0xbe071e6c	-0.13195199
94	0x3d066c1c	0.032817945
95	0xbe10f4c2	-0.14155868
96	0xbd8a3aa2	-0.067494646
97	0x3dca4053	0.0987555
98	0x3d877d40	0.066156864
99	0xbddaf543	-0.10691311
100	0xbdb95433	-0.09049263
101	0x3d5108fc	0.05103396
102	0xbe162103	-0.1466103
103	0x3e40fdea	0.1884686
104	0x3e074005	0.13208015
105	0xbe2eb31b	-0.17060511
106	0x3dfe77cb	0.124251924
107	0x3d539299	0.05165348
108	0xbd59a01e	-0.053131215
109	0x3e1e5f6d	0.1546609
110	0xbe01480e	-0.12625143
111	0xbe1a75d1	-0.15084006
112	0xbdb04700	-0.08607292
113	0x3dcacd8d	0.09902487
114	0xbd83924c	-0.06424388
115	0xbe159f48	-0.14611542
116	0xbe1f74e9	-0.15571941
117	0x3e35ab64	0.17741162
118	0x3d562f15	0.052290995
119	0xbc5ce11f	-0.013481407
120	0xbe5f555b	-0.21809904
121	0x3d15c197	0.036561575
122	0x3e2209ca	0.15824047
123	0xbe51f3dd	-0.20503183
124	0x3e246d5f	0.16057347
125	0x3d045005	0.032302875
126	0xbe42c2d5	-0.19019635
127	0x3e2fa62a	0.1715323
128	0xbd11e1b8	-0.035615653
129	0xbd41b967	-0.047295954
130	0xbe5320a2	-0.20617917
131	0xbe5793fa	-0.21052542
132	0xbdda56a5	-0.106610574
133	0x3e12282f	0.14273141
134	0xbc36a679	-0.011148089
135	0x3d243b1e	0.04009544
136	0x3e574c1c	0.21025127
137	0x3cb58fa9	0.022163229
138	0xbe5dc339	-0.21656503
139	0x3daa4e6c	0.08315739
140	0x3e191138	0.14947975
141	0xbe1beae2	-0.1522632
142	0x3e28d962	0.16489175
143	0xbe68f3d0	-0.22749257
144	0xbe25340b	-0.16133134
145	0xbdb99e18	-0.09063357
146	0x3d8a5f8a	0.06756504
147	0x3d1fa1f1	0.0389728
148	0xbe54fe9f	-0.20800255
149	0xbd81493d	-0.06312797
150	0xbdf7d420	-0.121010065
151	0xbe6d197f	-0.23154257
152	0xbdcafda1	-0.09911657
153	0xbdecea7a	-0.1156816
154	0x3da42d7b	0.08016487
155	0xbd39e3b5	-0.045383174
156	0xbc5696ec	-0.013097506
157	0x3ba06a79	0.004895505
158	0x3e109eee	0.14123127
159	0xbe12f89c	-0.1435265
160	0x3d625a40	0.05526185
161	0xbe27581e	-0.16342208
162	0x3e238b10	0.15971017
163	0xbe3be43a	-0.1834878
164	0x3e037c40	0.12840366
165	0x3e3a3a2b	0.18186252
166	0xbe017c56	-0.12645087
167	0x3d9d8c81	0.076928146
168	0x3d8420a1	0.06451536
169	0xbd05644e	-0.03256636
170	0xbe16b652	-0.14717987
171	0x3d11dc0b	0.03561024
172	0x3db882c3	0.09009316
173	0x3db0f164	0.086397916
174	0x3e160002	0.1464844
175	0x3dd5a33b	0.10431524
176	0x3dcd3457	0.10019749
177	0x3db1979e	0.08671497
178	0xbdb439ad	-0.08800063
179	0xbdb3193f	-0.0874505
180	0x3c88c074	0.016693331
181	0x3e26ae55	0.1627744
182	0x3e5115ce	0.20418474
183	0x3e10cc1e	0.14140365
184	0x3e08f787	0.13375674
185	0x3d3a8e49	0.04554585
186	0xbcd0a715	-0.025470296
187	0x3e513727	0.20431195
188	0xbe7577b3	-0.23971443
189	0xbcd02847	-0.02540983
190	0xbe336af0	-0.17521262
191	0x3d9ff5e2	0.0781057
192	0xbe3e3cac	-0.18577832
193	0xbe0624c2	-0.1309996
194	0xbddcf7ca	-0.107894495
195	0x3dbafb78	0.09129995
196	0xbdebe8ed	-0.115190364
197	0xbe0a2e8a	-0.13494316
198	0x3d493742	0.049124964
199	0xbcd07814	-0.025447883
200	0x3c1ba271	0.009499178
201	0xbd70acf5	-0.058758695
202	0x3e593568	0.21211779
203	0x3d434bcc	0.047679707
204	0x3dd65dd3	0.10467114
205	0xbe534c84	-0.20634657
206	0x3dc71d20	0.09722352
207	0x3bb8cc14	0.0056395624
208	0x3e170fae	0.14752075
209	0xbcb73c19	-0.022367524
210	0x3c438ed5	0.011935909
211	0x3c4119b3	0.011785912
212	0xbe542635	-0.207177
213	0x3e5365b5	0.20644267
214	0xbe495787	-0.19662295
215	0xbdcfdbc8	-0.10149342
216	0x3d7a0dba	0.061048247
217	0x3e3bccc0	0.18339825
218	0x3da5ef01	0.08102227
219	0x3d94e805	0.07270817
220	0xbe3dca95	-0.1853431
221	0xbe2172ab	-0.15766399
222	0xbd76f650	-0.060293496
223	0x3e6f9eee	0.2340047
224	0xbd77d89f	-0.06050932
225	0xbdabfbfa	-0.0839767
226	0xbe0ca99a	-0.13736573
227	0xbca2ba52	-0.019864235
228	0xbe41b24f	-0.18915676
229	0x3d9d9fe6	0.07696514
230	0xbdb9aa96	-0.0906574
231	0x3d93f84c	0.07225093
232	0xbd50ff92	-0.05102498
233	0x3c1491e3	0.009067985
234	0x3d44a77c	0.048011288
235	0x3e0dca86	0.13846788
236	0x3e22ae9e	0.15886924
237	0x3e4cd8aa	0.20004526
238	0x3ccfb6da	0.025355745
239	0x3e21b3bd	0.15791221
240	0x3b9b23ad	0.0047344775
241	0xbe3d79e6	-0.18503532
242	0x3da87eea	0.08227332
243	0xbde7be25	-0.11315564
244	0x3d6b97a4	0.057517663
245	0x3cbedcd6	0.023298662
246	0x3c97df9a	0.018539239
247	0xbd065009	-0.03279117
248	0x3d088012	0.033325262
249	0xbe28a105	-0.16467674
250	0xbe4ba2c6	-0.19886312
251	0xbe6acbbd	-0.22929282
252	0x3d355f77	0.044280495
253	0xbd20a72c	-0.039221928
254	0xbe62a0a5	-0.22131594
255	0x3e170224	0.1474691

100 f4 [1, 512]
0	0x3db84a71	0.089985736
1	0x3cfde45f	0.030992685
2	0x3ce56b7b	0.028005352
3	0xbbb8f533	-0.0056444644
4	0x3d607b34	0.054804996
5	0x3adf68fb	0.0017044836
6	0x3d3969b9	0.04526684
7	0xbaa4138d	-0.0012518034
8	0x3d1e8f5b	0.038710933
9	0x3d2c16eb	0.042014044
10	0x3c6bd6a8	0.01439444
11	0x3d350dcc	0.04420261
12	0x3d2f9403	0.042865764
13	0x3cbf3958	0.023342773
14	0x3d56b810	0.05242163
15	0x3b8eea92	0.004361459
16	0x3c9c01b3	0.019043779
17	0x3d1d021d	0.038332094
18	0x3cf82296	0.03028993
19	0x3df388b6	0.1189131
20	0xbbe64098	-0.007026743
21	0x3d9a92e7	0.07547551
22	0xbb40a937	-0.0029397735
23	0x3d8db1e6	0.06918697
24	0x3dc3de36	0.09563868
25	0x3c734ff4	0.014850605
26	0x3d191db8	0.037381858
27	0x3d8b6535	0.06806413
28	0x3c34ee09	0.01104308
29	0x3d6edc9d	0.058315862
30	0x3d76be0e	0.060239844
31	0x3da15923	0.078783296
32	0x3c316ac6	0.010828679
33	0xbb63c257	-0.0034753287
34	0x3d808249	0.0627485
35	0x3c63a2fb	0.013893838
36	0x3cb03079	0.021507489
37	0xbdddeafc	-0.10835835
38	0x3e35bf30	0.17748713
39	0x3d107d68	0.035275847
40	0x3cbd6bf6	0.023122769
41	0x3d4700a5	0.0485846
42	0x3d1e2648	0.038610727
43	0x3cc236aa	0.023707706
44	0x3d592872	0.053017087
45	0x3cc3537a	0.023843516
46	0x3b48d6f0	0.003064569
47	0x3d88c35f	0.06677889
48	0x3def8d77	0.11696904
49	0x3dba21b3	0.09088459
50	0x3c9043a1	0.017610373
51	0x3d24b662	0.040212996
52	0x3bd2281c	0.006413473
53	0xbcfc50e7	-0.030800296
54	0x3d38645c	0.045017585
55	0x3caa7338	0.020806894
56	0x3c7ef480	0.015561223
57	0x3be82aec	0.007085195
58	0x3b8e6e96	0.004346679
59	0x3ca21628	0.019785956
60	0x3c83f401	0.016107561
61	0x3cfa5194	0.030556478
62	0x3e1786d8	0.14797533
63	0x3c259f90	0.010108843
64	0x3dac5d48	0.084162295
65	0xbd36a5d0	-0.044591725
66	0xbca5eadd	-0.020253593
67	0x3dbacc28	0.09120971
68	0x3df8b74e	0.121443376
69	0x3dde59c6	0.10856967
70	0x3dce1d9c	0.10064241
71	0x3dc2e47a	0.09516235
72	0xbc83ee04	-0.016104706
73	0xbceff406	-0.029291164
74	0xbb040fa7	-0.002015093
75	0x3deaabc1	0.11458541
76	0x3c6818fd	0.014166114
77	0xbc67bd54	-0.01414426
78	0xbc05a02a	-0.008155862
79	0x3db9c00a	0.09069832
80	0xbb53cbbb	-0.0032317478
81	0xbc0b4937	-0.0085013425
82	0xbcbdba79	-0.023160206
83	0x3dc18598	0.09449309
84	0xbcd52a9d	-0.026021296
85	0x3dadfc4e	0.08495389
86	0xbc4faeb1	-0.012675927
87	0x3d8ace88	0.06777674
88	0x3e13ef83	0.14446835
89	0xbd19d4c9	-0.037556443
90	0x3e1d8912	0.1538432
91	0x3e10b22a	0.14130464
92	0xbcae83a6	-0.02130301
93	0xbc891732	-0.016734693
94	0x3c9ed29f	0.019387541
95	0x3db11889	0.08647258
96	0x3d601253	0.054704975
97	0x3e2307eb	0.15920989
98	0x3d85c498	0.06531638
99	0x3e1244a6	0.14284
100	0x3de9ad39	0.11409993
101	0xbd2135a2	-0.03935779
102	0x3dfb3cea	0.12267478
103	0xbc3124c3	-0.010811987
104	0x3a89d92a	0.001051699
105	0x3d0a70e6	0.033799075
106	0xbd0fffbf	-0.035156008
107	0xbcf57b5b	-0.029966047
108	0x3dbabc34	0.09117928
109	0xbd8ec9f9	-0.06972117
110	0xbc5172fd	-0.012783763
111	0x3d8b6e63	0.06808164
112	0x3d7178cb	0.058953088
113	0x3dfdb265	0.12387542
114	0x3d7f08d4	0.06226428
115	0xbcd557a2	-0.026042763
116	0xbd062a44	-0.03275515
117	0x3ceac9a9	0.028660612
118	0x3b6d2983	0.0036188073
119	0x3c435f12	0.011924522
120	0xbb8d66c3	-0.0043152287
121	0x3d68fd16	0.056881987
122	0x3e1f402e	0.15551826
123	0x3dc624d9	0.09674997
124	0x3cbb558c	0.02286794
125	0xbd0ee371	-0.034884874
126	0x3d5ee422	0.054416783
127	0xbd100a84	-0.03516628
128	0x3f82c11a	1.021518
129	0x3f85cab3	1.0452484
130	0x3f8081f9	1.0039665
131	0x3f7a7548	0.97835207
132	0x3f7d5667	0.98959965
133	0x3f7d0647	0.98837703
134	0x3f7a1d86	0.977013
135	0x3f7b1abd	0.98087674
136	0x3f84e133	1.0381225
137	0x3f837872	1.0271132
138	0x3f81306a	1.00929
139	0x3f7aaea7	0.9792275
140	0x3f79efa8	0.9763131
141	0x3f854bb2	1.0413725
142	0x3f821308	1.0162058
143	0x3f7f33c4	0.99688363
144	0x3f8424f3	1.0323776
145	0x3f7d01b8	0.9883075
146	0x3f857309	1.0425731
147	0x3f813563	1.0094417
148	0x3f811957	1.0085858
149	0x3f802501	1.0011293
150	0x3f86399a	1.0486329
151	0x3f7a0ef3	0.9767906
152	0x3f7bd1ae	0.9836682
153	0x3f849efb	1.0361017
154	0x3f7bebd6	0.9840673
155	0x3f763e0e	0.9618844
156	0x3f7ad527	0.97981495
157	0x3f8040cf	1.0019778
158	0x3f841fdb	1.0322222
159	0x3f7a6f33	0.97825927
160	0x3f846f9d	1.0346562
161	0x3f7bd1f1	0.9836722
162	0x3f794dfe	0.9738463
163	0x3f79ef1d	0.9763048
164	0x3f7dc17d	0.99123365
165	0x3f820596	1.0157955
166	0x3f7dc302	0.99125683
167	0x3f84f0d6	1.0385997
168	0x3f848c21	1.0355264
169	0x3f83eb4b	1.0306181
170	0x3f835191	1.0259267
171	0x3f84c324	1.0372052
172	0x3f7a42b9	0.9775806
173	0x3f81939b	1.0123171
174	0x3f7e2bd7	0.99285644
175	0x3f796c16	0.9743055
176	0x3f7bf9b4	0.9842789
177	0x3f7e039a	0.99224246
178	0x3f81b3b4	1.0132966
179	0x3f80f624	1.0075116
180	0x3f82359c	1.017261
181	0x3f811c39	1.0086738
182	0x3f84fcf9	1.0389701
183	0x3f80415d	1.0019947
184	0x3f814451	1.0098974
185	0x3f828490	1.0196705
186	0x3f7d2424	0.9888327
187	0x3f785c4a	0.9701582
188	0x3f8128c1	1.0090562
189	0x3f848694	1.035357
190	0x3f7b9a3f	0.98282236
191	0x3f826b53	1.0189003
192	0x3d2905b4	0.041265205
193	0xbc93867c	-0.018008463
194	0xbd35e96c	-0.04441206
195	0xbbfe86ac	-0.007767519
196	0xbcdb2ab7	-0.026753766
197	0x3c034cc6	0.00801391
198	0x3d0d8fc3	0.03456093
199	0xbc9c472b	-0.019076904
200	0x3d23b7cf	0.039970215
201	0xbd1e022d	-0.038576294
202	0xbceb5e16	-0.028731387
203	0x3cf20978	0.02954553
204	0xbd1b5b66	-0.03792896
205	0x3b4ea7a0	0.0031533018
206	0x3ce50a4c	0.027959011
207	0xbd064514	-0.03278072
208	0xbd2d174c	-0.042258546
209	0xbc79f49f	-0.015256076
210	0x3d1d983f	0.03847527
211	0xbd19192c	-0.03737752
212	0xbc702f81	-0.014659763
213	0x3b8cc58a	0.0042960094
214	0x3d010163	0.031495463
215	0x3ba04eb3	0.004892194
216	0xbd013cd9	-0.03155217
217	0xbc6a285c	-0.014291849
218	0x3d045da2	0.032315858
219	0x3ca09145	0.01960052
220	0x3ba72632	0.005100989
221	0xb9d0ef53	-0.00039851162
222	0xbd541595	-0.051778395
223	0x3c5950de	0.013263909
224	0x3d24b3f3	0.040210675
225	0xbd0fdedc	-0.035124645
226	0xbcfc8aec	-0.030827962
227	0xbcfbb0fa	-0.030724037
228	0xbc687ea9	-0.014190354
229	0x3c818dd0	0.015814692
230	0x3c55354c	0.013013195
231	0x3d0ee0ae	0.03488224
232	0x3cc9977c	0.024608366
233	0xbd30f8fe	-0.043206207
234	0xbcf70c5c	-0.03015726
235	0x3cbe6e8d	0.023246074
236	0x3b3845b0	0.002811771
237	0x3c6d63c4	0.014489118
238	0x3b031832	0.0020003435
239	0xbc89046f	-0.016725747
240	0xbc9eb050	-0.019371182
241	0x3c0149ff	0.007891177
242	0xbcb82360	-0.022477806
243	0xbc5efd77	-0.013610235
244	0xbbaee6fa	-0.005337593
245	0xba92a434	-0.0011187852
246	0x3cfdb4b5	0.030969957
247	0x3d7a16b3	0.061056804
248	0xbcdd7e62	-0.027037803
249	0xbcea8428	-0.02862747
250	0xbb216099	-0.0024624227
251	0xbcb07bc5	-0.021543393
252	0xbc86d120	-0.01645714
253	0x3d16307a	0.036667325
254	0xbbf61626	-0.0075099645
255	0x3c690bb1	0.014223979
