results/Test5/Jumper/Jumper-499959.pt (torch, 927964 bytes, 57 tensors)

network_body._body_endoder.seq_layers.0.weight f4 [64, 3]
00000000: d18e c7be 06e6 3f3e 61c9 cf3d 2309 dd3e
00000010: d0bb f13d 622e 0cbe 4696 cebd 4f36 2e3f
00000020: 9257 013f ccfe 25be 086c 943f 2c08 e4be
00000030: 060c bf3e 7313 e53e 2c44 d6bc d91a 82be
00000040: f1f2 a53e 51cd a33f d101 5abd d6ab bd3e
00000050: 26cd 1d3f 87ab b4bc b766 de3e bd88 c53e
00000060: ab9c 993f 1a68 3c3e c28b e8be 9ab3 04bf
00000070: e5f6 893e b0e0 233f 0bf8 03be 87f3 abbc
00000080: 3071 1b3f 4fcb 883d ee60 a73e 6886 5b3f
00000090: b2d7 bc3e 1e0a f53e 7743 bf3e 5f97 a8be
000000a0: e1b0 0abf 7b0e c93e 5c65 09bd 62c7 083f
000000b0: c13f e93e ca67 553d e6ef 893d 29fc d6be
000000c0: d248 e0be 778e 3abf c9f6 163f 1e58 45bf
000000d0: 6fcc 1c3f dc31 7cbe 5a5d 4dbf 99ee f1be
000000e0: 07b0 e6be aec7 36be 50e2 643f 22a4 6b3f
000000f0: 3281 10be 3a52 063f 01db 32be de3e 24bf
00000100: 1ddc 513e 0c52 893f d475 7dbd 98c5 8cbe
00000110: 85eb 7f3e 4d8c 14bf d35c 3cbf 65db fc3d
00000120: 3360 783f 9ea1 8cbd 490d 1ebf e46c dc3e
00000130: 6eef 7d3e 3737 7b3e ecc7 a83d 9a71 c43d
00000140: f481 f63f b777 1cbe c716 d93e f7b4 bc3e
00000150: 3afd a8bf ae66 973f ddf4 1d3c c8e2 babe
00000160: c9e3 37be 56b0 0cbd 39ea febe 97d3 2abf
00000170: d6d7 ddbe 4a60 eabe 8980 183f aa9b b63c
00000180: d7de adbe d842 23be 944c fcbe 27dc 81bf
00000190: 0530 c13e 57a2 f1bc 3d65 bebe 3cca a93e
000001a0: 7d99 ccbd 91df 6cbc f219 2dbf 238e cdbd
000001b0: ab2f 503f 11cb 523f 0326 a63e f2a1 64bf
000001c0: 238b 2e3f 73ed df3e 550b 53bd 7356 42bd
000001d0: 5247 d23d d265 a73e 1127 a6be 8ce8 4b3f
000001e0: a42e 0fbf 9685 b23e aa31 98be f07b 41bf
000001f0: 255c cd3e 2e17 9b3e e22c de3c d87e d73e
00000200: 7c3a 2b3f f07a b3be 7d1e b23d ade3 f5bd
00000210: b978 1f3f a00d af3e d5f5 8f3c 0386 583f
00000220: 86c2 ae3d 0ff5 d5bf 0e50 343e c23a cfbd
00000230: 1d5e 863f 6a46 19be 05d0 393f 539d 36bf
00000240: adb0 a4bd 4893 ef3d 97e9 b03e 3895 43bf
00000250: f7b9 233f 763e 153f 2914 043f 9fa9 edbe
00000260: 3752 7d3f 9004 f23e 5183 00bf fa97 1e3f
00000270: 9af4 b83f 02b7 0abe 780c a23e 6dfe 93be
00000280: a701 2cbe 77af 31be 6b94 b63d e52d a43e
00000290: 613f 133e b390 b3bf 8a31 0ebf 5e84 2bbf
000002a0: 5dcc 34be 409d 253e 8bc1 73bf a0da 8cbf
000002b0: 1cb1 a73f d2c8 703f 6730 41bf 3792 863e
000002c0: 4764 0ebd 26f5 66bf 96ed b43d 9585 febd
000002d0: 7609 72bf 8703 73bf 618f 973f 7661 e23e
000002e0: ee12 2d3f 08c3 48bf 4c36 f83d f89a 983f
000002f0: aa9d cbbe 7454 f9be 0bd7 8fbd a735 6bbf
-0.38976148 0.1874009 0.10145832 0.43171033 0.118034005 -0.13689569 -0.10087256 0.6805162
0.50524247 -0.16210479 1.1595469 -0.44537485 0.3731386 0.447414 -0.026155554 -0.25411108
0.32411912 1.2797033 -0.05322439 0.37045163 0.61641157 -0.022054447 0.4343774 0.38580886
1.2000936 0.18399087 -0.45419127 -0.5183655 0.26946178 0.6401472 -0.1288759 -0.020990146
0.60719585 0.06679403 0.3269114 0.8575196 0.36883312 0.4785928 0.3735616 -0.32927987
-0.54176146 0.3926886 -0.03354393 0.53429234 0.45556453 0.052100934 0.0673521 -0.41989258
-0.43805557 -0.72873634 0.58970314 -0.7708758 0.6124944 -0.24628395 -0.8022057 -0.47252348
-0.45056173 -0.1784961 0.89407825 0.9204732 -0.14111784 0.5246922 -0.17466356 -0.6415843
0.20494123 1.0728164 -0.061879948 -0.27494502 0.24992187 -0.5802658 -0.7357914 0.12346534
0.9702179 -0.068667635 -0.6173902 0.43051827 0.24798366 0.24532782 0.08241257 0.0959198
1.9258409 -0.15280043 0.4240019 0.36856815 -1.3202279 1.182821 0.0096408995 -0.36501145
-0.17957987 -0.034347855 -0.49788073 -0.6672911 -0.43328732 -0.45776588 0.5957113 0.022291023
-0.33959076 -0.15943468 -0.49277174 -1.014531 0.37731948 -0.029496355 -0.37186614 0.33162105
-0.09990213 -0.014457599 -0.67617714 -0.10036876 0.81322736 0.82341105 0.32450876 -0.8930961
0.68181056 0.43735847 -0.05152448 -0.047445726 0.102675095 0.3269487 -0.3245168 0.79651713
-0.5593054 0.34867543 -0.2972539 -0.7557974 0.40109363 0.30291122 0.027121011 0.42088962
0.66886115 -0.3505473 0.086972214 -0.12006316 0.62293583 0.34190083 0.017573277 0.84579486
0.08533196 -1.6715411 0.17608663 -0.10118629 1.0497471 -0.14968267 0.7258304 -0.7133381
-0.08041511 0.116980135 0.34553215 -0.76399565 0.63955635 0.5829843 0.5159326 -0.46418473
0.98953575 0.47269106 -0.5020037 0.6195065 1.4449646 -0.13546374 0.31650138 -0.2890505
-0.16797505 -0.17352091 0.08915027 0.32066265 0.14379646 -1.4028534 -0.5554434 -0.6699885
-0.17656083 0.16173267 -0.952172 -1.1004219 1.3100924 0.9405643 -0.7546448 0.26283428
-0.0347636 -0.90217817 0.088343784 -0.124278225 -0.94545686 -0.9492726 1.1840631 0.44214982
0.6760701 -0.78422594 0.12119731 1.1922293 -0.39768726 -0.48697245 -0.07023438 -0.9187874

network_body._body_endoder.seq_layers.0.bias f4 [64]
00000000: 128a 533d 271e e1bc 6bf6 913c 6a3c 273d
00000010: 8a16 743b 78e5 143d c2b0 8d3c 29f6 213d
00000020: 1f74 8bbc ba3d 693d 7a0e 083c cc2f 373d
00000030: aeb2 463a 749e 4d3d 62a9 1e3d 6a5c 6c3c
00000040: ba12 3c3d d4c6 723d a353 2f3c 389a 473d
00000050: ec19 013c 10ea 723d c50e f83a 6f9f 15bd
00000060: 19b1 04bc ccff 303c 4d43 0e3d 69dc 643c
00000070: 4049 a33d 63ef 913d decb 1f3d ef3c 97bb
00000080: 0708 b43b e379 d73c 02f9 6d3d e71a a63b
00000090: 1e36 4aba 59b5 913d 1d1f 36bb 59f4 23bd
000000a0: 39f3 5e3d 8e4f 5f3d 8a6f 333d 3c66 953d
000000b0: 3afa d73c 4e79 423c 623f 123d 9052 883d
000000c0: 0050 1cbc 997c 8b3d 8e9c 63bb 8715 09bd
000000d0: 7316 34bd 3495 95bc e952 823c 384a eebc
000000e0: bfa7 e93b 3d61 cc3d f6c5 813d 9d99 c03c
000000f0: 8940 983c 5912 c23c 49dc 253d 18fd 26bc
0.051645346 -0.027480198 0.017817697 0.0408291 0.003724488 0.03635165 0.017296199 0.039541397
-0.017023144 0.056943633 0.008304233 0.044723317 0.0007579726 0.05019994 0.038735755 0.01442633
0.045916297 0.05927165 0.010701093 0.04873106 0.007879715 0.05930525 0.00189253 -0.036529
-0.008098864 0.010803174 0.03473215 0.0139685655 0.07972956 0.071257375 0.039012782 -0.004615418
0.005494121 0.026303237 0.0580988 0.005069125 -0.00077137526 0.071146674 -0.002778954 -0.04002795
0.054431174 0.05451923 0.043807544 0.0729489 0.026364435 0.011869742 0.035704978 0.066563725
-0.009540558 0.068108745 -0.0034730765 -0.033467796 -0.04396672 -0.018259622 0.015908675 -0.029088125
0.0071305926 0.09979484 0.06336586 0.023510749 0.01858546 0.02369039 0.040493283 -0.010192178

network_body._body_endoder.seq_layers.2.weight f4 [64, 64]
00000000: 6595 a73d 56a6 31bc d42f aabe bb64 b73b
00000010: 91b3 86bb c883 98be 790f 13be 3cea 1abe
00000020: e326 913d 4d55 16be 97b3 0a3d 5350 933c
00000030: 4f07 11be 681a 28bc f49c 23be 3415 87bd
00000040: 936e 45bd 7505 f6bd 50f2 0abd 46bc 313d
00000050: b488 47be 8a05 dc3d acd5 96bd 358e 163d
00000060: 8b65 8f3d d61d 8dbe 2622 133e 6642 2f3d
00000070: e787 6cbe 38f1 ccbc 0144 6d3c aba1 a6bd
00000080: c464 81be 5cb5 e13d cae8 0e3e bb2d 483d
00000090: 6e62 f2bd 8d7b 31bc 672f fdbd e28f 763c
000000a0: ac79 2e3e 4e81 86be 9e26 c6bd b2f3 84bc
000000b0: a534 413e 69f5 893c 695f 50be 7024 e63d
000000c0: f12d 6fbe 09f3 73bd 8b11 febd c1f3 0e3e
000000d0: 0456 c4bd c518 a63b 2b1d 19bd e7f0 9b3c
000000e0: bd52 10be cce8 dfbd eec5 3cbd 478d b4bb
000000f0: a5a1 cdbd a70d 893e 8972 133d 16ab 0bbe
00000100: 4979 a7bd d128 213c 5b53 21be c94b c3bd
00000110: 0fd9 a4be ac56 8c3d 3862 c0bc b773 06be
00000120: 7a3f 21bd 7c8c 9c3d 727e 2bbd 41a6 10be
00000130: b894 b2bd f978 12bc 2e85 03bd c4d8 813d
00000140: 1396 c9bd d1c9 abbc d014 5c3e 04be 40be
00000150: 0a79 9ebd 5610 563d 6056 1d3d a1e8 953d
00000160: cf13 7fbe 3b17 0f3d e049 2cbe 43f8 5cbe
00000170: 4d2f febd 89a8 50bd 57f7 8b3e a3a0 c03d
00000180: 33a1 613e 08e6 9dbe 1bfa e33d b3d7 723e
00000190: 7ca0 693d 97db c8bc 4143 603c 8b8c 603d
000001a0: 2b75 803d 31a8 5f3d d9f1 543c ee0c 40bd
000001b0: 0d51 133e fdf4 2e3d 78e0 463d 634f 97bd
000001c0: 8217 4fbe f47e 2fbe c97a f93d f87d e43d
000001d0: 6b01 d5bd 6b58 5a3e d04e 293c f8b6 893e
000001e0: cc0f 023e a105 a83d 7bb9 c7bc 35fa 3fbe
000001f0: e4f6 bbbd 650f e73d 4560 6d3c 1888 2ebe
00000200: d45d c9bb e9fc 40bd 3f5a cfbd 324d 1c3d
00000210: b4c2 50be c9c4 44be d90e ebbd 3933 163c
00000220: 6bc6 283d 6f05 1abd 624e acbe 9f04 b3bd
00000230: b8e0 c0bc b026 fdbc a0e0 403e fcd3 373e
00000240: 5349 a4bc a1b7 8dbd 812d 83be 25c7 33be
00000250: 03a7 173d 1f6a 5cbe c6c2 d5be 0225 88be
00000260: 29ad e53d 55eb c93c 0f5d 603d 1731 eabd
00000270: 9288 283d 7cf9 43be a297 ba3d b4de 9eb8
00000280: 034f 2d3d f6c6 4c3e 6839 92bc 3db8 9abd
00000290: b1de 1fbd 0699 2ebd ae86 8dbd 49ab 12be
000002a0: 2593 01be 3597 d1bc 8110 09be 7f86 16be
000002b0: 2856 3e3e 1a55 343e 9167 b83d 40cc a538
000002c0: b6a3 7bbe b59e cbbd 4ca6 da3c cd46 10bc
000002d0: a802 e43d b62a e6bc febb 0b3d f3bb 453e
000002e0: fb4f d8bd 92ed 14be ba87 dcbd f06d 1cbe
000002f0: 6827 c3bc 6053 8a3e 89c3 4b3c 1e8e 2d3d
00000300: ae45 973b 67eb af3d 4b64 1abc 3f2f bc3d
00000310: 95f6 973d fd14 f6bd ca19 16bd cedc 48be
00000320: 65d8 063e 6107 cdbd a5e9 aebc da2f 18be
00000330: 22dd 543e 87cb 0f3d 5f1a aa3d 09e9 043e
00000340: d4d7 29be a27a 03be b586 f83d e07e 31be
00000350: 801e 183d 6a43 323c 79a9 4dba afe2 a43b
00000360: 4a0c bcbd 6ede 1a3d fb41 543e d80c 86be
00000370: 1a3f edbc ce4f 163e 2aa4 013e 93ed 44be
00000380: a7fb b8bd 5473 37be 409f b2bd 70d7 cb3d
00000390: 14f3 7dbd 2d10 97be 6d6f 8b3d 76a4 ba3d
000003a0: 2dd3 d93a 638b 05be 6a3a c63d 609e 80bd
000003b0: 6be7 793e 487f 833d 323e 44bc 61ae 973d
000003c0: 306e 9e3d f432 5fbe 932b 50be 43f9 633e
000003d0: b6ba 483c 03e9 06be 4da0 bc3d ebe2 413d
000003e0: 2951 513e 0ea4 6d3c 9ef6 19bc 753a a93a
000003f0: 52fc 4dbe 862b 5f3e 00a1 1a3d f1be 523d
0.081827916 -0.01084288 -0.33239615 0.005596725 -0.0041107615 -0.2978804 -0.14361371 -0.15128416
0.07087495 -0.14680977 0.033862676 0.017982638 -0.14162944 -0.010260202 -0.15977842 -0.06595841
-0.048201155 -0.120127596 -0.033922493 0.043392442 -0.19485742 0.10743244 -0.073649734 0.036756713
0.0700179 -0.27561826 0.14368495 0.04278793 -0.23098718 -0.025017366 0.014481545 -0.081363045
-0.2527219 0.1102092 0.1395599 0.048871737 -0.1183518 -0.010832679 -0.12362557 0.015048953
0.17038602 -0.26270527 -0.096753344 -0.016229484 0.18867739 0.016840653 -0.20348896 0.11237419
-0.23357369 -0.05955795 -0.1240569 0.13960172 -0.09586719 0.0050688707 -0.037381332 0.01903577
-0.14094062 -0.10933074 -0.046087198 -0.0055100056 -0.10040597 0.26768228 0.0359979 -0.13639483
-0.0817743 0.009836392 -0.15754454 -0.09535939 -0.32196853 0.06852469 -0.023484334 -0.13130079
-0.039367177 0.07643983 -0.041868635 -0.14125921 -0.08719772 -0.008939975 -0.032109432 0.06340173
-0.098430775 -0.020970257 0.21492314 -0.18822485 -0.0773793 0.052261673 0.03841245 0.07319761
-0.249099 0.034934264 -0.16825056 -0.2157908 -0.12411366 -0.050941978 0.27337143 0.09405639
0.22034149 -0.30839562 0.11131688 0.23715095 0.057037815 -0.024518771 0.01368791 0.054821532
0.06272348 0.05460376 0.012997114 -0.04688733 0.14386387 0.042714108 0.048553914 -0.07388189
-0.20223811 -0.17138273 0.121816225 0.11156839 -0.10400661 0.21322791 0.010333732 0.26897407
0.12701339 0.08204199 -0.024380436 -0.1874779 -0.0917795 0.11282233 0.0144882845 -0.17044103
-0.0061452184 -0.047116194 -0.10124635 0.038159557 -0.20386773 -0.19215693 -0.11477441 0.009167486
0.04120485 -0.037602838 -0.3365355 -0.08741116 -0.023544654 -0.030902237 0.18835688 0.1795196
-0.020054495 -0.0691979 -0.25620654 -0.17556436 0.03702451 -0.21524857 -0.41750163 -0.26590735
0.11214668 0.024648348 0.054776248 -0.114351444 0.04114587 -0.1913814 0.09110953 -7.575509e-05
0.04231168 0.19997773 -0.017849639 -0.07554672 -0.039030734 -0.042626403 -0.06910454 -0.14323153
-0.12653787 -0.025584796 -0.13385202 -0.14699744 0.18587554 0.17610589 0.09004129 7.905858e-05
-0.2457417 -0.0994238 0.026690625 -0.008805943 0.11133319 -0.028096538 0.03411483 0.19309978
-0.1056213 -0.14543751 -0.10768075 -0.15276313 -0.023822501 0.27016735 0.012436756 0.04237186
0.0046164608 0.08589821 -0.009423326 0.09188699 0.07420079 -0.12015722 -0.036645688 -0.1961548
0.13168485 -0.10011173 -0.021351645 -0.14862004 0.2078748 0.03510621 0.08305811 0.12979521
-0.16586238 -0.1283975 0.12135068 -0.17333555 0.037138462 0.010880331 -0.0007845383 0.0050319056
-0.091820315 0.03780978 0.20728295 -0.26181674 -0.028960753 0.1467888 0.1266028 -0.19231252
-0.09032374 -0.17915088 -0.08721781 0.09953201 -0.061999395 -0.2950453 0.06808362 0.091134
0.0016618721 -0.13041453 0.0967911 -0.06280208 0.24404685 0.06420761 -0.011977719 0.07406307
0.0773586 -0.21796781 -0.20329122 0.22263055 0.012251547 -0.13174824 0.092102624 0.047335546
0.20441116 0.014504446 -0.009397177 0.0012911098 -0.20115784 0.21793947 0.037751198 0.051451627

network_body._body_endoder.seq_layers.2.bias f4 [64]
00000000: 7007 ddbb 317b 1b3c 4360 ec3c 4e56 153c
00000010: e214 02bc 9a15 693c 86c8 a7bc 6ce1 053d
00000020: 0ef0 013d 9e46 eb3c d48e 0b3c dde5 b0bb
00000030: ef89 1639 04f1 0dbc cc49 003d 395e c4bb
00000040: 711e b1bb de54 a63b f178 523c e11c 0b3b
00000050: a7fc 3b3c 96e0 4d3d 1b4f 093c 403d e83b
00000060: 42fe 33bb 4ddf f6bc 4aa4 cf3c 6d72 8f3c
00000070: 9a6b debc 9919 ef3c bdce 4c3b 2faa abbc
00000080: a4cc a73c 5f01 8ab9 879a 143d 7ebb 2f3b
00000090: 44e7 4c3d f6e1 ea3c c262 53bc c07c 643c
000000a0: fede 7e3c 240f 68ba 31c1 063d a069 653c
000000b0: 4192 823c e827 f93c 11cb 89bc 2ebb ebbb
000000c0: e4ee 9fbb 4548 213d 25e5 ca3b 77d3 d3bc
000000d0: 03d3 b83c 8f74 1a3d 9de3 8bbc 22a1 ffbc
000000e0: 3fa3 e03b 4211 d83b 1f12 013d 9f42 ffbc
000000f0: 4afa 403d 7ba5 69bc 8478 473c a43e 2abb
-0.0067452714 0.00948982 0.028854495 0.009114815 -0.007939549 0.014226342 -0.02048136 0.032685682
0.031723075 0.028720196 0.00851794 -0.0053984956 0.00014356499 -0.00866342 0.03132038 -0.0059926775
-0.00540524 0.005076035 0.0128462175 0.002122693 0.011473811 0.05026301 0.008380677 0.0070873797
-0.0027464782 -0.030135775 0.025346894 0.017510617 -0.027150918 0.02918701 0.0031251155 -0.020955173
0.020483322 -0.00026322433 0.03628018 0.0026814635 0.05002524 0.0286722 -0.012901964 0.013945758
0.015556095 -0.0008852354 0.032899085 0.014002234 0.01593888 0.030414537 -0.016820462 -0.0071939444
-0.004880773 0.039375562 0.006191867 -0.02585767 0.022561556 0.037708815 -0.017076308 -0.031204764
0.006855398 0.006593854 0.031511422 -0.031159697 0.047113694 -0.014260645 0.012174729 -0.0025977278

network_body.lstm.lstm.weight_ih_l0 f4 [256, 64]
00000000: 879d 25be eb97 18bd 66aa 7f3e 1533 37bd
00000010: 25d3 3bbe 4fd7 53be 201d 85be 30e8 4f3e
00000020: 5f7b 753e 79c8 8a3e 6f9f 00be 3bd0 bbbd
00000030: c9e1 123b e360 e9bd 748a 2ebd 8c8f 523e
00000040: fa1c e83d 4c73 19be 8876 4cbe 09b9 143d
00000050: ee4f 06be 0ef2 06bd d398 2c3e 331b 02be
00000060: 4b4b ecbd 075b 60be 04f7 fe3d a778 9b3e
00000070: 5837 58be 40fa cfbd 41ad 7bbd 0309 4abe
00000080: 50b7 523d cbc0 0abe 4c9b 1f3e 6ffe 94bc
00000090: a009 b0bc 3d16 a63d fdef 293e 16dc 8d3b
000000a0: 396e 9f3c e1a7 6fbd f6bc c93d ffc7 c43d
000000b0: a925 96be 3bb4 423e 0e55 edbd 6308 133d
000000c0: 39e1 e9bd 1713 2c3e da1f e73d 0221 34be
000000d0: dc2e c1bd 5007 3b3e 8466 383d f950 ef3b
000000e0: eb4e 1fbe ae47 ec3c d5c3 483e b1bf e33d
000000f0: 5df0 6f3e 0c44 f1bd c2a1 e33d 866e 863e
00000100: 0aa2 133e 27bb 283e fb9c b3bd a903 29be
00000110: 6caa 43bd 3ee0 3bbe f572 ebbd 8b01 4abe
00000120: e025 c93d 41ed 26be d208 49be 4d85 12bd
00000130: 3ad3 753c 1dbe 4dbe 718b 243e 8790 0f3d
00000140: d513 2e3e e776 1bbe 18cb 723d 6185 783d
00000150: 726b 81bd 408f 67bb 8963 d73d f48b 69bd
00000160: 764d a73d ff7f 7abe 75a5 29be 02aa c8bd
00000170: f29c 7d3d 8518 f3bd 5bb7 b9bd 607d c1bc
00000180: 3eb0 db3d 9bad c63d 6e5b d33d 03e1 693e
00000190: c9b4 153e 9d63 503e 81f0 393e 7369 47be
000001a0: 02f0 20bc 7167 01be 440b a6bd 29e2 b53d
000001b0: d7c5 b63d cdc3 103e 1abe 2e3e 25be f1bc
000001c0: e2ee 61be 111d 153d d1bb 36be a205 3fbd
000001d0: 65e4 20bc 2638 35be 4b96 41be b7fb 43bd
000001e0: a4b1 23be a56b 6b3d 60bb 673e 0a42 e8bd
000001f0: 1232 2fbd 2956 6d3c ebc3 1bbe 5fcc f53d
00000200: 44f9 c5bd 6a4d cdbd 3411 efbc cb75 16be
00000210: 1474 39be eb9b 22be 5d9e cdbc 27dc 513d
00000220: 50bb 113e 602f 04be beb0 753d 24d6 f1bc
00000230: c5c9 e63d 44c2 0ebe 24ff ebbd b2de c0bd
00000240: 09f2 b9bd 844f bd3d e9f4 37bd bcc8 91bd
00000250: 8c88 a03c 1e21 f83d b5b2 983d 39f7 9dbc
00000260: f2f7 96bd 1e71 00be d502 863e 702b 563e
00000270: 63ac 8abb 6784 3a3d e5d6 283e 5f92 87bd
00000280: 4324 96bd 8d41 8ebe 1747 763e 8a2e dabd
00000290: c9cf 26bd 1a24 523e 13dd 26bd da27 35be
000002a0: 838c 39be f338 45be ae9e e13c 0cab 45be
000002b0: 2228 2f3e 3120 bebd 4f9c 11be b588 853e
000002c0: 3f9c 6fbc b3e8 bdbd dd1d 113d 1fbe 95be
000002d0: cc49 fb3d 4bf8 5d3d e7c4 e33d 67dc 263d
000002e0: a3fa 61be e193 8abd b2d5 25bd 82c6 fdbd
000002f0: 7127 db3d 200f 50bb 7418 173e 4d7c 473d
00000300: 39fc 96bd fa75 3d3d 362d 733c 4a83 c4bd
00000310: 754b b7bc abaf 86be fbfa 0bbe bfd7 1c3d
00000320: 8b18 af3d 3d2d 313e 9728 49be 3e75 9abe
00000330: c20d 5e3d 17a8 813d 078f 97bd 706e 5abe
00000340: 3f0c 37be b719 84bd caf8 c4bd 4d3c 11bc
00000350: 6444 66be 06db 96be 5548 683c d7a3 a63d
00000360: 4bbe fe3d a866 de3c 6c2b 15be e5ef 993e
00000370: a8c1 d7bd 47e8 083e efb6 0f3e 40e1 f33d
00000380: 5ff2 f63c 77f8 0c3d 02dc 9b3e caee a0bd
00000390: 4dc1 573e 222b a83d 0ee6 64be bebe 97bb
000003a0: 6caa 43be 872a a4be 6d01 933e 326b 193e
000003b0: 3014 3d3e bb59 833e f50d 0f3e 9c09 53bd
000003c0: 7612 203e 3da6 963d ef7a 093d 9d58 9abe
000003d0: 28b7 b8bd 4858 0f3d befc ec3d afbd 3a3e
000003e0: 3531 3f3d 3cc2 5bbe 1062 983d 64df e73c
000003f0: 373e 07be fb15 22be 1ef8 4d3e ba20 943e
-0.16173373 -0.037254255 0.24967346 -0.04472645 -0.18342264 -0.20687602 -0.25998783 0.20303416
0.23972844 0.27106073 -0.12560819 -0.09170576 0.002241241 -0.11395433 -0.042612508 0.20562571
0.11333652 -0.14985389 -0.19967091 0.036309276 -0.13116428 -0.032945685 0.16855173 -0.12705688
-0.115377985 -0.21909724 0.12449458 0.30365488 -0.21114862 -0.10155153 -0.061444525 -0.1973
0.05144435 -0.13550107 0.15586585 -0.01818773 -0.021488965 0.0810971 0.16595455 0.004329215
0.019461738 -0.05850971 0.098504946 0.09608459 -0.29325607 0.19014065 -0.115884885 0.03589667
-0.11419911 0.16804157 0.11285372 -0.17590716 -0.09432766 0.18264508 0.04501964 0.007303354
-0.15557449 0.028842773 0.19605954 0.111205466 0.23431535 -0.11780557 0.11114837 0.26256198
0.14417282 0.16477643 -0.08770176 -0.16505302 -0.04776995 -0.1834726 -0.11496536 -0.19727151
0.09821677 -0.16301443 -0.19632271 -0.035771657 0.015003974 -0.20092054 0.16068818 0.03504994
0.16999753 -0.15182076 0.059275717 0.060674075 -0.06319322 -0.0035333186 0.10517032 -0.057018235
0.081690714 -0.24462889 -0.16567023 -0.097980514 0.061917253 -0.11869911 -0.090681754 -0.023619354
0.10726975 0.09701081 0.10320173 0.22839741 0.14619745 0.203505 0.18158151 -0.1947382
-0.009822847 -0.12637116 -0.081076175 0.08881027 0.08924454 0.14137192 0.17064705 -0.029509613
-0.22063783 0.036404673 -0.17845084 -0.04663623 -0.0098200785 -0.176972 -0.18904988 -0.047847476
-0.15985733 0.057475705 0.22630072 -0.11340721 -0.04277236 0.014485874 -0.15211456 0.12001871
-0.09666684 -0.10024531 -0.029183008 -0.14693372 -0.18110687 -0.1587979 -0.025099928 0.051235344
0.1423161 -0.12908697 0.059983008 -0.029521056 0.11268953 -0.13941294 -0.115232736 -0.09417476
-0.09079368 0.09243682 -0.0449113 -0.07118365 0.01959636 0.121156916 0.07455961 -0.019282924
-0.073715106 -0.12543151 0.26174036 0.20915008 -0.004231976 0.045536425 0.16488226 -0.06619715
-0.07331135 -0.27784386 0.24050556 -0.10653408 -0.040725503 0.20521584 -0.040738177 -0.17690983
-0.18120007 -0.19260006 0.027541485 -0.1930353 0.17105153 -0.09283484 -0.14219783 0.26080862
-0.014624654 -0.092728995 0.03542887 -0.29246613 0.12269935 0.05419187 0.111215405 0.040737536
-0.22068267 -0.06766487 -0.040487 -0.12391378 0.10700882 -0.0031747296 0.14755422 0.048702527
-0.073723264 0.04625509 0.014842322 -0.09595354 -0.022374848 -0.263059 -0.1366996 0.03829169
0.08549603 0.17302413 -0.1964439 -0.30167574 0.05421234 0.06330889 -0.07400327 -0.21331191
-0.17875765 -0.06450217 -0.09617765 -0.0088644745 -0.22487026 -0.29463977 0.014177402 0.08136719
0.12438639 0.02714856 -0.14567345 0.30065838 -0.10534984 0.13369857 0.14034627 0.119081974
0.030144868 0.034416642 0.3044129 -0.078580454 0.21069832 0.08211352 -0.22353384 -0.0046308925
-0.1910798 -0.32063696 0.28712025 0.14982298 0.18464732 0.25654396 0.13970168 -0.051522836
0.15632042 0.07355926 0.033564504 -0.30145732 -0.09019309 0.0349963 0.11571644 0.18236421
0.046677787 -0.21460813 0.07440579 0.028304763 -0.13207327 -0.15828697 0.2011418 0.28931218

network_body.lstm.lstm.weight_hh_l0 f4 [256, 64]
00000000: beb9 8a3d 0cea 57be 59fa 90be d903 9abd
00000010: e9a9 16bd bf30 0cbe 126e 0dbe d346 eebd
00000020: 4be1 413e 6d54 f93d aa42 56be 0e5a 51bd
00000030: 9cbb 01be 89fb fdbd b9f5 89bc 6ea2 1c3d
00000040: acb5 8d3d dead 0c3e b851 18be 55fb 38bd
00000050: b78d 973d 90ca 2c3e 8b5b 173e 2e11 54be
00000060: 839d 103d 7d34 76bd b9dd 04be 0848 4d3d
00000070: 4c3d b1bd 8885 5fbe 7d2f f93d 48e9 a8bd
00000080: b7ca 363e 3195 32bd ea56 cb3b 30f2 47be
00000090: 4d75 333e aebb fabc 7495 b5bd 2334 533e
000000a0: c23e 1ebd 830e c13c 5525 febc 1ebd 78bd
000000b0: a458 ce3d 71d5 433e 93ca b5bc c6e3 b83c
000000c0: ea6f 513c 1bfc d83d 64ad 1a3e 74f4 4c3d
000000d0: de36 49be 2f45 d4bd a36b 19be eb23 923e
000000e0: ca4a c8bb 9138 04be f0f1 a2bd 2fbb 8f3d
000000f0: 1bc7 be3c 376b e23d 77a8 873d 8f71 c9bd
00000100: e9e5 0fbe 48a6 55be 8d31 0ebd 1315 613d
00000110: d3b7 cc3d 1d3c 493c f2a1 a23d 1727 db3b
00000120: c89b 4a3e e206 56bd a7e6 193c 1d51 25bd
00000130: b649 a63d 6c66 5b3e a622 123e d2b2 fd3d
00000140: f445 68bd f4b9 bf3d 0e41 12be 302d 34be
00000150: 3cd9 d53d 9296 e13d a702 82bd e9a8 1f3e
00000160: 6004 623d 643b babc 5496 03be 94e8 db3d
00000170: 96ca ea3c 8b2b 01be 09a9 203d 38a3 17be
00000180: d9ab 9fbd e63e d53d 1f1b 9f3d b5df d4bd
00000190: 0f19 afbd 6b28 343d bf9c 14be 8591 3a3e
000001a0: a163 013e 03db 27be 3b76 063e b9c4 453d
000001b0: 880e f1bc c795 173e b412 05be e1aa 22be
000001c0: 8e2b a1bd 729e b93d a2c2 6bbd 9cd9 0cbe
000001d0: d76c 18be 1aff 2f3e 4364 433d d701 a7bc
000001e0: 6b72 58be 42d4 313d 6376 273e fc80 4abe
000001f0: 3807 2b3e 2829 cd3c 89fd 37be 4817 293e
00000200: 5429 27bd 315f 29bd a366 47be 2c64 5bbe
00000210: ac80 c7bd b371 1d3e 9d7e adbc d51d 2b3d
00000220: 8b73 4a3e a626 0f3d 551b 52be 98aa 983d
00000230: a8cc 0d3e c92e 27be 1fb6 1e3e 769c 6abe
00000240: 47e4 19be c968 d2bd 4d29 843d 7811 483d
00000250: 133d 49be 2e4b 96bd 7063 eebd 9344 62be
00000260: b8f4 bdbd f579 d3bd d598 b73d 328e 0ebd
00000270: 2ee0 d0bc 4501 8c3c 189b 193e 92dc 1dbe
00000280: f022 4c3d b0e4 2fbe c4b5 2d3e 1261 48be
00000290: 4468 ef3d 54e1 313e 81f8 0bbe 6ef7 953d
000002a0: 472a 643d ec6d bbbc 961c 0bbe 705d d23c
000002b0: 65a9 a93d fdba 973d 2496 0c3e 865a c03d
000002c0: 976b e33d 78a2 9c3d 5a41 a3bd 0688 9cbd
000002d0: dc66 ed3c 8a4a 243e d14e 453e 8afc 033e
000002e0: 5464 133e 96f8 423d 7f7a 16bd ef2a 5b3e
000002f0: 53c3 6ebe 67cc 17bd eb82 29be b0e4 8a3d
00000300: f7c1 3dbe 93e7 06be 634e ddbd a9a1 a03d
00000310: b109 e6bd 8d73 febd 46d1 4f3d 876f 71bc
00000320: 773b 143c 8397 69bd 64b8 5a3e 6d49 3c3d
00000330: a266 d93d 3058 53be 4817 c53d 8eba 1c3c
00000340: ef7e 193e 5cac b9bc 6081 443c 3ff7 7d3c
00000350: 9f27 4bbe ab99 4a3e 09f8 3dbe f93d c5bd
00000360: 976c 753d b3d7 3d3e 66a5 a13d 0d4c ac3d
00000370: 4014 3ebe a76b 25be 096f 76bd 09f2 613e
00000380: 9b88 7abd 53a9 babd 8e50 0dbe 16fd 05bd
00000390: a4da 4fbe 25e1 a33d 7066 cabd 354c 963d
000003a0: 30b7 4fbd 5b11 323c e814 493d c8dd 0d3e
000003b0: d2b8 233e bd91 4b3e 15e5 b13c c331 1f3e
000003c0: 0e6a 153c dd4a 41be 9acc c83d 0ac5 e5bd
000003d0: 92a1 6c3d ee60 143d 7fc8 9a3c f368 07bd
000003e0: e8bc 073d 9568 26be 4b26 51be 1a11 66be
000003f0: 585c 373d c52a 28bd 0ba3 63be a17b 173e
0.06773709 -0.21085376 -0.28316 -0.07520265 -0.036783133 -0.1369047 -0.1381152 -0.116346024
0.18933599 0.12174306 -0.20923868 -0.051111273 -0.12669224 -0.12401492 -0.016840803 0.038240843
0.06919417 0.137382 -0.14874923 -0.045161564 0.07400077 0.16874146 0.14781015 -0.20709679
0.035306465 -0.06010865 -0.12975205 0.050117522 -0.086542696 -0.21828282 0.12167261 -0.0824762
0.17850767 -0.04359931 0.0062054293 -0.19525981 0.17525215 -0.03060707 -0.088663965 0.20625357
-0.03863407 0.02356649 -0.03102366 -0.06072723 0.100755006 0.1912439 -0.022191321 0.022569548
0.01278303 0.1059496 0.15105206 0.050037816 -0.19649836 -0.10364758 -0.14982466 0.28543028
-0.006112431 -0.12912203 -0.07956302 0.07018124 0.0232883 0.11055606 0.06623929 -0.09836113
-0.14052548 -0.20864213 -0.034715224 0.05495174 0.09995999 0.0122823985 0.07941045 0.0066880095
0.19785988 -0.052252658 0.009393371 -0.04036056 0.08119528 0.2142579 0.1427103 0.12387623
-0.056707337 0.093616396 -0.14282629 -0.17595363 0.10441825 0.11015047 -0.06348162 0.15591778
0.055179954 -0.022733398 -0.12850314 0.1073772 0.028661054 -0.12614267 0.039223704 -0.14808357
-0.07796449 0.104123875 0.07768845 -0.10394231 -0.085497014 0.043983858 -0.14512919 0.18219574
0.12635662 -0.1639214 0.13131039 0.048283312 -0.029425874 0.1480323 -0.12995416 -0.15885498
-0.078696355 0.09063424 -0.057558663 -0.13754886 -0.14885269 0.17187157 0.04770304 -0.02038662
-0.21137397 0.043415315 0.16353755 -0.19775766 0.16701972 0.025044039 -0.1796781 0.16512787
-0.040810898 -0.041350547 -0.19472747 -0.21424931 -0.09741339 0.15375404 -0.021178538 0.041776497
0.19770639 0.034948967 -0.20518239 0.07454413 0.13847601 -0.16326441 0.15499161 -0.22911248
-0.15028487 -0.102738924 0.0645319 0.048844784 -0.19652204 -0.07338558 -0.1164006 -0.22096471
-0.09275192 -0.10325996 0.08964697 -0.034803577 -0.025497522 0.01709045 0.1500057 -0.15416172
0.049838006 -0.17177081 0.1696387 -0.1956828 0.11689809 0.17371112 -0.13669015 0.07322584
0.05570438 -0.022879563 -0.13585123 0.02567932 0.082842626 0.07408712 0.13729149 0.09392266
0.111045055 0.07648176 -0.07971449 -0.07643132 0.028979711 0.1604406 0.19268347 0.12889305
0.14393741 0.04760035 -0.036737915 0.21403097 -0.23316698 -0.037060168 -0.16553847 0.067819
-0.18531023 -0.13174276 -0.10805967 0.07843334 -0.11232317 -0.12424383 0.050736688 -0.014736063
0.009047381 -0.05702926 0.21359402 0.04596846 0.10615279 -0.2063911 0.09623581 0.0095659625
0.14989828 -0.022665195 0.011993736 0.015500843 -0.19839333 0.19785182 -0.18551649 -0.09630961
0.059918012 0.18539314 0.078928754 0.08412943 -0.18562412 -0.16154347 -0.060164485 0.22064985
-0.061165433 -0.09114327 -0.1380026 -0.032712065 -0.20298249 0.08001927 -0.0988282 0.07338754
-0.05071181 0.010868396 0.049092203 0.13854134 0.15988472 0.19879813 0.02171568 0.15546326
0.009119524 -0.18876214 0.0980465 -0.11219223 0.057771273 0.03622525 0.018894432 -0.03305907
0.03313914 -0.16250832 -0.20424764 -0.22467461 0.0447658 -0.041056413 -0.22230165 0.14793254

network_body.lstm.lstm.bias_ih_l0 f4 [256]
00000000: a1fa 9d3d 4edd 093d 5c2a e23c a8b9 78bb
00000010: 3849 103d dbeb c13b 2883 1c3d dcb2 1fba
00000020: 5637 d83c cb33 a63c f043 863c d80d de3c
00000030: d856 203d 48b4 f53c b032 203d 845c 143c
00000040: 7f36 f73b c389 8a3c fe7c b53c 0356 d43d
00000050: 9120 a93c 2088 4c3d 5025 073d dcb2 be3c
00000060: 0bd4 ae3d 8501 b23c 2d0c 123d 0acf 113d
00000070: 30b1 ef3c 76be 0a3d f886 883d 8458 b03d
00000080: fbb6 573c 43c1 babb d573 433d 9465 413d
00000090: bd82 8d3c 4896 bfbc e90e 003e ce64 9b3c
000000a0: 5f50 c83c 78b2 183d 90d4 023d 2075 da3c
000000b0: 2fb7 4e3d 88da 373d f020 83bc 6698 043d
000000c0: 661e 763d 1534 3c3d d679 503d fa17 1e3d
000000d0: ffe3 043c b0a6 d5bc e042 fd3c 8b85 caba
000000e0: 22bc 903c bfa0 b23b 16c1 043c 9869 dd3a
000000f0: 6dad 193c ad00 2b3d 33a4 e63d 8360 803c
00000100: 9e46 813f 98f3 843f e297 7d3f ea70 7d3f
00000110: e845 7d3f af37 7d3f 212c 7a3f acbc 7e3f
00000120: 9c3b 833f 8945 823f 9f36 813f 017e 7b3f
00000130: 72e1 7b3f 6c73 843f 4235 813f ca1d 803f
00000140: 5c36 813f fee0 813f 73ed 833f a822 813f
00000150: 0705 843f a029 7f3f d4da 833f 0bc4 793f
00000160: 4995 803f e0da 843f f436 7e3f 1f1e 743f
00000170: 6bbe 823f 6b32 843f 22bf 813f 312d 7b3f
00000180: 964c 813f 91f7 7c3f 038f 793f 91e6 7c3f
00000190: 975a 803f 01bb 843f fdcc 7b3f 1d7e 833f
000001a0: 5e82 843f 7f22 823f 0a4f 823f bc75 843f
000001b0: a3b2 7b3f e42e 833f 32b5 743f c2c1 773f
000001c0: a4b1 793f 7adb 7e3f 9b62 7f3f f853 813f
000001d0: f3ea 813f 52d0 803f 7ae8 823f 21e1 7e3f
000001e0: 7cb5 813f 0572 823f 2590 7d3f f78d 793f
000001f0: 9723 813f 3b66 833f 83f1 783f 069f 823f
00000200: c46a f63c 2201 87bc b824 02bd 7f80 9a3b
00000210: d719 fcbc 72dc 94bb a147 e13c 7c83 e5bb
00000220: 9c2c f13c a0ed e3bc e48b bfbc 4390 2b3c
00000230: 8690 05bd c44a 803c 5e5a 953c f2bf d3bc
00000240: ac6b 85bc 58e9 b43b 2a6b f03c 1707 19bd
00000250: ec81 abbc 2d2e c83b c6b6 cf3c 3dac c3bb
00000260: 3df0 1abd 6696 7dbc 66e4 c43c a42f d2bc
00000270: ec2e 0a3d 04e5 1abd 01c1 07bd 7b93 fa3c
00000280: 69c3 af3c 2b68 00bd 1adc 69bc c3ef 363c
00000290: add2 b53b 08e5 dd3c e750 0e3d 4feb 963c
000002a0: e9dc d83c ecac fcbc 1a6d a8bc c49c 0d3d
000002b0: 1b8e 423c 2b2b 043d 269b 933c 4092 83bc
000002c0: 33a7 82bc 3737 b43a 169a 693b f6d7 93bc
000002d0: 8acd 05bc 47f7 f7bb ae78 a73c 4be1 c93c
000002e0: d0ff c9bc 30e8 e3bc 2167 ac3b 8522 44bc
000002f0: 46e6 7ebc 0018 f13c 4fb2 febc fc55 d23c
00000300: d1c4 d83d f435 d5bc f2de 3bbc 07f1 b43d
00000310: 1f22 c73d d80c b23d 525b a53d c85e 753d
00000320: 391a 6e3c 13e7 21bd 063e c23a 0ba7 913d
00000330: 2e20 9f3b 3f7a dd3c f2a3 b53c 7e11 a03d
00000340: 4221 c0bb 9f35 6ebb 02e1 c4bc 225b c93d
00000350: 4f50 87bc c7f4 113e 83cd f3ba 8428 a13d
00000360: 17eb 0a3e 81c3 a6bc 5bfe e63d a197 f93d
00000370: 53a7 c6bb 0fbb 0cbc da98 053d 0450 c63d
00000380: 127b a43d 057d ed3d 08d8 cb3d 6656 c23d
00000390: 5dbe b83d 899b a0bc 98e8 d83d 1d9c 20bc
000003a0: abaa 733c 46c7 1f3d 260d 0bbb 0ba3 b2bb
000003b0: 4ab6 743d 3137 c0bc c0f5 22bd d53c 6f3d
000003c0: ecd4 863d 0d05 de3d d580 8d3d 928a 95bb
000003d0: a5f3 f2bc 0da3 9f3c 64b3 9d3c 0848 a13c
000003e0: 9be9 a83c f466 b63d 42ce fa3d 20d4 9e3d
000003f0: 547a 463c 711c 96bc f5bc a43d 1748 debb
0.07713819 0.03365832 0.02760809 -0.0037952457 0.035226077 0.0059180087 0.038211018 -0.0006092021
0.026393574 0.020288369 0.016389817 0.02710621 0.03914532 0.029993191 0.03911084 0.009055261
0.0075443382 0.016911393 0.022154327 0.10367968 0.020645412 0.049934506 0.03299457 0.023278646
0.08536538 0.02172924 0.035656143 0.03559784 0.029259294 0.033873044 0.06666368 0.08610633
0.013166185 -0.005699308 0.047717888 0.047216013 0.017274255 -0.02338709 0.12505688 0.018968966
0.024452386 0.037279576 0.031940997 0.026667178 0.050467666 0.044886142 -0.016006917 0.0323719
0.060087584 0.045948107 0.05089744 0.038597085 0.008110999 -0.02608046 0.030915678 -0.0015451176
0.017667834 0.0054512913 0.008102676 0.0016892431 0.009379727 0.04174869 0.11261787 0.01567102
1.0099676 1.0386839 0.9905988 0.9900042 0.98934793 0.9891309 0.97723585 0.9950664
1.0252566 1.017747 1.0094794 0.9823914 0.9839088 1.0347724 1.0094378 1.0009091
1.0094714 1.0146787 1.0306839 1.0088701 1.0314034 0.9967289 1.0301156 0.9756476
1.0045558 1.0379295 0.993026 0.9535846 1.0214361 1.0327886 1.0136454 0.9811583
1.0101497 0.98815256 0.97483844 0.98789316 1.0027646 1.0369569 0.9835966 1.0272862
1.0352285 1.0166777 1.0180371 1.034843 0.98319453 1.0248685 0.9558898 0.96780026
0.97536683 0.99553645 0.99759835 1.010375 1.0149826 1.0063574 1.0227196 0.9956227
1.013351 1.0191046 0.9904807 0.97482246 1.0088986 1.0265573 0.9724352 1.020478
0.030080207 -0.016480032 -0.0317733 0.004715025 -0.03077404 -0.0045428807 0.027499976 -0.0070041995
0.029440217 -0.02782327 -0.023382135 0.010471406 -0.03260853 0.015660651 0.018231567 -0.025848363
-0.016286694 0.005520981 0.029347975 -0.037360277 -0.020935975 0.00610902 0.025355708 -0.00597146
-0.037826765 -0.015477752 0.02403469 -0.025657482 0.033736154 -0.037816063 -0.033143047 0.030587902
0.021455484 -0.031349342 -0.014273668 0.011165562 0.005548796 0.02708675 0.034745123 0.01842275
0.026472526 -0.030844174 -0.020559836 0.03457333 0.011874701 0.03226773 0.018018316 -0.016060948
-0.015948867 0.0013749365 0.003564482 -0.018047314 -0.00816668 -0.0075673196 0.020443287 0.02464356
-0.024658114 -0.027820677 0.0052613174 -0.011971121 -0.015557831 0.02943039 -0.031090884 0.025675766
0.10584415 -0.026026703 -0.0114667285 0.08835035 0.09723305 0.08693856 0.080740586 0.059904844
0.014532619 -0.03952701 0.001481951 0.07111939 0.004856131 0.02703583 0.022172902 0.07815836
-0.0058633396 -0.0036347879 -0.024033073 0.09831835 -0.016517786 0.14253531 -0.0018600676 0.07869056
0.13566242 -0.020356895 0.11278983 0.12187124 -0.006062427 -0.00858952 0.032616474 0.096832305
0.08031286 0.11596111 0.09953314 0.094891354 0.09020684 -0.019605415 0.10591239 -0.009802845
0.014872233 0.0390084 -0.0021217554 -0.005451565 0.059744157 -0.023463817 -0.039785147 0.058407623
0.065835804 0.10840807 0.069093384 -0.004563638 -0.029657194 0.019486928 0.01925058 0.019687667
0.020619204 0.089063555 0.12246372 0.077553034 0.012114126 -0.018324109 0.08043853 -0.006783496

network_body.lstm.lstm.bias_hh_l0 f4 [256]
00000000: a3fa 9d3d 4edd 093d 562a e23c deb9 78bb
00000010: 3249 103d e2eb c13b 2483 1c3d 3ab3 1fba
00000020: 5237 d83c ca33 a63c ed43 863c c60d de3c
00000030: db56 203d 48b4 f53c b032 203d 7a5c 143c
00000040: 7e36 f73b c989 8a3c fd7c b53c fd55 d43d
00000050: 9120 a93c 2088 4c3d 5025 073d d8b2 be3c
00000060: 0fd4 ae3d 8601 b23c 240c 123d 0ccf 113d
00000070: 32b1 ef3c 78be 0a3d f986 883d 8658 b03d
00000080: efb6 573c 4bc1 babb ce73 433d 9165 413d
00000090: b982 8d3c 4596 bfbc eb0e 003e ce64 9b3c
000000a0: 5f50 c83c 78b2 183d 90d4 023d 2175 da3c
000000b0: 2db7 4e3d 87da 373d f520 83bc 6898 043d
000000c0: 5f1e 763d 0f34 3c3d d379 503d fa17 1e3d
000000d0: fde3 043c aba6 d5bc e142 fd3c ba85 caba
000000e0: 23bc 903c eda0 b23b 00c1 043c b269 dd3a
000000f0: 69ad 193c b000 2b3d 35a4 e63d 8360 803c
00000100: 9e46 813f 98f3 843f e297 7d3f ea70 7d3f
00000110: e645 7d3f af37 7d3f 1e2c 7a3f acbc 7e3f
00000120: 9c3b 833f 8945 823f 9f36 813f 017e 7b3f
00000130: 72e1 7b3f 6c73 843f 4235 813f ca1d 803f
00000140: 5c36 813f fee0 813f 73ed 833f a722 813f
00000150: 0705 843f a029 7f3f d4da 833f 0ac4 793f
00000160: 4995 803f e0da 843f f636 7e3f 1e1e 743f
00000170: 6bbe 823f 6b32 843f 22bf 813f 2f2d 7b3f
00000180: 964c 813f 91f7 7c3f 038f 793f 91e6 7c3f
00000190: 975a 803f 01bb 843f fbcc 7b3f 1d7e 833f
000001a0: 5e82 843f 7f22 823f 0a4f 823f bc75 843f
000001b0: a2b2 7b3f e42e 833f 32b5 743f c1c1 773f
000001c0: a0b1 793f 7bdb 7e3f 9b62 7f3f f853 813f
000001d0: f3ea 813f 54d0 803f 7ae8 823f 22e1 7e3f
000001e0: 7cb5 813f 0472 823f 2490 7d3f f58d 793f
000001f0: 9723 813f 3b66 833f 82f1 783f 069f 823f
00000200: c06a f63c 2201 87bc ba24 02bd 8c80 9a3b
00000210: d119 fcbc 73dc 94bb 9e47 e13c 6883 e5bb
00000220: 9d2c f13c a1ed e3bc e08b bfbc 2890 2b3c
00000230: 8390 05bd c04a 803c 5e5a 953c eabf d3bc
00000240: ae6b 85bc 45e9 b43b 2b6b f03c 0e07 19bd
00000250: ec81 abbc 432e c83b c8b6 cf3c 2eac c3bb
00000260: 40f0 1abd 6696 7dbc 64e4 c43c a82f d2bc
00000270: ed2e 0a3d 03e5 1abd ffc0 07bd 6d93 fa3c
00000280: 69c3 af3c 2b68 00bd 11dc 69bc c3ef 363c
00000290: dfd2 b53b 08e5 dd3c e550 0e3d 50eb 963c
000002a0: e8dc d83c f2ac fcbc 196d a8bc c39c 0d3d
000002b0: 1e8e 423c 2b2b 043d 1d9b 933c 4392 83bc
000002c0: 22a7 82bc 5137 b43a ef99 693b f3d7 93bc
000002d0: 88cd 05bc 40f7 f7bb ae78 a73c 4ae1 c93c
000002e0: d2ff c9bc 31e8 e3bc 3a67 ac3b 8f22 44bc
000002f0: 46e6 7ebc fe17 f13c 4bb2 febc fe55 d23c
00000300: d1c4 d83d f235 d5bc e9de 3bbc 07f1 b43d
00000310: 2122 c73d d70c b23d 505b a53d c05e 753d
00000320: 191a 6e3c 14e7 21bd 8f3d c23a 0aa7 913d
00000330: 2920 9f3b 3b7a dd3c f2a3 b53c 7d11 a03d
00000340: 5921 c0bb f535 6ebb 08e1 c4bc 255b c93d
00000350: 4c50 87bc c6f4 113e 7ccd f3ba 8928 a13d
00000360: 19eb 0a3e 89c3 a6bc 5afe e63d a397 f93d
00000370: 56a7 c6bb 0fbb 0cbc d898 053d 0250 c63d
00000380: 0a7b a43d 017d ed3d 09d8 cb3d 6356 c23d
00000390: 58be b83d 929b a0bc 9ce8 d83d 149c 20bc
000003a0: a7aa 733c 45c7 1f3d ec0c 0bbb 0fa3 b2bb
000003b0: 47b6 743d 3837 c0bc c7f5 22bd d33c 6f3d
000003c0: e6d4 863d 0a05 de3d d380 8d3d 608a 95bb
000003d0: bbf3 f2bc 0da3 9f3c 52b3 9d3c 0948 a13c
000003e0: a6e9 a83c f266 b63d 42ce fa3d 1dd4 9e3d
000003f0: 577a 463c 7d1c 96bc f5bc a43d 3948 debb
0.07713821 0.03365832 0.027608078 -0.0037952582 0.035226054 0.005918012 0.038211003 -0.00060920755
0.026393566 0.020288367 0.016389811 0.027106177 0.03914533 0.029993191 0.03911084 0.009055251
0.007544338 0.016911404 0.022154326 0.103679635 0.020645412 0.049934506 0.03299457 0.023278639
0.08536541 0.021729242 0.03565611 0.035597846 0.029259298 0.03387305 0.06666369 0.086106345
0.013166173 -0.005699312 0.04771786 0.047216002 0.017274247 -0.023387084 0.12505691 0.018968966
0.024452386 0.037279576 0.031940997 0.02666718 0.05046766 0.04488614 -0.016006926 0.03237191
0.060087558 0.045948084 0.05089743 0.038597085 0.008110997 -0.02608045 0.03091568 -0.001545123
0.017667836 0.0054513128 0.008102655 0.0016892462 0.009379723 0.041748703 0.11261789 0.01567102
1.0099676 1.0386839 0.9905988 0.9900042 0.9893478 0.9891309 0.9772357 0.9950664
1.0252566 1.017747 1.0094794 0.9823914 0.9839088 1.0347724 1.0094378 1.0009091
1.0094714 1.0146787 1.0306839 1.00887 1.0314034 0.9967289 1.0301156 0.97564757
1.0045558 1.0379295 0.99302614 0.95358455 1.0214361 1.0327886 1.0136454 0.9811582
1.0101497 0.98815256 0.97483844 0.98789316 1.0027646 1.0369569 0.9835965 1.0272862
1.0352285 1.0166777 1.0180371 1.034843 0.9831945 1.0248685 0.9558898 0.9678002
0.9753666 0.9955365 0.99759835 1.010375 1.0149826 1.0063577 1.0227196 0.99562275
1.013351 1.0191045 0.99048066 0.97482234 1.0088986 1.0265573 0.9724351 1.020478
0.0300802 -0.016480032 -0.031773306 0.004715031 -0.030774029 -0.004542881 0.02749997 -0.0070041902
0.029440219 -0.027823271 -0.023382127 0.010471381 -0.03260852 0.015660644 0.018231567 -0.025848348
-0.016286697 0.005520972 0.029347977 -0.037360243 -0.020935975 0.0061090305 0.025355712 -0.005971453
-0.037826777 -0.015477752 0.024034686 -0.02565749 0.03373616 -0.03781606 -0.03314304 0.030587876
0.021455484 -0.031349342 -0.014273659 0.011165562 0.0055488194 0.02708675 0.034745116 0.018422753
0.026472524 -0.030844186 -0.020559834 0.034573328 0.011874704 0.03226773 0.0180183 -0.016060954
-0.015948836 0.0013749396 0.003564473 -0.018047309 -0.008166678 -0.0075673163 0.020443287 0.024643559
-0.024658117 -0.027820678 0.005261329 -0.01197113 -0.015557831 0.029430386 -0.031090876 0.02567577
0.10584415 -0.0260267 -0.01146672 0.08835035 0.097233064 0.08693855 0.08074057 0.059904814
0.014532589 -0.039527014 0.0014819371 0.07111938 0.0048561287 0.027035823 0.022172902 0.078158356
-0.0058633504 -0.003634808 -0.024033085 0.098318376 -0.01651778 0.1425353 -0.0018600668 0.078690596
0.13566245 -0.02035691 0.112789825 0.121871255 -0.0060624285 -0.00858952 0.032616466 0.09683229
0.0803128 0.11596108 0.09953315 0.09489133 0.0902068 -0.019605432 0.10591242 -0.009802837
0.01487223 0.039008398 -0.0021217419 -0.005451567 0.059744146 -0.02346383 -0.039785173 0.058407616
0.06583576 0.10840805 0.06909337 -0.0045636147 -0.029657235 0.019486928 0.019250546 0.01968767
0.020619225 0.08906354 0.12246372 0.07755301 0.012114129 -0.018324131 0.08043853 -0.006783512

action_model._discrete_distribution.branches.0.weight f4 [2, 64]
00000000: 4f45 df3d 8f33 80bd 98e5 cebd c946 f1bd
00000010: f577 29be b5f2 df3d 57ab e93d 4b05 c0bd
00000020: 12aa e83d 6eb1 c6bd d791 dabd 7875 df3d
00000030: 1d36 6dbd 2d5d b33d 0d9b b03d 3519 03be
00000040: b499 b8bd 28d4 e53d 21b4 dd3d aabb 11be
00000050: 5817 afbd e024 323e d900 c23d 2e70 02be
00000060: 6540 f9bd 09d7 efbd 976c e83d 1b96 0fbe
00000070: 425f e13d 13f8 90bd 9a30 eabd a54e 243e
00000080: 3e26 fe3d e271 19be b32f ecbd 1e68 973d
00000090: fdee bebd d216 86bd c87c 193e aa22 aa3d
000000a0: 3125 b33d 3fc0 abbd cd29 d1bd bc2b b63d
000000b0: 9d97 03be 8d7a cd3d 749e 2a3d 2086 0d3e
000000c0: 6e05 17be d696 0c3e b82a 13be d9f0 c6bd
000000d0: 4637 04be 85f9 9d3c a29f b13d a5b2 ee3d
000000e0: 8470 c7bd 9a50 c7bd d18e 0abe 952c ebbd
000000f0: c420 dfbd ff61 c43d c8ea 2cbe 912d c73d
00000100: 2db8 03be 8a4c d43d 0822 f33d 2978 ef3d
00000110: fa60 ff3d 1ad9 c4bd c7f1 0cbe db4d d73d
00000120: e5da f7bd df52 b83d f3b9 cf3d 5259 e8bd
00000130: af0c e23d 8955 e6bd 9332 f0bd 96a1 fe3d
00000140: 3937 a03d f133 cabd 6949 cdbd d895 1f3e
00000150: 0b65 b33d b31f 28be 9cdc 94bd 729d 0c3e
00000160: aabb 003e 9481 ee3d edae 01be 2784 083e
00000170: 4810 f5bd b215 a93d 47d2 9e3d 240b 3fbe
00000180: 6ef3 eabd 6934 1c3e d41e 093e 3f9b a4bd
00000190: f24e ae3d 3f1c 963d 1c70 fdbd 41dc b2bd
000001a0: c348 abbd 0ee5 bf3d a91e cb3d 1dc0 cbbd
000001b0: d10f 2b3e 48ac d5bd 3df0 44bd 6cc5 15be
000001c0: a189 033e b060 29be b7cd f03d 5a33 b03d
000001d0: 234a d53d 6daa e8bc c301 b7bd 41db f9bd
000001e0: 36aa d83d 8e2d cb3d 7fb0 fd3d c4ab 0b3e
000001f0: 696d f63d 8e06 f9bd e777 4a3e f3a8 e4bd
0.109018914 -0.06259834 -0.10102385 -0.11781079 -0.16549666 0.109349646 0.114096336 -0.093760096
0.11360563 -0.09701811 -0.10672348 0.10911077 -0.057912935 0.08758006 0.086233236 -0.12802584
-0.090136915 0.11222106 0.108253725 -0.14231744 -0.08549374 0.17396879 0.09472818 -0.12738106
-0.121704854 -0.117109366 0.11348837 -0.14022104 0.11004497 -0.070785664 -0.11435051 0.16045626
0.12409638 -0.14984849 -0.115325354 0.07392906 -0.09322927 -0.065473214 0.14989007 0.08307393
0.08747328 -0.083862774 -0.10213051 0.088950604 -0.12850805 0.1003314 0.04165502 0.13820696
-0.14748165 0.13729414 -0.14371765 -0.09713907 -0.1291171 0.01928402 0.08673026 0.116551675
-0.097382575 -0.097321704 -0.13531043 -0.11483113 -0.108949214 0.09589004 -0.16886437 0.09725488
-0.12863226 0.10366161 0.11871725 0.116928406 0.12469669 -0.09611721 -0.13764106 0.105128966
-0.12102298 0.090001814 0.10142889 -0.113451615 0.110375755 -0.11246783 -0.11728396 0.12433164
0.07823033 -0.09873188 -0.100237675 0.15584505 0.08759507 -0.16418342 -0.072686404 0.13731936
0.12571588 0.11645809 -0.12664385 0.13331662 -0.11965996 0.08256091 0.07754951 -0.18656594
-0.11472212 0.15254368 0.13390666 -0.08037423 0.085111514 0.07329606 -0.12374899 -0.08733416
-0.083634876 0.093698606 0.09917957 -0.09948752 0.16705252 -0.10433251 -0.04808067 -0.14626092
0.1284547 -0.1654079 0.11757987 0.086035445 0.10414531 -0.028401578 -0.08935883 -0.122000225
0.1057934 0.09920798 0.123871796 0.13639742 0.12032587 -0.12159453 0.19772302 -0.11165037

action_model._discrete_distribution.branches.0.bias f4 [2]
00000000: 5726 6c3c 3d26 6cbc
0.014413438 -0.014413414

exp_avg f4 [64, 3]
00000000: 8af4 0bbb 3d42 b3b8 de89 64ba b49a 20ba
00000010: efe9 b8b8 f314 99b9 be9a f9ba ff69 1839
00000020: 88e4 feb9 113f 86ba d959 be39 68a5 7fb7
00000030: 746c a4ba 00c7 8b39 2ed0 42b9 e7c7 53bb
00000040: 9009 063a a457 25ba bb84 3dbb 43ec 04b8
00000050: 6ef0 8dba 0db5 69bb 1def 54b9 1c3c c4ba
00000060: 8425 573b 303d 8d38 6243 a83a 51cd ceba
00000070: 3e40 a339 88dc 82b9 518d 08bb ca8f ccb7
00000080: 3a72 43ba c2bb a3bb 1e13 143a ba8e a6ba
00000090: 147c d2ba 666a b239 2d69 67b9 be06 dab8
000000a0: 0d61 d638 835c 7a38 eee3 34bb f6fe f838
000000b0: f1ae 65ba 412b b83a 5324 bab8 53db dc39
000000c0: 38c8 57ba e150 88b9 8236 0cba dc60 05ba
000000d0: 756f 05b8 9662 62b9 6bb9 6b38 bd78 8237
000000e0: d95f 1e38 df83 63bb b104 e139 c17f 56ba
000000f0: 36f3 08ba 9714 4b39 ae37 1b37 6f1f 33bb
00000100: 3ff6 75b9 7510 a1ba 4175 40ba 27c9 44b8
00000110: 5b0b 96b9 3429 c539 ba33 f638 d84e 8939
00000120: 3f44 683b 9db0 8a38 0061 b33a ddf5 45ba
00000130: bb08 3039 6295 a7b8 658e c0bb ab15 59b9
00000140: e5da 1bbb 3ba7 76bb 4af4 0139 8440 a3ba
00000150: df97 2eb8 e017 1839 2af0 0739 a0c6 f3b9
00000160: c155 0139 3eab 23b8 2cdf 5939 4e9f 55b7
00000170: 495d 8038 b733 69ba 7052 6d39 84a4 c2b8
00000180: 88a7 2e3a c22b 9c36 91c5 8039 8613 7ab9
00000190: 9d0f c8b8 7fc8 3bb9 584e 63ba 53b8 7b39
000001a0: e2b3 a4b8 a574 e03a 274c 3638 5bd7 333a
000001b0: 5355 ecba d48d 90b8 1745 3bba 55cc 83ba
000001c0: 09d8 563a 5477 ee39 7608 5839 89f3 8838
000001d0: 92c7 1d39 8e07 b9b8 2625 5cb9 3825 46b9
000001e0: acab e9b8 6e4b 4137 24ba 0ab8 59bd 2aba
000001f0: 33b5 8337 c073 63b9 23bd 38bb 759b c739
00000200: 85a4 23ba 7ecc f9b8 55a5 9539 e776 8339
00000210: c76a f7ba d6dd 6838 d50b 2eba 0944 4f3b
00000220: fdcc 40b7 9035 913a 9da0 5ebb a30d aa39
00000230: c7b1 6bba 2178 9539 4f43 8c38 1c6e 1539
00000240: 053c 1abb cbe3 9fb8 0beb 6bba ae15 d8ba
00000250: fe0c 5639 6aac d4b9 a4be caba a3c7 1539
00000260: a920 e7b9 32ea 9a3a 0e6a 9338 405b f439
00000270: 3b11 303a 8e12 5ab7 e789 8739 d4f2 283a
00000280: 7853 17b9 4d7c cf38 ee7e e8ba 9c76 9339
00000290: 2637 c0b9 5e48 0ab9 1587 6eb5 9e96 51b8
000002a0: 270f 413a 4239 6537 4166 9139 0dd1 78ba
000002b0: c54f 0e3a 22ea 5539 bd40 18ba 3e57 f1b8
000002c0: da4d aab9 2be2 9f37 ae41 90b8 7ea7 7cb8
000002d0: 0ba7 1aba 82f4 3ab9 32f8 cab9 3647 0d3a
000002e0: c779 9739 d45c f339 981f c9b9 2fcc da39
000002f0: f846 8839 594f 1c39 0422 90b7 0587 1d38
-0.0021355473 -8.547723e-05 -0.00087180536 -0.0006126568 -8.817377e-05 -0.00029198042 -0.0019043309 0.00014535336
-0.00048616924 -0.0010242184 0.00036306566 -1.5237696e-05 -0.0012544529 0.00026660413 -0.00018578835 -0.0032315196
0.0005113119 -0.000630731 -0.0028918225 -3.169129e-05 -0.00108291 -0.0035660893 -0.00020306972 -0.0014971527
0.0032828758 6.734801e-05 0.0012837464 -0.0015777742 0.00031137647 -0.0002495984 -0.0020836184 -2.4385652e-05
-0.0007455681 -0.0049967477 0.00056486006 -0.0012707331 -0.0016058707 0.0003403008 -0.00022069058 -0.00010396306
0.00010222392 5.9690803e-05 -0.0027601677 0.00011873052 -0.0008761725 0.0014050977 -8.875937e-05 0.0004212508
-0.0008231434 -0.000260002 -0.00053486985 -0.00050879805 -3.1813473e-05 -0.00021589766 5.620105e-05 1.555343e-05
3.77594e-05 -0.0034716052 0.0004291884 -0.0008182489 -0.00052242295 0.00019367259 9.251684e-06 -0.0027331968
-0.00023456755 -0.001228823 -0.0007341691 -4.691738e-05 -0.0002861869 0.00037605467 0.00011739829 0.0002618942
0.0035441068 6.6132496e-05 0.0013685524 -0.000755159 0.0001678792 -7.991005e-05 -0.0058763498 -0.00020702805
-0.0023781594 -0.0037636298 0.00012393403 -0.001245514 -4.1626274e-05 0.00014504744 0.00012964071 -0.0004649656
0.00012334345 -3.902171e-05 0.0002077787 -1.273288e-05 6.120891e-05 -0.0008895951 0.00022632792 -9.281284e-05
0.00066625373 4.6542564e-06 0.0002456126 -0.00023849131 -9.5396514e-05 -0.000179084 -0.0008671037 0.00024005891
-7.853635e-05 0.0017124607 4.3463104e-05 0.00068603986 -0.00180308 -6.8928726e-05 -0.0007143779 -0.0010055403
0.0008195644 0.00045483804 0.00020602517 6.530347e-05 0.00015047033 -8.8228946e-05 -0.00020994674 -0.00018896617
-0.00011142282 1.1521259e-05 -3.307512e-05 -0.00065132004 1.5700794e-05 -0.00021691527 -0.0028188906 0.00038072062
-0.0006242472 -0.00011911335 0.00028542677 0.00025074856 -0.0018876427 5.551971e-05 -0.00066393364 0.0031626245
-1.1491819e-05 0.0011078585 -0.0033970245 0.00032435087 -0.00089910295 0.00028508998 6.6882574e-05 0.00014250766
-0.002353431 -7.6241406e-05 -0.00089995627 -0.0016485953 0.0002041347 -0.0004056425 -0.0015468192 0.00014284118
-0.00044084087 0.0011819063 7.0292605e-05 0.00046607293 0.0006716435 -1.2998133e-05 0.00025851952 0.00064448756
-0.00014431577 9.893682e-05 -0.0017738023 0.00028126396 -0.00036662183 -0.00013187664 -8.885848e-07 -4.9969756e-05
0.00073646236 1.3662795e-05 0.0002773274 -0.00094916 0.00054287567 0.00020400484 -0.00058079866 -0.00011508026
-0.0003248293 1.9059595e-05 -6.878689e-05 -6.023747e-05 -0.0005899525 -0.00017829429 -0.00038713362 0.00053893344
0.00028891696 0.00046417734 -0.00038361247 0.0004173233 0.00025992817 0.00014906879 -1.7181977e-05 3.7557464e-05
