results/Test7/Jumper.onnx (onnx, 154598 bytes, 9 tensors)

network_body._body_endoder.seq_layers.0.weight f4 [64, 3]
00000000: 95ac 19be 4888 2dbe 694b 19bf 1ca5 ebbe
00000010: dcf5 a7be a833 533f e35b 72be 5a49 5a3e
00000020: acd8 58bf a5e8 2dbe b4b3 193f f1df 2f3f
00000030: 6637 0a3f 9bfa 13bf 5eb7 36bf 3cae a03d
00000040: 3e24 e7bd cd61 3dbf 9e9d 65be 8f46 1a3f
00000050: 8e59 723f 3052 ff3e 6480 ca3e 3599 893e
00000060: a16a 4dbf 5709 c3bd 9955 5bbe 4e6f ab3f
00000070: ae4f 0e3f 6efa 873e b95b 25be f8f5 e4be
00000080: a2c2 fabd 4e0d b03e b9de 2eba 30d5 053e
00000090: 132b 4e3f 8d88 87bf bf10 9fbe bc0a b1bc
000000a0: 0ed1 003f e17e debe 82e7 523e 7fa0 283f
000000b0: fc05 f23e 3083 a1be 713b 143e b110 d9bd
000000c0: 1b95 a4be fa1d 19bf 24b9 6dbe 60c0 00be
000000d0: 320d 533f 1945 f6be 164e ddbe 573f 61be
000000e0: 6256 73be e1e0 4f3c 0414 08bf fdc4 18bf
000000f0: 5ca8 5cbf db0c dbbe c969 f93e 71ef 73be
00000100: 4277 2cbe 0174 053f 7fc1 febe e633 023f
00000110: ce30 8f3e 0070 c93e dd03 80bd 88c1 04be
00000120: b64a 663e cb27 bebd 783a 36bf d97c 01bf
00000130: 60e8 5abd 4035 84be 2b2d 82be 58ca 283f
00000140: 6a75 6b3e e230 82bf 4922 273f 0fde 0f3e
00000150: 74de 4d3f 34b6 a9bd 71f7 a5be e1ed 5bbe
00000160: 9a94 793e c33f ee3e 6a4f b2bc fc87 ac3e
00000170: 3fc1 003d a7df fcbe 4666 ad3f 6e81 a23e
00000180: d5ab 87bf edb3 a3bf f1a7 963f 3762 d2bd
00000190: 9249 d5be 8d33 6d3f c9fa 5abf a4d4 d43d
000001a0: af94 423f 295a 99be 686c d0bd a3b9 60be
000001b0: e655 813e 9f33 7bbe 45aa 103e e68a a7be
000001c0: 00c4 163f b9bb 963d 3292 16bf eb17 503f
000001d0: 68cd d4be 6f25 603e e829 50bd dd46 ae3e
000001e0: 6126 b0bf 3994 08bf f66e f6be e7d2 dd3c
000001f0: af4d 343e 8203 5b3f e5f1 303f 4a90 223f
00000200: 3f3d 363f 71f7 c0be c88d bf3e becd 933e
00000210: 1142 1fbf 58d5 ad3e 8611 553f 018a de3e
00000220: 7c89 0abe 7663 fbbc ea5f 40bf 6807 e93d
00000230: 32d3 903d 06d6 cabe 7100 963d 5ed8 713f
00000240: 9e53 f539 d7c6 e8bc d201 8d3d 470d a23d
00000250: 805c 223f 9b8a 8d3a c9c9 c93e e37c ad3e
00000260: 760a 6f3e 5ea1 563e 81b0 bcbc c89a fb3e
00000270: 448d dbbe 2ea7 1bbf 41b8 53bf 4c32 2b3f
00000280: d9c6 26bd 784f 5b3f 0f17 f23e 1824 0ebf
00000290: e236 273f 3525 d2bd 0c9b fe3e 21d4 8e3e
000002a0: b23a a3be abe6 08be 7a6f a8be 8692 f0be
000002b0: cf48 163f 9c2a 4bbf c4db 65bf d30a b9bf
000002c0: 91f5 d73e 0353 84bc fab3 a7be bd96 aebf
000002d0: 9b87 07bd 353c 11bf 9855 3dbf 28c4 1bbf
000002e0: 6b3a 753d e7bc 373e 7cee 183f 3e55 d2bd
000002f0: e0f6 d1bd c98d 413f 1188 13bf 89df 94be
-0.15007241 -0.16946518 -0.5988069 -0.46024406 -0.32804763 0.82500696 -0.23667865 0.21317044
-0.84705615 -0.16983278 0.6003983 0.6870108 0.5399078 -0.5780427 -0.71373546 0.078457326
-0.112862095 -0.7397736 -0.22423407 0.60263914 0.946679 0.49867392 0.3955108 0.268747
-0.8024083 -0.09523266 -0.21419372 1.3393342 0.5559033 0.2655825 -0.1614827 -0.4471891
-0.122441545 0.3438515 -0.00066707615 0.13069606 0.80534476 -1.0588547 -0.31067464 -0.021611564
0.5031899 -0.43456176 0.20596126 0.658699 0.4727019 -0.315454 0.144758 -0.10598887
-0.32145008 -0.59811366 -0.23215157 -0.12573385 0.8244201 -0.48099592 -0.43223637 -0.21996818
-0.23763421 0.012687893 -0.5315554 -0.5967558 -0.86194396 -0.42783245 0.4871352 -0.23821808
-0.16842368 0.5213013 -0.49757 0.5086044 0.27966923 0.39343262 -0.06250737 -0.12964451
0.22489437 -0.09284934 -0.71182966 -0.5058113 -0.053444266 -0.25821877 -0.25425085 0.6593375
0.22994009 -1.0171168 0.6528669 0.14049552 0.8041756 -0.082867056 -0.32415345 -0.21477462
0.24373093 0.4653302 -0.021766383 0.33697498 0.031434294 -0.49389383 1.3546836 0.31739372
-1.0599314 -1.2789284 1.1770002 -0.10272639 -0.41657692 0.92656785 -0.8553892 0.103921205
0.76008123 -0.299516 -0.10176927 -0.21945815 0.25260848 -0.2453141 0.14127453 -0.3272316
0.5889282 0.07360024 -0.58816826 0.81286496 -0.41562963 0.2188928 -0.050821215 0.3403844
-1.3761712 -0.5335117 -0.4813153 0.027078105 0.17607759 0.8555223 0.691191 0.6350142
0.71187204 -0.37688783 0.37412858 0.28867906 -0.62210184 0.3395183 0.83229864 0.43464664
-0.13529009 -0.030687075 -0.75146353 0.11378366 0.07071532 -0.39616412 0.07324303 0.94470775
0.0004679234 -0.028415127 0.06885113 0.07912689 0.63422394 0.0010798754 0.39411762 0.33884344
0.23343834 0.20959994 -0.023033382 0.49141526 -0.42881215 -0.6080197 -0.82703024 0.6687362
-0.04071698 0.85668135 0.47283217 -0.55523825 0.6531812 -0.10261003 0.49727666 0.27896217
-0.31880718 -0.13369243 -0.3289755 -0.4698679 0.5870485 -0.7936189 -0.8978846 -1.4456428
0.4217954 -0.016152864 -0.327545 -1.3639752 -0.033088308 -0.56732494 -0.7395873 -0.60846186
0.059870165 0.17943154 0.597389 -0.10270165 -0.10252166 0.7560697 -0.57629496 -0.29076794

network_body._body_endoder.seq_layers.0.bias f4 [64]
00000000: 8b45 8339 9e18 e73c a4ba 7eba ba4a eb3a
00000010: fb18 013d 9860 983c 250f c33a 48f4 6a3a
00000020: 9fd4 38bc 24ce 8c3c b20b bbbb bf22 34bc
00000030: 3047 ce3c 9cf6 afbb 640e da3c 2438 ecbc
00000040: 4e40 783c e79e 8e3b 97c8 07bb 98c1 b23c
00000050: 1459 03bd 040b f63b 5cd9 1c3c 8540 373c
00000060: b835 6b3c a47c d4ba 626f 1fbb 6f8f 4a3d
00000070: 883c ac3c 5ed8 583c a060 4c3c 3562 323d
00000080: 2843 c6bc 93b6 b3bc 31c8 dc3c c10f 1f3b
00000090: af86 153c f1a7 da3c 7a75 b23c 9a3a 8b3c
000000a0: 03cc b8bc 0318 32bc a871 133c 3df8 263c
000000b0: 533e f0bb 427d 333a 2ed0 343d c541 a53c
000000c0: 857f dabc 6271 2c3c 76ea 793c 61fa 8fbb
000000d0: dd16 083d 587e 193d f248 5e3c 04ef 7e3c
000000e0: 4d2c 8abc 1b5e d83c 7722 e33b 17dd 3f3d
000000f0: fdfb 1b3d 4938 4b3c dea1 823c ad49 863c
0.0002503808 0.02820998 -0.00097171427 0.0017951347 0.031517964 0.018600747 0.0014881833 0.00089627923
-0.011281162 0.01718814 -0.0057081813 -0.010994612 0.02518043 -0.0053699743 0.02661819 -0.028835364
0.01515205 0.0043524387 -0.0020718926 0.021820828 -0.032067373 0.0075086374 0.009573307 0.011184816
0.014356069 -0.0016211462 -0.0024327864 0.049453195 0.021024957 0.01323518 0.012474209 0.04355069
-0.024201944 -0.021937644 0.026950927 0.0024270865 0.009126349 0.026691409 0.021784533 0.016995717
-0.022558218 -0.010869983 0.008999266 0.010191021 -0.0073316484 0.0006846973 0.044143848 0.020172963
-0.026672134 0.010525079 0.015253654 -0.004393861 0.03322493 0.037474006 0.013567196 0.015559915
-0.016866827 0.02641206 0.0069315988 0.046841707 0.03808211 0.012403556 0.015946325 0.016392553

network_body._body_endoder.seq_layers.2.weight f4 [64, 64]
00000000: fe58 09be 5a42 373e ae40 0fbe 14b6 033d
00000010: 81d7 34be b78c 6abd 8326 8d3d b8fa 3cbe
00000020: 6051 21be 509d dbbd a211 e7be f549 063e
00000030: 0215 ee3b 654a 063d a573 05bd 7a1e 013c
00000040: 05f5 e5bd 31f5 d73d f96f 84bd 6375 3d3e
00000050: 2391 3c3d e395 8cbc 5f60 efbd 8898 fabc
00000060: 7bb6 14be 9868 f2bd ff1b cd3d 8338 6d3e
00000070: 2f2b 8cbe 5fa9 1e3e e4b9 b63d b699 a43d
00000080: 160e 34be 15a1 2a3e d1f3 a3bb 767a b3bd
00000090: 63fb 6dbe b1cf 953d 4359 f1bd fcec 583d
000000a0: e04f 393d ff82 b7bd 7312 653e 3344 953e
000000b0: 1ad2 c3bd 21b5 e53d e413 93bd 92fe 3d3e
000000c0: 2520 7c3d dc26 90bc 89ef 683e a529 c33c
000000d0: 42b3 efbd f9ef b53c 73e0 14be 0ab8 2b3e
000000e0: 2f86 713d d8ad e7bc 98f5 a73c e016 d8bd
000000f0: 24a5 d83d 5b29 233e cfb5 fc3c 6759 7e3d
00000100: a7a6 003e f980 8d3d af00 0f3e 52bb 533e
00000110: 9558 fbbd ca71 eabd 199e fa3d 1435 f33c
00000120: 3bca 96bd 7a29 373e 0887 0f3d 6759 de3d
00000130: 0953 fb3d c3c4 1dbd 8e18 153e e493 7abc
00000140: d8d5 b03c 73eb 373e 46f1 ebbc 66b9 a93e
00000150: 89f2 a63d 95ce 7e3e c41c 763c 9eac 0ebe
00000160: 7651 1abd 04e0 c6bd bc27 9d3d 08e9 8b3e
00000170: 39ed 273d c93d d23d 56ea 473e e2be 583e
00000180: c6ce 0fbe 1a5e be3d 206c 553d 0a8e 24be
00000190: 6ab6 4c3d cc08 823d 390e a63d 8690 d2bb
000001a0: c9e6 213e 9713 57be 4a29 f33c a082 a9bd
000001b0: 9710 1b3e 7ec0 2abd c5c2 79bd 97a6 19be
000001c0: 207b 163e f2eb 55bd 6043 9abd 4f26 7e3d
000001d0: 5378 cbbd 6f6a d53d 5c91 c5bd 498e 8bbc
000001e0: 8ce5 1bbe 7551 163e 3dec f0bd af7a 943c
000001f0: bc24 2cbd 511e 3cbb ac58 f63c 588a ccbc
00000200: f09a 423e dc9f 29be 0af0 5b3e 2ac2 9a3d
00000210: c606 e53d 1c8b 233e 607d 80be 890e a5be
00000220: 7cf3 403e e13a e1bc 3bf3 5b3e 732d be3d
00000230: 04cc c13d b3c3 c3bd 738f 1f3e 7645 bfbd
00000240: b8f7 f5bd b77b 813c 48e5 713c b87c b33d
00000250: e597 33be b4ff 0a3d 5fe7 fcbd cb57 45bd
00000260: 043d 2a3d b449 b5be 19ec 12be 1905 a8bd
00000270: c7e3 6cbd 42fa 1dbe bed7 26be 9492 55bd
00000280: fc85 a53c da5d 60bc 7ac0 57be eb45 053e
00000290: ea48 953e 1f5d c23d ac6d 88bd 37f3 0cbd
000002a0: 1037 f4bc 3fa0 0cbe 8e6e 3d3d e7fe f13c
000002b0: c65d 9d3d d4c4 bf3d e0ab a43d 286c 1a3e
000002c0: b7f9 4cbd 952f a4bd 773b a03d d041 46be
000002d0: 74cf 78bc b794 5f3e eba4 973d 4401 2b3e
000002e0: 51bd 0c3e 748a 14bc 3376 253d 81d2 3d3c
000002f0: 2628 a33d 309c a7bd 91c7 933d 9c69 ca3b
00000300: caa5 38be 1a76 403c 2d32 4cbd 4e26 27be
00000310: cc6b 43be 352f f53d c306 99be 3d41 e6bc
00000320: ed7d 5cbd 3a54 983c 2f00 b1bc fa63 0ebd
00000330: 322c da3d d27c 593d 3251 cebd e5b8 3cbc
00000340: 3980 24bc 7fcd bf3d a708 f53d 656d 303d
00000350: 48c4 973d 9abc 9e39 cefe 8fbd 1778 93bd
00000360: 9699 233c 2dba 663d b331 07be 0c9f f3bc
00000370: 5449 8e3d 7603 f3bb 31d1 a4bd 8713 42bd
00000380: c719 9dbd 5225 ab3d e930 8dbe 1ac3 64bd
00000390: 3e01 d23c 7696 8bbd bb64 32bd d00f 1e3e
000003a0: 7c2c debd 247b cd3d 4257 de3d 3273 39be
000003b0: 41f7 2cbe 008f e93d a2df e0bd cf78 07be
000003c0: e8ce 7c3d 4912 87bd 4a74 dcbd 0ab0 773e
000003d0: 3068 83be 3b6f 5e3d b898 123e 7ca1 50bc
000003e0: 1bae 233e 97d3 603d 4a3b df3c c263 fc3d
000003f0: 4438 62bd 2f7d 10bd d84c 1a3e 6757 613e
-0.13412854 0.17896405 -0.13989517 0.032156065 -0.17660333 -0.057263102 0.06892111 -0.18455017
-0.15753698 -0.10723364 -0.4513064 0.1311415 0.007265688 0.032785792 -0.03258099 0.007880801
-0.112283744 0.105448134 -0.064666696 0.1850181 0.04603685 -0.017161315 -0.11688303 -0.03059031
-0.14522736 -0.11836356 0.100151055 0.23166089 -0.27376696 0.15494297 0.089221746 0.080371305
-0.17583498 0.1666301 -0.0050034304 -0.08763592 -0.23240428 0.073150046 -0.117846034 0.05296038
0.04524219 -0.089605324 0.22370319 0.29153594 -0.09561558 0.11216188 -0.07181528 0.18554142
0.061554093 -0.017596655 0.22747625 0.023823569 -0.117041126 0.022209154 -0.14538746 0.16769424
0.058965858 -0.028281137 0.02050285 -0.10551238 0.10578373 0.15933745 0.030848412 0.06209698
0.12563573 0.06909365 0.13965105 0.20676926 -0.12272755 -0.11447485 0.12237186 0.029688396
-0.07362791 0.17886916 0.035040885 0.10856896 0.12271697 -0.038517725 0.14560148 -0.015294049
0.021586344 0.1796091 -0.028801572 0.3314926 0.08151729 0.24883492 0.015021507 -0.13933036
-0.037675343 -0.09710696 0.07673594 0.27326226 0.040997718 0.10265691 0.19522986 0.21166566
-0.14043722 0.09295292 0.05210507 -0.16069809 0.04997865 0.06349334 0.081081815 -0.00642592
0.15810694 -0.21003567 0.029682774 -0.08276868 0.15143047 -0.04168748 -0.060976762 -0.15004955
0.14695406 -0.052226968 -0.07532382 0.062048253 -0.099350594 0.10420691 -0.09646866 -0.01703562
-0.15224284 0.14679511 -0.11763809 0.018124906 -0.04202722 -0.0028704593 0.030071579 -0.024968311
0.19004416 -0.16564888 0.21478286 0.07556565 0.111829326 0.15971035 -0.25095654 -0.32237652
0.18842882 -0.027493896 0.21479504 0.092860125 0.09462741 -0.09558811 0.15582065 -0.093394205
-0.12010139 0.015806062 0.014764138 0.087640226 -0.17538412 0.033935264 -0.12348818 -0.04817943
0.041562095 -0.35407794 -0.14347877 -0.08204097 -0.057834413 -0.15427497 -0.16293237 -0.05214174
0.02020549 -0.013694251 -0.21069518 0.13014953 0.29157192 0.09490418 -0.06661543 -0.034411635
-0.029811412 -0.13733004 0.04624801 0.029540492 0.076839015 0.09363714 0.08040595 0.15080321
-0.050042834 -0.08016888 0.07823842 -0.19361043 -0.015186179 0.21834074 0.074045025 0.16699702
0.13744093 -0.009066213 0.040395927 0.011585833 0.07966642 -0.08184087 0.07215799 0.0061771404
-0.18031994 0.011746908 -0.04985254 -0.16323206 -0.1908409 0.11971895 -0.2988797 -0.02810728
-0.05383103 0.01859485 -0.021606533 -0.034763314 0.10652961 0.053097554 -0.100740805 -0.011518692
-0.010040336 0.09365367 0.11964541 0.043073077 0.074104846 0.00030276628 -0.07031022 -0.0720064
0.009985348 0.056329895 -0.13202552 -0.029738925 0.0694758 -0.007416184 -0.080477126 -0.047381904
-0.07670932 0.08356728 -0.27576378 -0.055850126 0.025635358 -0.068158075 -0.043553095 0.1543572
-0.108483285 0.10033253 0.10856487 -0.1811035 -0.16891195 0.11404228 -0.109801546 -0.13229679
0.06172076 -0.065952845 -0.10764368 0.24188247 -0.25665426 0.054305296 0.1431607 -0.012733813
0.15984385 0.054889288 0.02724995 0.12323715 -0.05522944 -0.035275634 0.15068376 0.22005998

network_body._body_endoder.seq_layers.2.bias f4 [64]
00000000: b409 cd3c b4cc 4fbb 0499 d63b 1cf5 893c
00000010: 847b 833c 68e4 f9bb 93e2 a93b f7e9 deba
00000020: 7475 343c 5ba7 003c 4987 ed3a 984b ae3c
00000030: 6b81 06bb a014 be3c 2a02 833c f30d 933b
00000040: 32f9 403c 0425 1e3c c81f c83c 8f04 22bc
00000050: 9b3d b33c 20b6 2fb6 8dcd 9abc dc7d 063c
00000060: 6c6c b03c 66f1 14bb c5e4 a0bb ffaf 9f3c
00000070: 2631 e53b d167 b8bb e45e 9d3c 0f0c 663c
00000080: e6ca ecbb fa8a b93c 1f13 063c 146f a73c
00000090: 3bd2 4ebb 9667 af3c 73f7 233c 41c5 3abb
000000a0: 2853 27bb e117 a7bb bce7 573c e52d 59ba
000000b0: ed77 5dbc e1ea 81bc dfe8 a43b 5ef3 043c
000000c0: 0e29 09bb 79fb c7ba c493 08bb 186e 233c
000000d0: 3b17 f73b beef 8f3c 9a41 853b 3eeb 4bb9
000000e0: 6d73 913c 1217 973c 77df 623b 1b6b 923c
000000f0: c42d f43b 8739 553b 9560 183c 6d3a 483b
0.02502904 -0.0031707706 0.0065490026 0.01684051 0.016050108 -0.007626105 0.0051844805 -0.0017006983
0.011014331 0.007852401 0.0018121983 0.02127628 -0.0020523916 0.023203194 0.015992243 0.004487747
0.011778163 0.00965238 0.024429217 -0.009888782 0.021879962 -2.6183043e-06 -0.018896842 0.008208718
0.021536075 -0.0022726892 -0.004910084 0.019493101 0.0069943843 -0.0056276103 0.019210286 0.014040961
-0.007226336 0.022649277 0.00818327 0.020438708 -0.0031558413 0.021411698 0.010007727 -0.002849892
-0.0025531743 -0.005099282 0.013177808 -0.0008284732 -0.013517362 -0.01585907 0.005032643 0.008114664
-0.0020929012 -0.001525744 -0.0020840028 0.009974979 0.007540611 0.017570373 0.004066658 -0.00019447223
0.017755235 0.018443618 0.0034618059 0.017873337 0.0074517448 0.003253551 0.009300371 0.0030552403

action_model._discrete_distribution.branches.0.weight f4 [2, 64]
00000000: 45b3 01bb a1d5 59bd 6eda 8fbd 8186 5a3d
00000010: c047 a13d b5c0 61bd d1c2 e2bc 28a9 5f3d
00000020: ad7f 04bd ffd4 abbd 5be9 b73d 8e11 6e3d
00000030: 4312 9dbd 69ca 773d f541 2abd 6fcc 87bd
00000040: 66eb 82bc de2c 92bd 3187 063d 4c06 5c3d
00000050: 8455 3f3d 2d85 783d d875 b13d 6a4b 67bd
00000060: 42a9 8bbd ac93 88bd 8406 c13c f639 8cbd
00000070: 8de9 0dbd 9fe6 9f3d 21f7 3d3d 49ba 833d
00000080: 219c 72bd 8eff 6dbd a515 77bd 6b74 79bd
00000090: 87a2 a4bd ffed 0fbd 7baf 1c3d 7600 4dbd
000000a0: 1920 6c3d 11df 78bd 4d83 20bd 8b9c 5e3d
000000b0: 41a7 e83c 369e 653d 57d5 823d 5b31 a0bd
000000c0: a241 5e3d 3f64 833d 7634 9cbd 6d28 853d
000000d0: 0f3a 36bd 45fe 9ebd b1c1 923d aaa5 97bd
000000e0: 279e 103b 9966 84bd 1ad5 75bd 6160 9a3d
000000f0: 9bb6 a9bd 4c08 46bd 89ba 8abd 7b72 533d
00000100: b478 cbba 3c45 463d 4086 973d e84b 81bd
00000110: 6933 9dbd e805 633d dd96 613d 3fe9 d8bc
00000120: 1161 ad3c 27c4 583d c6b8 a7bd 04a1 70bd
00000130: aa44 463d c5be cdbc a76e 1d3d cfc3 8f3d
00000140: ca37 b53c 75a1 623d a813 3abd 7d92 81bd
00000150: c072 88bd 331f 90bd 6646 aebd 7d9a a33d
00000160: 5219 573d ab91 9d3d 8ece 11bb a801 973d
00000170: 1676 773d 31e1 a2bd 44a2 8ebd c3bf 7abd
00000180: 84cf 6e3d 2dea 983d 6902 863d 3f7f 973d
00000190: 3d54 573d bcde 953d e9af 46bd b96d f63c
000001a0: 59a5 83bd f785 9e3d 5210 3f3d d78d 81bd
000001b0: 507c 3cbd b2b2 8dbd 7402 8dbd 7900 7f3d
000001c0: f049 b1bd e063 40bd 5fbe 933d 0346 8ebd
000001d0: 46a5 3b3d c68d ac3d 2c00 63bd d3c7 503d
000001e0: c61b 22bd d685 363d 3fba 853d 6c3c 9fbd
000001f0: 698d e13d 7613 4f3d e585 c73d 0540 63bd
-0.001979069 -0.053182248 -0.07024084 0.05335093 0.07875013 -0.05511542 -0.027680786 0.05460468
-0.032348324 -0.08390235 0.08980056 0.05812221 -0.07669499 0.060495768 -0.041566808 -0.066307895
-0.015981387 -0.07137464 0.032843772 0.053716943 0.046712413 0.06067388 0.08665055 -0.056468405
-0.06819393 -0.06668791 0.023562677 -0.06846993 -0.03464656 0.07807659 0.04637826 0.064320154
-0.059230927 -0.058105044 -0.060323376 -0.06090204 -0.08038812 -0.03513908 0.03825329 -0.050049268
0.0576478 -0.060759608 -0.03918772 0.05434851 0.028400065 0.056059085 0.063883476 -0.07821914
0.05426181 0.06415605 -0.07627194 0.06501851 -0.044488963 -0.07763342 0.0716585 -0.07404645
0.0022066922 -0.064648814 -0.060017683 0.07537914 -0.08286782 -0.048347756 -0.0677386 0.05162285
-0.0015523643 0.04840587 0.07398653 -0.06313306 -0.07675821 0.055425555 0.055075515 -0.026478408
0.021164449 0.05292144 -0.081895396 -0.058747306 0.048405327 -0.02511538 0.038435604 0.070197694
0.022121329 0.05532976 -0.045428902 -0.063267685 -0.06662512 -0.07037201 -0.08509521 0.07988451
0.05251438 0.076937996 -0.002224836 0.07373363 0.06041535 -0.07953108 -0.069645435 -0.061218034
0.05830337 0.074665405 0.065434285 0.07397317 0.05257057 0.07317874 -0.048507605 0.030081617
-0.06428022 0.077403955 0.046646424 -0.06325882 -0.04601699 -0.06918849 -0.068852335 0.06225631
-0.086566806 -0.04697025 0.07214045 -0.069469474 0.045811914 0.08425479 -0.055420086 0.050971817
-0.039577268 0.04456123 0.06529664 -0.077751964 0.110133 0.05055567 0.09742335 -0.055480976

action_model._discrete_distribution.branches.0.bias f4 [2]
00000000: f19d a83c f79d a8bc
0.020583125 -0.020583136

98 f4 [1, 256, 64]
00000000: 8b9a 64be 0ad0 6ebe 2da6 4f3e 2099 a53c
00000010: f317 e5bd 113f 3ebe 1e98 693e 7fa0 96bd
00000020: d6bb 7e3e 2e8f 483e 8c3d 2cbd 178e d5bd
00000030: d58a c13d 396a bf3d 55d4 5fbe 9782 a43b
00000040: 2ac4 1dbe 9daa 6c3e 43eb 13be f656 bf3d
00000050: 6259 493e 0705 adbd 7428 17be ff3a 06be
00000060: 5f15 12be 7089 523e 0591 8a3c f217 bc3d
00000070: 8de8 0dbe 56c8 153e fb59 353e 2211 a93d
00000080: 3638 a5bd 9147 733e 3518 9bbd 69dc 903d
00000090: 69ee 133e b0d9 0ebe 4b81 c23c 4451 923c
000000a0: 6b1a 823d 5106 6dbe d9ab 9b3d 516e e93c
000000b0: 3f1d 35be 4728 173e d204 23be cb23 0d3d
000000c0: 332c 3bbe a707 01bc 8815 2abe c68c 72bc
000000d0: 2410 c4bc 984f 4a3c d612 13bd d337 21bc
000000e0: 3483 c2bd 3060 0ebd 8e2d 86bd 1771 76bd
000000f0: 307f 1f3e a627 a8bd 8f15 153c cdad ae3c
00000100: db21 b2bd 3453 73bd 6b5e 0c3e 95bc 2e3e
00000110: 1279 4e3e ee5e 65be 7d4d 243d 6483 71bd
00000120: 2747 13be d026 fcbc 662f 28be f322 72bd
00000130: f0ac 14be 452f 403e 97b6 343e 2205 25bc
00000140: ac21 cd3c e369 28bd 3482 033e 895d 21be
00000150: 7aaf c5bd b4d0 2c3e 6ff0 5d3e da99 77be
00000160: a3fd 70bc 621a 40bd a136 9c3d 2f88 f0bd
00000170: 13d8 51bb 076a 83bd 07c2 753e f17f a2bd
00000180: 63e5 7b3d 7a31 3a3e df59 8dbd 3493 0c3e
00000190: 0ff0 ed3c e549 583e 5718 eebd 39a0 46bb
000001a0: 40e9 bc3a ee3e 34be edde 19bd 6191 8f3c
000001b0: 671e 0e3e 05af 4fbe a269 203e fe57 0ebe
000001c0: 91c9 61be 75b8 e8bc 2f94 903c 8752 af3c
000001d0: b2b0 e0bc 5e0b 2cbe 91de 923d b499 b0bd
000001e0: 983b 87bd d53d 07be 3685 cd3d 2a84 583e
000001f0: f9b1 b3bd 0e28 e23d 8589 ecbc d628 10be
00000200: 0311 a23d 209b 9c3d 5072 f93d 2779 86be
00000210: 938c d53d 405e 2bbe 92b3 abbc f98b abbd
00000220: 113a e6bd 1bf6 ef3b 9a27 ad3d ff54 f13c
00000230: 7867 babd 212e 04be f1a9 22be 5d77 633d
00000240: 3af6 853d c99a 63be f742 ec3d 0cdf ac3d
00000250: fd80 463d 46fe e1bd 9dd3 9bbd 1b5d 0e3e
00000260: 1bf7 0dbe 6644 3dbe fbb2 14be dcaa 0fbe
00000270: d5b1 2fbe a580 12be 1a57 62bc da6f dd3d
00000280: 91b4 273e a7bb 4fbe 1797 5f3e ea87 d3bd
00000290: d0b5 73be c87a a7bd b235 5d3e 8e55 d33d
000002a0: c23b bd3c 2a90 363e 1dd8 83bd e983 ca3d
000002b0: 3ab5 2f3e ea2a 26bd 08b5 37bd ad9d 86bd
000002c0: 025c 083e 2365 84bd be48 90bb b6fb b63d
000002d0: 26d1 d73b 3cd2 c3bc 718d 3bbe bf17 0c3e
000002e0: 5a50 ac3d 35bc 02bb 1d39 92bc bf1b 0bbe
000002f0: 7348 3bbe a95f afbd 4f30 40bc 5d9a 75be
00000300: 6918 5e3d e571 25be fcae 40be 6ea9 743d
00000310: 3c86 933d 833a 843d d7c4 1b3e a81b 49be
00000320: 06a2 aa3d 49d7 253e 095a 14be 319f fcbd
00000330: 1aeb 043e 396d 43be a289 203d 8e4a 583e
00000340: 92e5 42bb 8b03 353d aee5 063e 0a96 a83d
00000350: 2a74 a33c a9a6 f9bd a35c c73d 5435 95bd
00000360: 9961 993d 7ea8 56be bcfa 9b3c b0e8 333e
00000370: 106c 9abd 6c61 ed3d 835e 083e a959 693e
00000380: fc21 16be 8ec4 e9bd 35b1 153e 1d2d 893d
00000390: 29df 81bd d782 00be 95b4 65bb fa68 b3bd
000003a0: cbea 6fbe 1638 153e a040 34be c45b d93b
000003b0: 891b 1abe 6cc3 06be 6fd0 70bd 3926 393e
000003c0: 4920 b0bd 37f9 353e 6cf9 3dbe f8bb 433e
000003d0: 2687 64bd c1d4 193e 252a 3d3e 77c6 0fbd
000003e0: aaf4 22be 3f10 e83d 14fd 1ebe e9af 163d
000003f0: 0de3 1d3d 841f 2fbe 4b58 32bb 7bc4 9ebd
-0.22324578 -0.23321548 0.20278235 0.020214617 -0.111862086 -0.18578745 0.22811934 -0.07354831
0.24876341 0.19585869 -0.042050883 -0.10427492 0.09450308 0.09346432 -0.21858342 0.0050204503
-0.15406862 0.23111959 -0.14445214 0.09342758 0.19663003 -0.084482245 -0.14761525 -0.13108443
-0.14265965 0.20560241 0.016914854 0.09184255 -0.13858242 0.14627203 0.17710106 0.08255221
-0.08067362 0.23757769 -0.075729765 0.0707329 0.14446415 -0.13950229 0.023743292 0.017861016
0.06352695 -0.23146941 0.07601137 0.028494986 -0.17686938 0.14761458 -0.15919808 0.034457963
-0.1827858 -0.00787536 -0.16609776 -0.014804071 -0.023933478 0.012348078 -0.035906635 -0.00983997
-0.09497681 -0.0347597 -0.065516576 -0.060166445 0.15575862 -0.08210687 0.009099378 0.021323109
-0.08697864 -0.05940552 0.13707893 0.17064126 0.20163372 -0.22399494 0.04011296 -0.058963194
-0.14382611 -0.030780226 -0.16424331 -0.05911536 -0.14519095 0.18768032 0.17647777 -0.010072025
0.02504047 -0.041116606 0.12842637 -0.15758337 -0.0965261 0.16876489 0.2167375 -0.24179783
-0.014708909 -0.04690016 0.07627607 -0.11744725 -0.003201966 -0.064167075 0.23999797 -0.07934559
0.061498057 0.18182936 -0.06901907 0.13728029 0.029045133 0.21121939 -0.11625736 -0.0030307902
0.0014412776 -0.17602131 -0.037566114 0.017525377 0.13878785 -0.20281608 0.15665296 -0.13900754
-0.22049548 -0.028408268 0.017648784 0.021401657 -0.027428005 -0.16801211 0.071713574 -0.086230665
-0.066031635 -0.13207181 0.100351736 0.21144167 -0.0877418 0.11042796 -0.028874168 -0.14078078
0.07913401 0.07646775 0.121800065 -0.26264307 0.10427203 -0.16735172 -0.02095965 -0.08376307
-0.11241544 0.007323039 0.08454819 0.029459475 -0.09101766 -0.12908222 -0.1588514 0.055533756
0.065411046 -0.22227015 0.1153621 0.0844098 0.048462857 -0.11034827 -0.076087214 0.13902704
-0.13863795 -0.18483123 -0.145214 -0.14030021 -0.17157681 -0.14306886 -0.013814712 0.108123496
0.16377474 -0.20286427 0.2183498 -0.10328658 -0.23799825 -0.081777155 0.21602514 0.10319053
0.023099784 0.17828432 -0.06437705 0.09888441 0.17158976 -0.04056827 -0.04485038 -0.06573043
0.13316348 -0.06464603 -0.004403203 0.08934729 0.0065862117 -0.023903958 -0.18315674 0.13680933
0.08413763 -0.0019948606 -0.0178495 -0.13584803 -0.18289356 -0.085631676 -0.011730268 -0.23984666
0.054222498 -0.16156729 -0.18816751 0.059731893 0.072033376 0.06456473 0.15211807 -0.19639456
0.08331685 0.16195406 -0.1448747 -0.12335051 0.12980309 -0.19084634 0.039193757 0.2112219
-0.0029738885 0.044192832 0.13173553 0.08231743 0.019952852 -0.12189991 0.09734466 -0.07285562
0.074893184 -0.20962712 0.019040458 0.17569232 -0.075401425 0.115908474 0.13317303 0.22788109
-0.14661402 -0.11414443 0.1461838 0.06698058 -0.063413925 -0.12549911 -0.0035050262 -0.08760257
-0.2342941 0.14572176 -0.17602777 0.006633254 -0.15049566 -0.13160485 -0.058792528 0.18080987
-0.08599908 0.17770849 -0.18552178 0.19114673 -0.05579295 0.15022565 0.18473108 -0.03510138
-0.15913644 0.11331224 -0.15526229 0.036788855 0.03854661 -0.17101866 -0.0027213271 -0.077523194

99 f4 [1, 256, 64]
00000000: 9a67 a23c 41e9 c43d 403e 44be 89fe 303e
00000010: 6d3a 163e 7536 0c3e 6be0 273d 6b72 b0bd
00000020: 756f 743d 9687 98bd 8ae8 6bbe b246 a9bd
00000030: 3f7a 083e b043 b63c 8030 1abe 927f 49be
00000040: 3950 08bd 903c 3e3d 2a02 51be 88af ebbd
00000050: f06c 38be 5cd2 51bb 1c3c 6cbe 5c79 bc3d
00000060: 72cb 603e 3b0d 583c e74d 043e 74f4 3bbd
00000070: 1b29 b0bd 1c46 72be 1ea2 69be f48b 4a3c
00000080: acb6 b53c de0e 03bd acd2 003e b967 53bd
00000090: c96d 9e3d 782d 1ebe 521b 52bd 6f20 b6bd
000000a0: d989 af3d 02af 89bd 7f56 2d3e 7b3d 303d
000000b0: 350f 8fbd 7ef1 18be 4010 363e a1d6 283e
000000c0: 69ea 5abe d4cb a8bd f225 a33c 5c97 783d
000000d0: 46e5 15be 201b 48be 5406 ebbd 37a4 073b
000000e0: 7df3 22be 75d4 b6bd 5c69 18bd a1a1 17be
000000f0: a0b4 28be dc6c 8f3d a5e1 823d cf3e 6c3c
00000100: f6a1 953d 08ee 283e 089e 933d da06 a83d
00000110: 7426 6abd ae54 363e 8281 e73d a842 80bd
00000120: 7de3 423e 6e6d 043e 88f4 473d fc7a 42be
00000130: c9ad 273e 107d 06be 860f a53d fa79 193e
00000140: 38eb 54be a3ab e93c 243d 66bd cb4a 9f3d
00000150: 00c6 16be bea0 743e 1192 84bd c5a1 3abe
00000160: e195 283d 86ae a03d bc5a ecbc 376e 90bd
00000170: 3c47 b8bd 652d 90bd 261e ebbd 6b1d 5b3e
00000180: ee35 19be 0f82 093e 040d b5bc 3206 2f3e
00000190: f334 2a3e 1649 4b3e d1a1 e2bd 9b8f b83d
000001a0: 7306 ea3d 9eb9 053e 99e6 0abe 1a8c 1cbc
000001b0: 27cf f2bd 7c66 283e 102a 7b3e cd23 b1bc
000001c0: 2868 623e 569a ea3c e616 6fbe 6c32 193e
000001d0: a223 f8bd 28de f73c 9735 0abe 93e3 2ebd
000001e0: 9ab3 993d e774 47be 3f48 2fbd 92fb 873d
000001f0: 3fe3 c53d ce62 92bb 785f 3c3c 7268 583e
00000200: f70d 123d 5776 d73d 4272 163e 5d47 203e
00000210: 93f2 fc3c b16f 483e a094 343e e7a1 01be
00000220: 57ac 3d3e 6ddc 013e 01ef 1cbe af42 4b3e
00000230: 48ff d53b 187c ed3d 51ca 083e ae87 2fbe
00000240: 1e60 33be 3a84 123c d34e f33c bddb 673e
00000250: 7312 a6bd f95e 6cbc de1d 89bd 7ad7 103d
00000260: d715 98bd b80a 283e 5d49 1ebe 9b10 68be
00000270: da28 713d 5cdf 8ebd f92a 543e 08b7 5b3d
00000280: 5fd8 2e3e d1cf d3bd 2c8e 1bbd 4849 e0bd
00000290: b810 e2bd 45fc c6bd 45df ffbd 18bd 243d
000002a0: acf3 24be ed04 ffbd 6d5e 4ebe a2f3 9bbc
000002b0: 68ec 1a3b d22b 7dbb ce2d 4abe 3160 cebd
000002c0: a5cb 2e3e 3c99 0bbe b57b b73d e8de 743c
000002d0: e7ff 10bd d446 143e bbc3 053e e39b 98bc
000002e0: 5150 a83d a8d4 1c3e bf27 02be bd2d 453e
000002f0: 4c90 bc3d 1e80 053e 9bda 753d c7de 37bc
00000300: 6550 3cbe 9766 f6bd 34fc 1dbd 77fa 0b3e
00000310: e14b 7b3e e77c efb9 fcb1 cf3c 4129 2cbd
00000320: 34ba ad3d c663 31bd 3273 35be 1b95 01bd
00000330: ee25 6abe 0355 36be f2bb 0d3c 40cd 09be
00000340: 117f c93d 6308 a03d 80a8 e3bc ff08 a63d
00000350: 89eb 9cbd 79de 0c3d 697b 423d 1947 a8bd
00000360: 252c 6fbe 5af7 2b3d 7ebd bbbd e880 babd
00000370: d406 00be 4315 cd3d 3c7b 0c3e 3d8a 9b3c
00000380: 136d 25be 635d 23bd f07d f9bd 6dd9 303e
00000390: b604 09bd 02cc 2d3e 27e2 8abd b1e7 71bd
000003a0: 1298 2dbd 0b56 bfbc ed69 31be 23db 36be
000003b0: e9b6 1cbe b225 cb3d 3447 1dbe e762 77bc
000003c0: bfb1 25bd 1702 2ebe 3310 a43d c0a7 f3bd
000003d0: 3b5e 5c3d b8c4 1e3e 3e69 373e 02ad 323b
000003e0: 3d8c 0c3e d51e 1e3e dcfe b1bd d550 d93c
000003f0: 5570 aa3d ee3e 3f3e d7b8 333e d6fb eabd
0.019824792 0.09614802 -0.19164371 0.17284597 0.14670725 0.13692649 0.040985506 -0.086155735
0.059676606 -0.07447736 -0.23037925 -0.08265437 0.13327883 0.022249073 -0.15057564 -0.1967757
-0.03327963 0.046444476 -0.20410982 -0.11508089 -0.18010306 -0.0032016253 -0.23069805 0.09202835
0.21952608 0.013186748 0.12920342 -0.045887426 -0.0860159 -0.23659557 -0.22815749 0.012362469
0.022181831 -0.0319966 0.12580365 -0.05161259 0.077357836 -0.15447032 -0.051295586 -0.08892905
0.08571214 -0.06722833 0.16927527 0.043027382 -0.069853224 -0.14935872 0.17779636 0.16488124
-0.21378483 -0.08242002 0.019915555 0.060691223 -0.14638242 -0.19541597 -0.11475816 0.0020697245
-0.15913196 -0.08927242 -0.037209854 -0.1480775 -0.16475153 0.07003185 0.063906945 0.014419272
0.07306282 0.16497052 0.072078764 0.08204432 -0.057165578 0.1780574 0.113039985 -0.06262714
0.19032092 0.12932369 0.048817188 -0.18992227 0.16374888 -0.13133645 0.080596015 0.14987937
-0.20792854 0.028524226 -0.056210652 0.077779375 -0.14723969 0.23889443 -0.064731725 -0.18225773
0.04115856 0.07845788 -0.02885186 -0.07052272 -0.08997962 -0.07039908 -0.1148036 0.21397941
-0.14961979 0.1342852 -0.022100933 0.17092207 0.16621761 0.19852099 -0.1106602 0.090117656
0.11427011 0.13059089 -0.13564529 -0.009554887 -0.118559174 0.16445345 0.24527764 -0.021623516
0.22110045 0.028638046 -0.23348579 0.1496064 -0.121161714 0.0302573 -0.13497005 -0.0426975
0.075049594 -0.19478188 -0.04279351 0.0663978 0.096624844 -0.004467345 0.011497371 0.21133593
0.03565785 0.105206184 0.14692023 0.15652223 0.030877387 0.19573857 0.17634821 -0.12659417
0.18522774 0.12681742 -0.15325548 0.19849657 0.006530676 0.11595935 0.13358428 -0.17141601
-0.17517135 0.008942658 0.029700672 0.22642417 -0.08108988 -0.01442694 -0.0669515 0.035361744
-0.074260406 0.16410339 -0.15457673 -0.22662584 0.05887685 -0.06976196 0.20719518 0.05364135
0.17074727 -0.10342372 -0.037977383 -0.10951477 -0.11038345 -0.09716085 -0.12493757 0.040219396
-0.16108578 -0.124521114 -0.20153208 -0.019037072 0.0023639444 -0.0038630855 -0.19744036 -0.10076941
0.17069872 -0.13632673 0.08959142 0.014945723 -0.035400297 0.14480144 0.13062946 -0.01862902
0.08218444 0.15315497 -0.12710474 0.19255729 0.0920721 0.13037154 0.06002293 -0.011222548
-0.18390043 -0.12031286 -0.038570598 0.13669764 0.24540664 -0.00045678692 0.025353424 -0.04203153
0.08482781 -0.043308042 -0.17719725 -0.03163634 -0.22866032 -0.17805867 0.008650767 -0.13457203
0.09838689 0.078141 -0.027790308 0.081071846 -0.07662112 0.034391854 0.047480974 -0.08216686
-0.23356684 0.04198394 -0.09167002 -0.09106618 -0.12502605 0.10013821 0.13718885 0.018986816
-0.1615489 -0.039883982 -0.12182224 0.17270441 -0.03345176 0.16972354 -0.067814164 -0.05905885
-0.042381354 -0.023356458 -0.17325564 -0.17857032 -0.1530415 0.09919299 -0.15359193 -0.015099264
-0.040452715 -0.16992985 0.08010902 -0.1189723 0.053800803 0.1550473 0.1791124 0.0027263765
0.13725372 0.15441449 -0.08691189 0.026527802 0.08322207 0.1867635 0.1755098 -0.11473815

100 f4 [1, 512]
00000000: 4d29 13bc 8aa4 953c 5646 273c 6f5f 963c
00000010: a900 703d 20f2 783b 7679 fbba b052 cc3c
00000020: 8e20 3a3c 9586 793c 4c13 113d 11eb 573c
00000030: 64bf 8f3c c8ca 893c ada5 343b 1877 b83c
00000040: d9c7 87bb 03ca bd3c 9de5 ce3c 39c9 d13c
00000050: 926a 113c 9442 6b3c 4670 dc3c 4717 e83c
00000060: d589 8f3c 3e01 803c a9f3 70bb 04ad 043d
00000070: 9500 393b 763c 2a3d aa1d 453d cb24 d13c
00000080: 4554 d03a 821d f73c 4cdb a33c 0c99 103d
00000090: a8c1 5f3c 9707 ee3a a5f2 b939 1d1d 1c3a
000000a0: 10e4 cd3c 38ba dc3c 6c55 53ba e89a c53c
000000b0: 1c04 3f3b 64aa fe3c aa99 913c d5da 693c
000000c0: 0c55 0c3d 4627 0d3d 402c ca3c d302 c53c
000000d0: 755b a43b 4755 e63c 438b 903c b96a 973b
000000e0: fbce 203c 2aeb aa3c 9224 923c 77cf 1d3d
000000f0: 277f d83c fe3c 3a3c 7c39 e13c 5409 79bb
00000100: 8cb8 1f3b b215 87ba 579f 213d 9272 ae3c
00000110: 0e21 2b3d 9fbb 363c 9073 203b f318 253c
00000120: 1eef cb3c 0a91 c63c 7959 253d 6f30 233b
00000130: 6fc0 473c 057c 3c3c 6a5e 803b f565 0d3d
00000140: 2db7 903c 6f75 583c ff6d 843c 26c6 353d
00000150: 0ca2 a33c ddff 3f3b de86 5f3d 16f0 293d
00000160: 6136 5e3c 92ae bb3c d90d d2bb 5387 223d
00000170: 7ec7 743c 121e 0d3d adb7 573d 45d9 113d
00000180: 11e3 813a 9283 bc3c 3387 8f3c 4100 153d
00000190: a8e5 313d 5ed4 863b a614 11bc 9e19 96bb
000001a0: eaf8 453b 8734 523c ec8d 2e3c a41e 173d
000001b0: 6643 033c 258c 053d c7e6 843c 1c1d c83c
000001c0: d979 973c d2da eb3c e57e 003d 19d2 d43a
000001d0: 5376 043c f294 633d c663 bd3c 5c4e d23c
000001e0: 98d2 89bb 55d5 8b3c 3371 083a 428e 2e3d
000001f0: 3c59 6c3d 518d 893c 64a6 983c 1f3f 7c3b
00000200: 64bf 7f3f 7f0f 813f 1040 7b3f 85e1 813f
00000210: 32ea 7b3f 9024 803f a5cd 803f 8d75 803f
00000220: ffb7 813f 55f0 833f bd26 803f 9034 813f
00000230: 82a3 803f 34eb 803f 87ab 7f3f 2076 803f
00000240: 2fc9 7c3f eaaa 7e3f 4ed6 7f3f 1a3a 813f
00000250: ef96 7c3f a5fa 7e3f ddf6 803f b8fa 803f
00000260: 380c 823f 439d 7f3f 6e5a 7c3f 60fe 7f3f
00000270: afb1 803f 40a0 7e3f 2b99 7b3f 39c7 833f
00000280: be85 763f 4088 833f 30a1 803f 47c8 833f
00000290: d5e9 813f 4c6d 813f b501 803f 8034 7f3f
000002a0: 609c 803f 3c0f 7c3f fc10 813f 635d 823f
000002b0: a716 803f 7f10 7f3f 4a7b 823f 58a1 803f
000002c0: 9c54 803f 3d80 823f ad82 7e3f a552 803f
000002d0: 49f3 7c3f a766 7a3f a60a 7d3f 5d08 7d3f
000002e0: a0df 813f 0879 833f 55b0 7f3f c6a0 7e3f
000002f0: 8d85 803f 1e1d 7c3f 3efc 7f3f b6c0 7a3f
00000300: 7714 083c 41b0 2ebc 37d8 b93b 7895 d33b
00000310: 3a2c 183b a171 2abb bfae 763b 3815 18bb
00000320: 342c 09bc e70a 9bbc c854 98bb f3e9 ee3b
00000330: 9164 4ebc a15b 363c 3654 87bb aec5 b93b
00000340: 3482 943c 3413 bb39 6238 223c 48ba bf3b
00000350: 4fa4 6b3b 4325 4239 ecca fc37 6cfa 84bb
00000360: 7d41 cabb b2a7 ddbb 2a33 9d3b b003 473b
00000370: 3fd4 8fbc 1675 9fbb 233a 18bb 69b0 e63b
00000380: 111f 7b3a 4626 2cbc 8109 18bc 4c0d 72bc
00000390: 5925 79bc 9db2 36bc 1042 533b caf2 003a
000003a0: 1d25 683c 622c 49ba 2397 0ebc ac73 953c
000003b0: a628 343c 1540 a8bb 8ea6 6c3c fe38 65bc
000003c0: 19db 0f3c 362b de3b 91ba 193c e6db 243c
000003d0: c047 ed3a 830d 0cbc d052 bebb af7a 30bc
000003e0: 4fb5 c93b 29f4 97bc 30af 70bc 1ba4 853c
000003f0: 7960 c83a ece6 10bc 194f d8bb a1b2 913c
-0.008982015 0.018266935 0.0102096405 0.018356053 0.05859438 0.0037986115 -0.0019185978 0.024941772
0.011360301 0.015229841 0.035418794 0.013178603 0.017547317 0.016820326 0.002756457 0.022517726
-0.0041436967 0.023167616 0.025255973 0.025608646 0.008875506 0.014359135 0.026909005 0.028331412
0.017521778 0.015625592 -0.0036766327 0.032391563 0.0028229107 0.041561566 0.048123993 0.02553024
0.0015894255 0.030165438 0.02000203 0.035302207 0.013657011 0.0018160221 0.00035466734 0.0005955266
0.025133163 0.026944265 -0.000806174 0.024121717 0.0029146736 0.031087108 0.017773468 0.014273365
0.034260795 0.034461282 0.024679303 0.024049198 0.0050157853 0.028116835 0.01764453 0.0046208766
0.009814973 0.020864088 0.017839704 0.038527932 0.026427818 0.011367081 0.027493231 -0.0037999945
0.0024371473 -0.0010306148 0.0394586 0.021294866 0.04177957 0.011153131 0.0024482943 0.010076749
0.024894293 0.024239082 0.04036853 0.0024900695 0.012191876 0.011504178 0.003917505 0.034521062
0.01766547 0.013211592 0.016165731 0.044378422 0.01997473 0.0029296794 0.05457198 0.04148873
0.01356277 0.02291039 -0.006410342 0.039679836 0.014940141 0.034452505 0.0526654 0.035607595
0.000990959 0.023011956 0.017520523 0.036377195 0.043431908 0.0041146716 -0.008855021 -0.0045806905
0.0030208179 0.012829906 0.010653954 0.036894456 0.0080116745 0.032604355 0.016223324 0.024427943
0.018490719 0.028790865 0.031371016 0.001623693 0.008084851 0.055561967 0.023118865 0.02567213
-0.004206013 0.017069498 0.0005204856 0.042616136 0.057702288 0.016791018 0.018634029 0.0038489772
0.99901414 1.0082854 0.98144627 1.0146948 0.9840423 1.0011158 1.0062758 1.0035874
1.0134276 1.0307719 1.0011822 1.0094166 1.0049899 1.0071778 0.99871105 1.0036049
0.9874448 0.99479544 0.9993638 1.0095856 0.98667806 0.99601203 1.0075337 1.0076513
1.0159979 0.9984934 0.98575485 0.9999752 1.0054225 0.9946327 0.9828059 1.0295173
0.96297824 1.0275955 1.004919 1.0295495 1.0149485 1.011148 1.0000521 0.99689484
1.0047722 0.98460746 1.0083308 1.0184749 1.0006913 0.99634546 1.0193875 1.0049238
1.0025821 1.0195385 0.99418145 1.0025221 0.98808724 0.97812885 0.98844373 0.98840886
1.014637 1.0271311 0.99878436 0.9946407 1.0040756 0.9848193 0.99994266 0.97950304
0.00830566 -0.010662139 0.005671527 0.006457027 0.002321972 -0.002600767 0.0037640778 -0.0023206007
-0.008372355 -0.018926097 -0.0046487786 0.0072910725 -0.012597219 0.0111302445 -0.004129912 0.005669317
0.018128492 0.00035681727 0.009901138 0.005851064 0.003595609 0.00018515163 3.0135234e-05 -0.004058173
-0.0061723576 -0.0067643756 0.004797359 0.0030367188 -0.017557262 -0.0048662527 -0.0023228012 0.0070400727
0.00095795194 -0.010507172 -0.00927961 -0.014773678 -0.015206658 -0.011150983 0.0032235421 0.0004918991
0.014169005 -0.0007674155 -0.008703026 0.018243633 0.0109960195 -0.0051345923 0.014444007 -0.013990639
0.008780264 0.0067800535 0.00938286 0.0100621935 0.0018103048 -0.008548143 -0.005808212 -0.010771438
0.006155647 -0.018549042 -0.014690205 0.016313603 0.001528754 -0.008844119 -0.006601226 0.017785372
