results/Test3/Jumper/Jumper-349658.onnx (onnx, 154598 bytes, 9 tensors)

network_body._body_endoder.seq_layers.0.weight f4 [64, 3]
0	0xbf1e610d	-0.6186684
1	0x3f19fed2	0.6015445
2	0x3e956c60	0.29184246
3	0x3f4aca0b	0.79214543
4	0x3f3d5eb0	0.73972607
5	0x3f0a4845	0.54016525
6	0x3d5b5d59	0.05355582
7	0xbdbdef58	-0.09274167
8	0xbee8557f	-0.45377728
9	0x3ea9a0cb	0.33130488
10	0x3e610328	0.2197386
11	0x3f723197	0.9460692
12	0xbe0cf06a	-0.13763586
13	0xbf2a4b28	-0.6652093
14	0x3d7a67da	0.061134197
15	0xbed3b8f3	-0.41352043
16	0xbe747dfd	-0.23876186
17	0xbcb4195b	-0.021984747
18	0x3d064a51	0.032785717
19	0x3f03c69c	0.5147493
20	0x3dc223fd	0.094795205
21	0x3eff33ad	0.49844113
22	0xbe284a9c	-0.16434711
23	0x3f194a8d	0.5987938
24	0xbf8eb520	-1.1149025
25	0x3eb19944	0.34687245
26	0x3d96f722	0.073713556
27	0x3dad56f5	0.08463851
28	0x3e633f67	0.22192155
29	0x3e931d49	0.2873328
30	0x3ea2d627	0.3180401
31	0xbf35b706	-0.70982397
32	0xbf210e6b	-0.62912625
33	0x3ddc0727	0.10743552
34	0x3d3795c5	0.044820566
35	0x3e391584	0.18074614
36	0x3edde8fb	0.43341812
37	0xbe748d26	-0.23881969
38	0xbfc54888	-1.541276
39	0x3cbd2038	0.023086652
40	0x3e874a2a	0.2642377
41	0xbea29525	-0.31754413
42	0xbe096758	-0.13418329
43	0xbea3f589	-0.32023266
44	0xbeaee8b1	-0.34161904
45	0x3f0df313	0.55449027
46	0x3ddc36a2	0.10752608
47	0x3f54ac8e	0.830758
48	0x3f19cb68	0.60076
49	0x3f73673e	0.9507941
50	0xbda82123	-0.08209445
51	0x3ebdb4e9	0.37052086
52	0x3f8114ff	1.0084532
53	0x3f42fad4	0.76163983
54	0xbf7e6d8e	-0.9938592
55	0x3f749ae2	0.9554883
56	0x3c8a2116	0.01686148
57	0x3eeb0587	0.45902655
58	0xbf25b380	-0.6472702
59	0x3e8b9049	0.27258518
60	0x3effd8ad	0.49969998
61	0x3eff77ad	0.49895993
62	0x3dea250f	0.114328496
63	0xbb58709b	-0.0033026102
64	0xbf557531	-0.83381945
65	0x3e881449	0.26577976
66	0x3f48a605	0.78378326
67	0x3eead980	0.45869064
68	0x3ef13b75	0.47115675
69	0x3dd428db	0.10359355
70	0xbd931181	-0.07181073
71	0xbf5f6ba3	-0.87273616
72	0xbeb055d5	-0.34440485
73	0xbe974acb	-0.2954925
74	0x3f31f825	0.69519264
75	0x3e93c69f	0.28862473
76	0x3e37b590	0.17940354
77	0x3f9467e7	1.1594208
78	0xbed43d49	-0.41453007
79	0xbf08b4ae	-0.53400695
80	0xbf57f1e0	-0.84353447
81	0x3e51e257	0.20496498
82	0xbf3fa9be	-0.7486838
83	0xbe366c65	-0.17814787
84	0xbce7b13a	-0.02828275
85	0x3ddfc106	0.10925488
86	0xbf6efea9	-0.9335733
87	0xbdc6ed6e	-0.09713255
88	0xbf4d2c37	-0.8014559
89	0x3f962245	1.1729208
90	0xbf3accfc	-0.7296903
91	0x3f5bd9cd	0.8587921
92	0x3f1f33d0	0.62188435
93	0x3eb49284	0.35268033
94	0x3d17d171	0.037064973
95	0xbeb80103	-0.35938272
96	0x3f39af9a	0.7253357
97	0xbf0872c5	-0.53300124
98	0x3e98e881	0.29864886
99	0xbf42f36f	-0.761527
100	0x3e0a8fdd	0.13531442
101	0xbeb649ef	-0.35603282
102	0x3ed2d9b1	0.4118171
103	0xbeb5f8ae	-0.3554129
104	0xbf746f48	-0.954823
105	0xbf3f05b4	-0.7461808
106	0x3f2555ea	0.6458422
107	0xbf2ffc34	-0.68744206
108	0xbf642821	-0.8912373
109	0x3edf22e7	0.43581316
110	0xbfaeea38	-1.3665228
111	0x3e894f08	0.2681811
112	0xbf6d53ee	-0.9270619
113	0xbdef8f2e	-0.11697231
114	0xbf02741d	-0.50958425
115	0xbfbc3f62	-1.4706843
116	0xbd0ae77d	-0.03391217
117	0xbf16a8e1	-0.5885144
118	0xbdeb09da	-0.114764884
119	0x3f64471a	0.8917099
120	0x3f9902de	1.1954
121	0xbd1e9e27	-0.038725045
122	0xbdadbcbb	-0.08483263
123	0xbf082f41	-0.53197104
124	0xbd5e5a7d	-0.054285515
125	0x3e31044a	0.17286792
126	0xbe1d1a0e	-0.1534197
127	0xbf89964d	-1.0748993
128	0xbec7fbc5	-0.39059272
129	0xbf7945ef	-0.97372335
130	0x3ed35eda	0.41283303
131	0xbe03815a	-0.12842312
132	0x3dfd37b7	0.123641424
133	0x3e7dc273	0.24781208
134	0xbf4e39b2	-0.80556786
135	0xbf66b4f9	-0.9011989
136	0x3e8bf930	0.27338552
137	0xbeb24737	-0.34819958
138	0xbf05cbc3	-0.5226404
139	0xbd28217c	-0.04104756
140	0x3bd8182f	0.00659468
141	0xbf178489	-0.5918661
142	0xbdd09953	-0.10185494
143	0x3ec63fa2	0.38720423
144	0x3df70252	0.120609894
145	0x3c8ae780	0.01695609
146	0xbd95ca37	-0.0731396
147	0x3e99885d	0.2998685
148	0x3f36f6e9	0.71470505
149	0x3f8f693f	1.1203994
150	0x3f936902	1.1516421
151	0x3e972fae	0.29528564
152	0xbe05673d	-0.13027664
153	0xbf2b7d2e	-0.66987884
154	0x3e6296d3	0.22127847
155	0x3fa57d07	1.292878
156	0xbed13710	-0.40862322
157	0x3fa3f93e	1.2810438
158	0x3e04c0a7	0.12964116
159	0xbc9ffd65	-0.019530008
160	0xbe256fc6	-0.1615592
161	0x3ebb9b04	0.36641705
162	0xbf9a40f1	-1.2051069
163	0x3ea4c842	0.32184035
164	0x3e857e27	0.2607281
165	0xbda3c84e	-0.079971895
166	0x3ea60ead	0.32433072
167	0xbf278754	-0.6544087
168	0xbd455ed3	-0.048186135
169	0x3f148f07	0.5803074
170	0x3e9c5035	0.30529943
171	0x3f397638	0.7244601
172	0x3e2dabe5	0.16960104
173	0xbed637dc	-0.41839492
174	0x3f0fc0b3	0.5615341
175	0x3ef5ebad	0.4803137
176	0xbddc0ee2	-0.10745026
177	0x3e3db55f	0.18526219
178	0xbf116e5e	-0.5680903
179	0xbf138d99	-0.57637936
180	0xbecaaeb6	-0.3958642
181	0x3e962641	0.2932606
182	0xbd388e84	-0.04505779
183	0x3e9adcc7	0.30246565
184	0xbf80545e	-1.0025747
185	0x3d73ce99	0.0595232
186	0x3f5f3244	0.87186074
187	0xbe6c28f2	-0.23062494
188	0xbe9e273d	-0.3088931
189	0xbed4d0af	-0.41565463
190	0x3e91fd7a	0.285137
191	0x3ea60cf4	0.32431757

network_body._body_endoder.seq_layers.0.bias f4 [64]
0	0x3d990bdb	0.074729644
1	0x3d82ec66	0.06392746
2	0x3c8fd9c5	0.017559895
3	0x3d8432f2	0.064550295
4	0xbd126a90	-0.035746157
5	0x3cf8b9ec	0.030362092
6	0x3d60369f	0.05473959
7	0x3ca2036c	0.019777022
8	0x3ca7d397	0.020486636
9	0xbc41dda8	-0.011832632
10	0xbaa002ac	-0.0012207828
11	0x3c9cfd0b	0.019163629
12	0x3d6f5105	0.058426876
13	0xbbea61da	-0.007152778
14	0xbbe62257	-0.0070231366
15	0x3c8d70e4	0.017265745
16	0x3d7f8f80	0.06239271
17	0x3d4ec9f9	0.050485585
18	0x3d9233b9	0.071387716
19	0xbc77d081	-0.015125395
20	0x3ad5326e	0.001626564
21	0xbcb7d406	-0.022439968
22	0x3d0484b9	0.032353137
23	0x3bb1b544	0.00542322
24	0x3d8589cc	0.06520423
25	0x3d4f0d27	0.050549652
26	0xbc35f9b0	-0.011106893
27	0xbd368a9a	-0.044565775
28	0xbcb8955e	-0.022532161
29	0x3d5aae42	0.05338884
30	0x3d96496b	0.07338222
31	0xbc78a4ff	-0.015176057
32	0x3bdaaeb6	0.006673659
33	0xbd39d106	-0.045365356
34	0x3ce17520	0.02752167
35	0x3c5e3ab9	0.013563805
36	0x3c864d1e	0.016394194
37	0xbc520d45	-0.0128205465
38	0x3c1e5cbb	0.009665663
39	0x3daa4ccb	0.08315428
40	0xbb2fc9ad	-0.002682309
41	0x3c0187f6	0.007905951
42	0x3c1d5467	0.009602643
43	0x3da31138	0.079622686
44	0xbd32158c	-0.04347758
45	0x3d035f48	0.03207329
46	0x3cd772a1	0.026299777
47	0x3d5f09aa	0.054452576
48	0xbbe049b0	-0.0068447217
49	0x3d89731c	0.067114085
50	0x3c8e5926	0.017376494
51	0x3da14f1a	0.078764156
52	0x3d2831d8	0.04106316
53	0x3ccdcef2	0.025123093
54	0x3cde8008	0.02716066
55	0xbce528fd	-0.027973646
56	0x3d61622d	0.05502527
57	0x3c2c17bc	0.010503706
58	0x3bdb4123	0.0066911145
59	0xbbd95205	-0.006632092
60	0x3cd916c9	0.026500123
61	0x3bf8901a	0.0075855376
62	0xbc51d532	-0.012807177
63	0x3d1be77a	0.03806255

network_body._body_endoder.seq_layers.2.weight f4 [64, 64]
0	0x3c897f6e	0.016784396
1	0x3e89b09f	0.26892564
2	0x3d028718	0.031867117
3	0xbcd3a559	-0.02583568
4	0xbdbd82d0	-0.09253466
5	0x3d40a375	0.047030885
6	0xbe26d8d6	-0.16293654
7	0xbd1a7fae	-0.03771942
8	0x3dcf187d	0.10112093
9	0x3d3f6a3c	0.046732172
10	0xbe05ea8d	-0.13077755
11	0xbc796526	-0.01522187
12	0xbd83c2a7	-0.06433611
13	0xbe0068d4	-0.12539989
14	0xbe1d3b12	-0.15354565
15	0xbda26ab2	-0.07930507
16	0x3e99242a	0.29910403
17	0x3e225f67	0.15856706
18	0xbd28f1f3	-0.041246366
19	0xbe3d83de	-0.18507335
20	0x3bb07fd9	0.0053863344
21	0x3c873c8e	0.016508367
22	0x3d9869dc	0.07442066
23	0xbd132dd0	-0.035932362
24	0xbc1b5f4e	-0.009483172
25	0xbc577ca8	-0.013152279
26	0xbd9f029d	-0.0776417
27	0xbd7b6a53	-0.061380696
28	0xbdcd4e54	-0.100247055
29	0x3d791224	0.060808316
30	0x3e4609f8	0.1933974
31	0xbd84c268	-0.064823925
32	0xbde0d1aa	-0.1097749
33	0x3d8eed26	0.06978826
34	0xbd2f43d6	-0.042789303
35	0x3e0a395f	0.13498448
36	0x3c14beb1	0.0090786675
37	0xbcc7cb4c	-0.024388932
38	0xbd87109d	-0.065949656
39	0x3e9511ba	0.29115087
40	0xbd98a36b	-0.074530445
41	0x3d0aa90c	0.033852622
42	0x3d483af0	0.048884332
43	0xbdc6b047	-0.09701591
44	0x3d9c1c7a	0.07622619
45	0x3c52fa0f	0.012877001
46	0xba3c5484	-0.00071842247
47	0x3e5aa9a2	0.21353772
48	0xbd5e7a35	-0.054315764
49	0xbda3349d	-0.079690196
50	0xbd9b42c2	-0.075810924
51	0x3eb91dda	0.36155587
52	0xbd85ad05	-0.065271415
53	0xbdc05a33	-0.09392204
54	0x3e1c8626	0.15285549
55	0xbd301da5	-0.04299702
56	0x3e002483	0.12513928
57	0x3de06aed	0.109578945
58	0x3bc99fe8	0.0061530955
59	0xbc5f153e	-0.013615904
60	0xbd83b685	-0.06431297
61	0x38f363bd	0.00011605721
62	0xbd9a9ed3	-0.075498246
63	0x3dcd0c08	0.100120604
64	0x3d381bd7	0.044948425
65	0xbe24166a	-0.16024175
66	0xbd42c2ea	-0.047549166
67	0xbe5a9130	-0.21344447
68	0x3d58c209	0.05291942
69	0x3e2e5ebe	0.17028329
70	0xbe789ccb	-0.24278562
71	0xbdde79cd	-0.108630754
72	0x3e82ae3e	0.2552356
73	0xbdeed3a1	-0.11661459
74	0xbdb4a148	-0.088198245
75	0x3d233bd0	0.039851964
76	0xbd1b9c0a	-0.037990607
77	0xbdb91c2b	-0.09038576
78	0xbdb92e36	-0.09042017
79	0x3d0efe54	0.034910515
80	0x3d7a70d0	0.061142743
81	0xbdfca1c3	-0.12335541
82	0x3da90faf	0.082549445
83	0xbd94dc7a	-0.07268615
84	0xbe5bd335	-0.21467288
85	0x3ec48730	0.3838439
86	0xbe0c3258	-0.1369108
87	0xbe1dd2ec	-0.15412492
88	0x3b1def19	0.0024098812
89	0xbe2ceb16	-0.16886553
90	0xbd6b6ca4	-0.057476655
91	0x3e67cfc5	0.22637852
92	0x3e0b80e8	0.13623393
93	0xbe16406d	-0.14673014
94	0xbe23418d	-0.15942974
95	0xbdeb8a0b	-0.11500939
96	0x3c839efa	0.016067017
97	0x3ed51559	0.4161785
98	0xbe365060	-0.17804098
99	0x3e9ccc84	0.30624783
100	0x3e1cc67c	0.15310091
101	0xbd93ed79	-0.07223029
102	0x3da6180e	0.08110057
103	0xbd458065	-0.04821815
104	0xbd881859	-0.06645269
105	0x3e85d10d	0.26136056
106	0x3e2c43ed	0.16822787
107	0xbce06969	-0.027394013
108	0x3d89cf7b	0.06729027
109	0xbc440f29	-0.011966505
110	0xbca2031d	-0.019776875
111	0x3c417894	0.011808533
112	0x3e6c0770	0.23049712
113	0x3d776330	0.060397327
114	0xbcf1216d	-0.029434884
115	0xbd360c2d	-0.044445205
116	0x3baab84e	0.005209959
117	0xbd981730	-0.07426298
118	0x3e9e3908	0.30902886
119	0x3d4bebf0	0.049785554
120	0xbdfa8f41	-0.12234355
121	0xbdb39be7	-0.087699704
122	0xbe84529d	-0.2584428
123	0xbdc7761d	-0.09739325
124	0xbd9bea75	-0.076130785
125	0xbe33e461	-0.17567588
126	0x3df67f80	0.120360374
127	0x3e5ccdbd	0.21562858
128	0xbd8fba10	-0.070179105
129	0x3d1f9d19	0.03896818
130	0xbcd6418c	-0.026154302
131	0x3ca312e0	0.019906461
132	0xbdf05741	-0.11735392
133	0x3e4a90c5	0.19781788
134	0x3e676199	0.22595824
135	0x3df5eeb1	0.120084174
136	0x3e3715da	0.1787943
137	0xbe2f43df	-0.17115735
138	0xbe403fa4	-0.18774277
139	0x3d5505ce	0.05200749
140	0xbda35b13	-0.079763554
141	0xbe38b665	-0.18038328
142	0xbd965ead	-0.07342277
143	0x3d2d8174	0.042359784
144	0x3c072ca3	0.008250388
145	0x3d59a1f5	0.05313297
146	0x3e557d06	0.20848474
147	0xbc8c12c5	-0.017098794
148	0x3d331c03	0.043727886
149	0x3d6868b5	0.05674048
150	0x3e875359	0.26430777
151	0xbde4cf33	-0.111723326
152	0x3e10e0fd	0.14148326
153	0x3c633b8f	0.01386918
154	0xbda59367	-0.080847554
155	0xbe593cc4	-0.21214586
156	0x3dd38949	0.103289194
157	0x3d92fc2c	0.07177004
158	0x3dc13395	0.094336666
159	0xbd4b1116	-0.04957684
160	0x3e2174c7	0.15767203
161	0xbdee5b08	-0.116384566
162	0xbe6b977e	-0.23007008
163	0x3e04da8b	0.12973993
164	0xbdb8b47c	-0.090188
165	0x3d9f1939	0.07768483
166	0x3d79a8c8	0.060951978
167	0x3edb5f6e	0.42846245
168	0x3d936b6d	0.07198224
169	0x3e11a933	0.142247
170	0xbe959153	-0.29212436
171	0x3e233f96	0.15942225
172	0xbe27a07e	-0.16369817
173	0xbe063f40	-0.13110065
174	0x3b39df8f	0.002836201
175	0x3d9e861a	0.077404216
176	0xbe37f80c	-0.17965716
177	0xbcbb605e	-0.0228731
178	0x3ce3b017	0.027793927
179	0x3d27a22e	0.04092615
180	0x3e33d8e3	0.17563204
181	0x3d1b83a2	0.03796733
182	0x3cb59082	0.022163633
183	0x3d9c27bc	0.07624766
184	0x3e6117f6	0.21981797
185	0xbdb562a3	-0.08856704
186	0xbdf23034	-0.118256
187	0xbdaff0c9	-0.08590848
188	0x3da093e5	0.07840709
189	0x3dd67a97	0.10472601
190	0x3d41a8bf	0.04728007
191	0x3e3bae10	0.18328118
192	0xbc000b59	-0.0078152055
193	0x3d1257d3	0.035728287
194	0x3c472998	0.012155913
195	0x3b956925	0.0045596533
196	0x3d810d47	0.063013606
197	0xbd421a81	-0.047388557
198	0xbdf94bd9	-0.1217267
199	0x3d7883b2	0.06067247
200	0xbe7d8a00	-0.24759674
201	0x3df4ae19	0.11947269
202	0x3d21b71b	0.039481264
203	0xbc3dc1e4	-0.011581872
204	0x3d93f55b	0.07224532
205	0x3df3cffe	0.11904906
206	0xbd0ad55b	-0.033894878
207	0xbda70f3c	-0.081572026
208	0xbe315729	-0.17318405
209	0xbe1ba17c	-0.1519832
210	0xbd9ebd66	-0.07750969
211	0x3db5dd16	0.088800594
212	0xbc8612e9	-0.016366439
213	0x3e5a657a	0.21327773
214	0xbcb46ee4	-0.022025533
215	0xbcb14b3d	-0.021642322
216	0xbd05b8c6	-0.032646917
217	0x3d0454b8	0.032307357
218	0x3cefc4b6	0.029268604
219	0x3c4d1c10	0.012518898
220	0xbd7bc63e	-0.061468355
221	0xbdb12a11	-0.08650602
222	0xbe13a274	-0.1441744
223	0xbe944ad3	-0.28963336
224	0x3cf5f756	0.030025166
225	0x3dc1f0ab	0.09469732
226	0x3d40bb33	0.047053527
227	0x3ddea9c1	0.10872222
228	0xbddec852	-0.10878052
229	0xbdc34202	-0.09534074
230	0xbe05c0bb	-0.13061802
231	0xbe0037eb	-0.12521331
232	0xbdfb8e47	-0.122829966
233	0x3e1e6dc4	0.1547156
234	0x3c889275	0.016671399
235	0xbd928bef	-0.071555965
236	0x3dc626c8	0.09675366
237	0x3e1c619d	0.15271612
238	0xbe4a85b6	-0.19777569
239	0x3da762a9	0.08173115
240	0x3dde1d7a	0.10845466
241	0xbe3e64bc	-0.18593115
242	0x3e65b240	0.22431278
243	0x3dc63319	0.09677715
244	0xbe84f110	-0.25965166
245	0x3da5e9c5	0.081012286
246	0xb9ad2554	-0.00033024943
247	0x3dc81254	0.09769121
248	0xbd83fc95	-0.064446606
249	0xbd899408	-0.06717688
250	0x3ea0e914	0.31427824
251	0x3e1aa8fc	0.15103525
252	0x3db028f1	0.08601559
253	0xbdbf25b2	-0.09333362
254	0x3e109b49	0.14121737
255	0xbd6972dc	-0.056994304

network_body._body_endoder.seq_layers.2.bias f4 [64]
0	0x3cbb3b3a	0.02285539
1	0xbd83c4c8	-0.064340174
2	0x3d02d364	0.03193988
3	0xbca73c5f	-0.02041453
4	0xbc925847	-0.01786436
5	0xbbd6e65c	-0.0065582227
6	0xbc07cd6f	-0.008288725
7	0x3d2ac75c	0.04169403
8	0xbb8a1984	-0.0042144675
9	0x3d263a29	0.04058281
10	0xbd1049b8	-0.035226554
11	0x3b8fb6c9	0.0043858034
12	0xbb75ff35	-0.0037536148
13	0xbc4d01bd	-0.0125126215
14	0xbcb27c15	-0.021787683
15	0xbc426b34	-0.0118663795
16	0x3d7cf22b	0.061754387
17	0x3d2b300d	0.04179387
18	0x3d1909d3	0.037362885
19	0x3bc6100a	0.0060443925
20	0xbc650f63	-0.013980719
21	0xbc8c7d3b	-0.017149558
22	0x3d6795a3	0.05653919
23	0xbce54c6f	-0.027990548
24	0xbcf40327	-0.02978666
25	0x39935bf6	0.0002810654
26	0xbc788e27	-0.0151706105
27	0x3d050bf9	0.03248212
28	0xbd0087ed	-0.03137963
29	0x3d8549a6	0.06508188
30	0x3cb12554	0.021624245
31	0x3b8ceac5	0.0043004476
32	0x3d821cb7	0.06353133
33	0xbd2cdb7b	-0.0422015
34	0x3bac06da	0.00524984
35	0x3d331ccc	0.043728635
36	0x3d5438a2	0.05181182
37	0x3d02947d	0.03187989
38	0x3d444a5a	0.04792247
39	0x3cb6b759	0.022304224
40	0x3d2ce226	0.04220786
41	0x3cdb6f84	0.026786573
42	0x3d3b1096	0.045670114
43	0xbd07ea95	-0.0331827
44	0x39c53ad7	0.00037618607
45	0xbc34c1aa	-0.011032501
46	0x3c0f9b9e	0.008765129
47	0xbc0de6c1	-0.008660973
48	0x3bf87a6b	0.0075829527
49	0xbb3c72d3	-0.0028754964
50	0x3a0db818	0.0005406155
51	0xbcabd880	-0.020977259
52	0xbcc9518a	-0.024575014
53	0xbc52e8c3	-0.0128728775
54	0x3d381091	0.044937674
55	0xbd70f078	-0.05882308
56	0x3c3b42af	0.011429473
57	0x3cf53d6e	0.029936519
58	0x3d68dce7	0.056851294
59	0xbc123921	-0.008924753
60	0x3c4018cb	0.011724661
61	0x3c1c34b5	0.009534051
62	0xbcb8aa55	-0.022542158
63	0xbd015c5e	-0.03158223

action_model._discrete_distribution.branches.0.weight f4 [2, 64]
0	0xbdfefb3b	-0.12450262
1	0xbdec374b	-0.11533984
2	0x3dc1c807	0.0946198
3	0xbdfe26f6	-0.12409775
4	0xbd8a5b44	-0.06755689
5	0xbdab6f33	-0.08370819
6	0x3dbf27e6	0.09333782
7	0xbddf3474	-0.108986765
8	0xbddbe836	-0.1073765
9	0x3de7ab2b	0.113119446
10	0xbdbc4a62	-0.09193875
11	0x3e14c07a	0.14526549
12	0x3dde6c13	0.10860457
13	0xbdceee6c	-0.10104069
14	0x3d99e470	0.07514274
15	0xbdf04abb	-0.11733004
16	0x3dd82c01	0.10555268
17	0xbcec21a2	-0.028824631
18	0xbe0fc7d9	-0.1404108
19	0xbde5ee3a	-0.11227079
20	0x3d0761d0	0.033052266
21	0x3db323c5	0.08747057
22	0xbe0681fb	-0.13135521
23	0x3deb59f3	0.11491766
24	0xbdf7edc6	-0.121058986
25	0xbdaf9209	-0.08572776
26	0xbdc2fc4c	-0.09520778
27	0x3df12276	0.11774151
28	0xbdd0fd37	-0.10204547
29	0xbdf3f598	-0.11912078
30	0x3df40aa7	0.11916094
31	0xbe0567b3	-0.1302784
32	0xbdc97ab6	-0.098378584
33	0xbda2b01e	-0.07943748
34	0xbe01256f	-0.12611936
35	0xbd811510	-0.063028455
36	0x3d1af272	0.03782887
37	0x3dc473cc	0.09592399
38	0x3de06f25	0.10958699
39	0xbde6366f	-0.11240851
40	0xbda90e3c	-0.08254668
41	0xbdd4d528	-0.10392219
42	0x3dd96296	0.10614507
43	0x3dd72137	0.10504382
44	0x3bab4d72	0.005227738
45	0xbddaae63	-0.10677793
46	0x3de9baed	0.114126064
47	0x3da5fe3d	0.08105133
48	0x3df5b233	0.119968794
49	0xbd9e7bdc	-0.07738468
50	0x3dae4100	0.085084915
51	0x3e1dc13b	0.15405743
52	0x3e119f21	0.14220859
53	0xbe0275f1	-0.12740304
54	0xbdec1ebb	-0.11529299
55	0xbd83852a	-0.064218834
56	0x3e37f57c	0.17964739
57	0x3dab2abc	0.0835776
58	0x3dc5a00d	0.09649668
59	0xbcec7eb3	-0.028869009
60	0xbdbb8fdc	-0.091582984
61	0xbdd4c25e	-0.10388635
62	0x3ddb04e3	0.106942914
63	0xbdde0138	-0.10840076
64	0x3deab298	0.11459845
65	0x3dfe7e4b	0.12426432
66	0xbde392a9	-0.111119576
67	0x3ddfdf36	0.10931246
68	0x3dcb7d56	0.09936015
69	0x3da34c75	0.079735674
70	0xbdd5155b	-0.10404464
71	0x3dd2c58f	0.102915876
72	0x3de1b1e4	0.11020258
73	0xbdf4eda2	-0.11959387
74	0x3dd9d255	0.10635821
75	0xbde9d2cb	-0.11417159
76	0xbdb34e89	-0.08755214
77	0x3d9799da	0.07402392
78	0xbd9356bf	-0.0719428
79	0x3daead39	0.08529133
80	0xbdef9442	-0.116982
81	0x3cc418f9	0.02393769
82	0x3e1d6406	0.15370187
83	0x3dbd4206	0.092411086
84	0xbce673b1	-0.028131338
85	0xbdcb96bb	-0.09940859
86	0x3dfd90f8	0.12381166
87	0xbddc9c00	-0.10771942
88	0x3df92a76	0.12166302
89	0x3dd67761	0.104719885
90	0x3d982208	0.07428366
91	0xbe015126	-0.12628612
92	0x3dcb612c	0.099306434
93	0x3dcf480d	0.101211645
94	0xbdfa7e43	-0.12231114
95	0x3dafcd53	0.08584084
96	0x3e0ec7b9	0.13943376
97	0x3dcef5b1	0.10105456
98	0x3de2466f	0.110485904
99	0x3d8747f5	0.066055216
100	0xbd2d0252	-0.04223854
101	0xbe06b93b	-0.13156597
102	0xbddcebdf	-0.10787176
103	0x3dff3c4a	0.12462671
104	0x3dbc3b9b	0.09191056
105	0x3dff9ec5	0.12481455
106	0xbdd18305	-0.10230068
107	0xbd9b8a89	-0.07594783
108	0xbc8208ce	-0.015873339
109	0x3dc1de6a	0.0946625
110	0xbdd0d483	-0.101967834
111	0xbd950ac4	-0.07277444
112	0xbddbcd1c	-0.10732481
113	0x3db1d8c3	0.08683922
114	0xbdb0525e	-0.0860946
115	0xbe0b849d	-0.13624807
116	0xbe1228cf	-0.1427338
117	0x3e17a2b3	0.14808159
118	0x3de1a819	0.1101839
119	0x3da09a03	0.078418754
120	0xbe181189	-0.14850439
121	0xbdda4a61	-0.10658718
122	0xbdb602a0	-0.088872194
123	0x3c1dbd20	0.00962761
124	0x3de3ab09	0.11116607
125	0x3dcab23a	0.09897275
126	0xbde48090	-0.11157334
127	0x3df8c4b9	0.12146897

action_model._discrete_distribution.branches.0.bias f4 [2]
0	0x3d3317c4	0.043723837
1	0xbd3317c1	-0.043723825

98 f4 [1, 256, 64]
0	0xbdfe6bfe	-0.124229416
1	0x3de99f3d	0.114073254
2	0x3e9a8089	0.3017619
3	0xbd91af66	-0.07113533
4	0xbe8c62e7	-0.27419207
5	0x3dd287b8	0.102797925
6	0x3bf11312	0.0073570097
7	0x3e3a5b37	0.18198858
8	0xbe460afc	-0.19340128
9	0x3e3bb36f	0.18330167
10	0x3e5af029	0.21380676
11	0xbe7449d5	-0.2385629
12	0xbe53f6a1	-0.2069955
13	0xbe19ca10	-0.15018487
14	0x3dddfc20	0.10839105
15	0xbdecd696	-0.115643665
16	0xbe110369	-0.14161457
17	0xbe30b537	-0.17256628
18	0x3e829728	0.25505948
19	0x3c346cc7	0.011012263
20	0x3d024120	0.03180039
21	0x3e2e503e	0.17022797
22	0x3e962d1d	0.29331294
23	0xbea010c2	-0.31262785
24	0x3e4543c9	0.19264139
25	0xbd96c4fe	-0.07361792
26	0xbdc7a6c2	-0.097486034
27	0x3d7aef17	0.06126317
28	0xbe805aeb	-0.25069365
29	0xbdc8e43c	-0.09809157
30	0xbd1aef10	-0.037825644
31	0xbdf1a4cf	-0.11799013
32	0xbd00ef1a	-0.031478025
33	0xbcaf3ef8	-0.02139233
34	0x3e40397e	0.18771932
35	0xbdfa5a72	-0.12224282
36	0x3e5572ca	0.2084457
37	0x3e50390e	0.20334265
38	0x3e941797	0.28924248
39	0x3e5d2a06	0.21598062
40	0x3d865fa0	0.06561208
41	0x3dc0b790	0.09410012
42	0xbdbba161	-0.0916164
43	0x3df2d167	0.118563466
44	0xbe7d0844	-0.24710184
45	0xbe861dc0	-0.26194572
46	0xbd0842e4	-0.033266917
47	0xbea270bf	-0.31726643
48	0xbe49300b	-0.19647233
49	0xbe3f69a9	-0.1869265
50	0xbd328c84	-0.043591037
51	0x3e1e98b2	0.15487936
52	0xbe52cb1a	-0.2058529
53	0xbe12783e	-0.14303681
54	0x3d2bbfa0	0.041930795
55	0xbe161d32	-0.14659575
56	0xbe7a808e	-0.24463102
57	0xbd926d67	-0.07149773
58	0x3c18d262	0.009327503
59	0xbc34d35b	-0.011036719
60	0xbd9c3ac6	-0.07628398
61	0x3e4b46c2	0.1985121
62	0xbda76bd5	-0.08174864
63	0xbe7443ee	-0.23854038
64	0xbd993e06	-0.07482533
65	0x3cdf623f	0.027268527
66	0xbde44ba1	-0.111472376
67	0x3dc818fa	0.09770389
68	0x3e5a3b86	0.21311769
69	0xbe82b834	-0.2553116
70	0x3a571cdb	0.0008205899
71	0xba3d20dc	-0.0007214674
72	0xbdb47221	-0.08810831
73	0x3d336103	0.04379369
74	0xbd71b927	-0.059014466
75	0x3e3e7cfa	0.18602362
76	0x3e229685	0.15877731
77	0x3dbcac12	0.09212507
78	0xbe7ece14	-0.248833
79	0x3c9c3f16	0.01907305
80	0xbdac7b5f	-0.08421969
81	0x3e369970	0.1783197
82	0xbd9acd83	-0.075587295
83	0x3c783504	0.015149359
84	0xbe5b1099	-0.2139305
85	0xbd8ced26	-0.0688117
86	0x3df7c908	0.120988905
87	0xbe15c84c	-0.14627188
88	0xbe89423b	-0.26808342
89	0x3d6c92d3	0.05775721
90	0x3e6ce441	0.23133947
91	0x3e406300	0.18787766
92	0x3df90396	0.12158887
93	0x3e691b22	0.22764257
94	0x3d7bf5b9	0.061513636
95	0x3e24bed3	0.16088419
96	0x3e031d18	0.12804067
97	0xbe2c255f	-0.16811131
98	0xbe6cee0c	-0.23137683
99	0x3e655610	0.22396111
100	0x3d47999a	0.04873047
101	0xbe3995df	-0.18123578
102	0x3ded0045	0.11572317
103	0x3ca27c82	0.01983476
104	0xbe54f8df	-0.20798062
105	0x3b38cae2	0.00281971
106	0x3db646af	0.089002006
107	0xbdd43947	-0.10362487
108	0xbe131d7f	-0.1436672
109	0x3dcc9715	0.09989754
110	0x3d1d81b7	0.038453784
111	0xbd6f72b6	-0.058459006
112	0xbc2f7dcc	-0.010711145
113	0xbe344731	-0.17605282
114	0xbe547c7c	-0.20750612
115	0xbe29e065	-0.16589506
116	0xbd6694f3	-0.056294393
117	0x3e31fce5	0.17381628
118	0x3ea40da8	0.3204167
119	0x3ce1cf3b	0.027564636
120	0x3c8a16e3	0.016856616
121	0x3e873f90	0.26415682
122	0x3e06d0ef	0.1316564
123	0x3d610cfe	0.05494403
124	0x3e2cfa2a	0.16892305
125	0x3d901345	0.07034925
126	0x3d16559f	0.03670275
127	0xbe294b74	-0.1653269
128	0xbcfbb131	-0.03072414
129	0x3defb2f8	0.117040575
130	0x3e8aefd3	0.27136096
131	0xbe14ac49	-0.14518847
132	0xbe8b62b0	-0.2722373
133	0xbe1db7c0	-0.15402126
134	0xbdc66b35	-0.09688417
135	0x3e7aeb16	0.2450374
136	0x3df69a3b	0.12041136
137	0x3d030f6d	0.031997133
138	0xbb37ae81	-0.0028027596
139	0x3d557169	0.05211011
140	0xbde9bd73	-0.11413088
141	0x3e0d3b8e	0.1379225
142	0xbd3193b4	-0.04335375
143	0xbd5bffc2	-0.053710707
144	0xbd5442f8	-0.05182168
145	0x3d2284ac	0.039677307
146	0x3df369e3	0.11885431
147	0xbdb68cdf	-0.08913588
148	0xbe14af83	-0.14520077
149	0x3de8ccde	0.113672
150	0x3e476f3b	0.19476025
151	0xbd988175	-0.07446567
152	0x3b936844	0.0044985134
153	0x3e269f69	0.16271748
154	0xbe318f0d	-0.17339726
155	0x3e734fad	0.23760863
156	0xbe3b6439	-0.1829995
157	0x3e0e5d4a	0.13902774
158	0x3a818d3e	0.0009884012
159	0xbe010abf	-0.12601756
160	0xbcb22e79	-0.021750676
161	0x3d061280	0.032732487
162	0x3cb98bad	0.02264961
163	0x3d910545	0.07081083
164	0x3e8294a9	0.25504044
165	0x37dcc19a	2.6316196e-05
166	0x3e5b3a5b	0.2140898
167	0x3e253f9f	0.16137551
168	0xbd84c552	-0.06482948
169	0x3e56009b	0.20898668
170	0x3db99086	0.09060769
171	0xbced2cf0	-0.028952092
172	0xbdba4328	-0.0909484
173	0xbe99e3a4	-0.3005649
174	0xbe759d96	-0.23985896
175	0x3cd978cc	0.026546858
176	0xbd28b620	-0.041189313
177	0xbe17d3e8	-0.1482693
178	0xbe47f8ce	-0.19528505
179	0xbda6201c	-0.08111593
180	0xbe38cee8	-0.18047678
181	0xbd979961	-0.074023016
182	0x3d99134f	0.07474386
183	0x3e161686	0.1465703
184	0xbde3578c	-0.111006826
185	0xbdb84b3c	-0.08998725
186	0x3e4ee648	0.20205033
187	0x3dadcdfe	0.084865555
188	0xbe60dcbe	-0.21959206
189	0xbe66b803	-0.22531132
190	0x3de6101d	0.11233542
191	0xbe381f53	-0.17980699
192	0xbd78c129	-0.060731087
193	0xbe7d2b81	-0.24723627
194	0x3d50d305	0.050982494
195	0x3e2a2f16	0.16619524
196	0x3d7d516d	0.06184523
197	0xbcd333f3	-0.025781607
198	0x3e0d5339	0.13801278
199	0xbdf3ca56	-0.11903827
200	0x3db5f7da	0.088851646
201	0x3e32cf36	0.17461857
202	0xbe873fd3	-0.26415882
203	0xbdaa7908	-0.08323866
204	0xbdd8a27e	-0.10577868
205	0xbe65a5a2	-0.22426465
206	0xbe3cf520	-0.18452883
207	0x3e408123	0.18799262
208	0x3d84e063	0.06488111
209	0x3e68b36d	0.22724696
210	0x3d06390c	0.032769248
211	0xbe01713c	-0.12640852
212	0xbd96f2d7	-0.07370537
213	0xbdddef83	-0.10836699
214	0x3e90fd40	0.28318214
215	0xbe8dd00d	-0.27697793
216	0xbd35a2e8	-0.044344813
217	0xbe841611	-0.25798085
218	0x3e4ccc43	0.19999795
219	0xbddeba3c	-0.10875365
220	0x3e2b8270	0.16748977
221	0x3e83b033	0.25720367
222	0x3df999f1	0.12187565
223	0x3e37f5fc	0.1796493
224	0xbd08eb16	-0.03342732
225	0xbcf14686	-0.029452574
226	0x3da69250	0.08133376
227	0x3e292d23	0.16521125
228	0xbc8edd97	-0.017439647
229	0xbde74251	-0.11291946
230	0xbdc38c87	-0.09548288
231	0x3a8a882a	0.0010569145
232	0xbe081f15	-0.13293107
233	0xbdcff67b	-0.10154434
234	0x3c1ff3a2	0.009762676
235	0xbe8806c5	-0.26567665
236	0xbe01d8f2	-0.12680414
237	0x3e44ba5a	0.19211712
238	0xbe365d9c	-0.17809147
239	0x3e18e435	0.14930804
240	0x3d480679	0.048834298
241	0x3dcc3156	0.099703476
242	0xbd8976f2	-0.0671214
243	0x3bd24e94	0.0064180586
244	0x3dbe2718	0.092848
245	0xbda88478	-0.082283914
246	0x3dae217b	0.0850248
247	0xbda9e6b8	-0.08295959
248	0xbcb9b53f	-0.022669433
249	0x3df2e44f	0.11859953
250	0xbdea248b	-0.11432751
251	0x3daa1250	0.08304274
252	0xbe26ab4d	-0.16276284
253	0x3d87b92a	0.06627114
254	0x3dd1723a	0.10226865
255	0xbd482050	-0.04885894

99 f4 [1, 256, 64]
0	0x3deda39d	0.116034724
1	0x3e25cd3e	0.16191575
2	0x3cb6c1b2	0.022309158
3	0xbe2c9610	-0.1685412
4	0xbb818185	-0.0039522075
5	0xbd3d8601	-0.046270374
6	0x3e3008c1	0.1719084
7	0xbd860614	-0.06544128
8	0xbb0ea510	-0.0021765865
9	0x3e274052	0.1633313
10	0xbdf350bf	-0.118806355
11	0x3d6f35c6	0.05840089
12	0x3e3e4ad7	0.18583237
13	0xbe53688c	-0.2064535
14	0xbce617a4	-0.028087445
15	0xbe32d72e	-0.17464897
16	0xbdff902e	-0.12478672
17	0xbc7b6dc1	-0.015345992
18	0x3d86b8be	0.065782055
19	0xbcb87e61	-0.0225212
20	0xbd896506	-0.06708722
21	0x3cfca4d5	0.030840317
22	0x3d419650	0.04726249
23	0x3e54c6f2	0.20779017
24	0xbd610067	-0.054932024
25	0xbd3a865a	-0.045538284
26	0xbe4f8adb	-0.20267813
27	0x3e47cb84	0.19511229
28	0x3dfeb7cd	0.12437401
29	0x3e52a0ee	0.20569202
30	0xbdf335a2	-0.11875464
31	0x3e3ed06a	0.18634191
32	0x3de01953	0.1094233
33	0xbe2f6ee7	-0.1713215
34	0x3e107020	0.14105272
35	0xbe20493a	-0.15652934
36	0x3daefbe3	0.08544137
37	0x3e015d2d	0.126332
38	0xbc8ce94d	-0.01720109
39	0x3da47026	0.08029203
40	0xbd345882	-0.04402972
41	0xbc3a181f	-0.01135829
42	0xbcb6d02f	-0.022316067
43	0x3da97108	0.08273512
44	0xbdfab4de	-0.12241529
45	0x3e0c710d	0.13715
46	0xbe314c98	-0.17314374
47	0xbd760777	-0.060065713
48	0xbe462359	-0.19349422
49	0x3d769bf3	0.06020732
50	0xbd340401	-0.04394913
51	0xbe1efbed	-0.1552579
52	0x3e1d27fa	0.15347281
53	0xbe1b503e	-0.15167329
54	0xbdbf7b68	-0.0934971
55	0x3e4469fd	0.19181056
56	0xbe2b996c	-0.16757745
57	0x3cc6b3ea	0.024255712
58	0x3de7b597	0.113139324
59	0x3a65cd42	0.00087662425
60	0xbdf57b38	-0.11986393
61	0x3e02c579	0.12770642
62	0x3dec9893	0.11552539
63	0xbbb321ce	-0.0054666763
64	0x3e215d40	0.15758228
65	0xbe89a22d	-0.26881543
66	0xbe10dcff	-0.14146803
67	0xbde7d81f	-0.11320519
68	0xbd8a2130	-0.06744611
69	0xbc612859	-0.01374253
70	0xbdabbac5	-0.08385233
71	0xbe3c8ac6	-0.18412313
72	0x3be91980	0.0071136355
73	0x3e21b0b5	0.15790065
74	0xbe498854	-0.19680911
75	0x3e95ad0d	0.2923359
76	0xbd8b12a1	-0.067906626
77	0xbe5ecdcc	-0.21758193
78	0xbe29634a	-0.16541782
79	0xbe70b0e7	-0.23504983
80	0x3c014ad5	0.0078913765
81	0x3d8412e4	0.064489156
82	0xbdd580d1	-0.104249604
83	0x3c727d61	0.0148004005
84	0xbcb3955a	-0.021921802
85	0xbe00477d	-0.1252727
86	0xbcb52691	-0.022113116
87	0xbe1eade8	-0.15496027
88	0x3e3884ef	0.1801946
89	0xbd8cd1d5	-0.0687596
90	0xbd2b520a	-0.041826285
91	0xbd5ec79e	-0.05438959
92	0xbdf7917c	-0.12088296
93	0xbe80db4e	-0.25167316
94	0xbe203a33	-0.15647201
95	0x3e143599	0.14473571
96	0x3d91db82	0.07121946
97	0x3e350d8f	0.17680953
98	0xbe83f207	-0.2577059
99	0xbe1cf56c	-0.15327996
100	0xbc867fc0	-0.016418338
101	0x3e693181	0.2277279
102	0xbd507b47	-0.050898816
103	0xbe69fa16	-0.22849306
104	0xbe8b6653	-0.27226505
105	0x3de296fa	0.11063953
106	0xbd839dcc	-0.06426582
107	0xbdc48f16	-0.09597604
108	0x3ceceb72	0.028920863
109	0x3df9eaca	0.122029856
110	0x3e2c53b0	0.16828799
111	0x3e3039e3	0.17209582
112	0xbd7dfd1a	-0.062008955
113	0x3e01c72b	0.12673633
114	0x3e4acc90	0.19804597
115	0x3e157c15	0.14598115
116	0xbca2b05f	-0.01985949
117	0x3d072073	0.03298993
118	0x3d291820	0.041282773
119	0x3e53122b	0.206124
120	0x3de03310	0.109472394
121	0x3d3f0339	0.046633933
122	0x3e280129	0.16406693
123	0xbde17a27	-0.11009627
124	0xbbd848fe	-0.006600498
125	0x3dfd6b27	0.12373953
126	0xbd869ea0	-0.06573224
127	0xbc5d1d1a	-0.013495708
128	0x3de53ede	0.111936316
129	0xbd81402a	-0.063110664
130	0xbe1ae90c	-0.15127963
131	0xbdc69f12	-0.09698309
132	0xbe21f203	-0.15814976
133	0xbcb9d580	-0.022684813
134	0x3e39a0e7	0.18127786
135	0x3cd1086b	0.02551671
136	0x3ca3e8e0	0.020008504
137	0x3e2d8682	0.16945842
138	0x3e179fe6	0.1480709
139	0x3e60bb0e	0.21946356
140	0x3d922d8e	0.07137595
141	0x3d558d29	0.052136574
142	0x3e58616e	0.21130916
143	0xbe33f3c3	-0.17573456
144	0xbe101f1e	-0.1407437
145	0x3df052d9	0.11734552
146	0x3e3908de	0.18069789
147	0x3e13538a	0.14387336
148	0x3dc6090f	0.096696965
149	0xbe3e747b	-0.18599121
150	0x3cb52d65	0.022116372
151	0xbe10106c	-0.14068764
152	0xbe07984e	-0.13241693
153	0xbd4dbb6a	-0.05022756
154	0xbc8dc99c	-0.017308049
155	0xbcef61c8	-0.02922143
156	0xbe0b1071	-0.1358049
157	0x3c7791ae	0.015110416
158	0xbbdc04ac	-0.006714424
159	0xbe330a0a	-0.17484298
160	0xbd8d1b0b	-0.06889924
161	0xbe42580d	-0.18978901
162	0x3d23e89d	0.04001676
163	0x3dbb7447	0.091530375
164	0x3e3d114e	0.18463632
165	0xbde2e508	-0.110788405
166	0xbdfa2566	-0.122141644
167	0xbe4a2c5a	-0.19743481
168	0x3df6dab8	0.12053436
169	0x3cd36e71	0.025809499
170	0xbdc052fe	-0.093908295
171	0xbcd1aa74	-0.025593974
172	0xbdd4133d	-0.10355232
173	0x3c684845	0.014177387
174	0x3e005b0d	0.12534733
175	0x3dbab434	0.09116402
176	0xbd9ee678	-0.07758802
177	0x3cc4c76a	0.02402087
178	0xbd87268e	-0.065991506
179	0xbe1acab1	-0.15116383
180	0xbe2a4cf0	-0.16630912
181	0xbd18e102	-0.03732396
182	0x3dccb625	0.09995679
183	0x3e17b402	0.14814761
184	0xbdad0f1a	-0.08450146
185	0xbdcc8b61	-0.09987522
186	0xbd91f33f	-0.07126474
187	0x3e01dfc1	0.12683012
188	0xbd364a4a	-0.04450444
189	0xbe3566c2	-0.1771498
190	0xbbdf2534	-0.006809855
191	0xbe244514	-0.16041976
192	0xbe24934e	-0.16071817
193	0x3bfa9a42	0.0076477835
194	0xbe250dd9	-0.16118564
195	0x3d804427	0.06262999
196	0xbdb2972f	-0.08720242
197	0x3a70f0c3	0.000919115
198	0xbe23682b	-0.15957706
199	0xbe7f74a6	-0.24946842
200	0x3d7c5d4a	0.061612405
201	0x3c139be4	0.009009335
202	0x3e12a998	0.14322507
203	0xbdd67187	-0.10470872
204	0x3dcd52d9	0.100255676
205	0xbde1a5a6	-0.11017923
206	0x3dd20988	0.10255724
207	0xbdaff7e7	-0.085922055
208	0x3e4549d5	0.19266446
209	0xbe215401	-0.15754701
210	0x3e18fe9b	0.14940874
211	0xbdd579ef	-0.104236476
212	0xbe2f7846	-0.17135724
213	0x3d116756	0.03549894
214	0xbe51ad4b	-0.20476262
215	0x3dd60118	0.10449427
216	0xbe3af66e	-0.18258068
217	0xbe1c8017	-0.15283237
218	0x3df657fb	0.120285
219	0x3e47dfd5	0.19518979
220	0xbdbceaa9	-0.092244454
221	0x3d95acf5	0.073083796
222	0x3e691a42	0.22763923
223	0xbd4eb150	-0.050462067
224	0xbd7ca446	-0.0616801
225	0x3c904e42	0.017615441
226	0x3e11ee34	0.14251024
227	0xbd84706d	-0.06466756
228	0x3da0c691	0.078503735
229	0x3c83959b	0.016062548
230	0x3e40d9a9	0.18833031
231	0xbe2ddd69	-0.16978993
232	0xbe106f17	-0.14104877
233	0xbd961dd0	-0.07329905
234	0xbdaaac9d	-0.083337046
235	0xbe2719b8	-0.16318405
236	0xbd1874b3	-0.037220668
237	0xbdf9ef2e	-0.12203823
238	0xbe18610b	-0.14880769
239	0x3e829f28	0.25512052
240	0xbaa16db9	-0.0012316025
241	0xbd99683a	-0.07490583
242	0x3d6aed71	0.057355348
243	0xbcab23d8	-0.020891115
244	0x3e674b71	0.22587372
245	0x3df9d768	0.121992886
246	0x3d1fd4bc	0.03902124
247	0xbe0dbbb9	-0.13841142
248	0x3ca2b69a	0.019862462
249	0x3d988fe6	0.074493214
250	0x3d020ccb	0.03175048
251	0xbdd2d343	-0.10294201
252	0xbe12b86e	-0.14328167
253	0xbcc72ae7	-0.02431245
254	0x3e4f9be6	0.20274314
255	0x3d8475f7	0.064678125

100 f4 [1, 512]
0	0xbb8992ac	-0.004198393
1	0x3db5b473	0.088723086
2	0x3cf5253d	0.029924983
3	0x3da16ad5	0.07881705
4	0x3d8432c6	0.06454997
5	0x3da9e7d7	0.08296173
6	0x3d84a638	0.06477016
7	0x3d82ef84	0.0639334
8	0x3c0e45df	0.008683651
9	0x3e130b09	0.14359678
10	0x3d29e29b	0.041475873
11	0x3db463b0	0.088080764
12	0x3daabd48	0.08336884
13	0x3db13200	0.08652115
14	0x3d66a763	0.056311976
15	0xbc01f8c2	-0.007932844
16	0x3da00412	0.07813276
17	0x3af073ca	0.0018345055
18	0x3e19b08f	0.15008758
19	0x3d7a0662	0.061041243
20	0xbc23d954	-0.0100005455
21	0x3c2df3d2	0.010617213
22	0x3dcd0fd5	0.10012785
23	0x3c321135	0.01086836
24	0x3d826c29	0.06368286
25	0x3db39192	0.08768
26	0xbb9106ad	-0.0044258446
27	0x3d823c80	0.06359196
28	0x3d1eb343	0.038745176
29	0x3dbcdd84	0.09221938
30	0x3d13ca2f	0.03608149
31	0x3d8ec9b5	0.06972066
32	0x3d93d1ab	0.07217725
33	0x3c2344f9	0.009965175
34	0x3df1e403	0.11811068
35	0x3cee49e5	0.02908797
36	0xbd13993e	-0.036034815
37	0x3dbed464	0.09317854
38	0x3db5adbb	0.08871027
39	0x3da5b536	0.08091204
40	0x3d35b350	0.04436046
41	0x3de20159	0.11035413
42	0x3d1dbb0f	0.03850847
43	0x3d200445	0.03906657
44	0xbb3fb74d	-0.0029253543
45	0x3dbb23a3	0.091376565
46	0x3d9e43f6	0.07727806
47	0x3d2af557	0.04173788
48	0x3db082bd	0.08618686
49	0x3d8ee354	0.06976953
50	0x3cc87174	0.024468161
51	0x3b8bc033	0.0042648553
52	0x3dd3281d	0.103103854
53	0x3da173f7	0.07883447
54	0xbbbf3b1f	-0.005835905
55	0x3ccbbc59	0.024870085
56	0x3e0b50b5	0.13605006
57	0x3c87ec21	0.016592087
58	0x3d2ed817	0.042686548
59	0xbb7f6f15	-0.0038976122
60	0x3d2cf7f2	0.042228647
61	0x3d01a3da	0.0316504
62	0x3dca90a1	0.09890867
63	0x3d901340	0.07034922
64	0x3db46e57	0.08810108
65	0x3cf91b37	0.030408485
66	0x3d7defb0	0.061996162
67	0x3b3b2d42	0.0028560911
68	0x3d26b2ee	0.040697984
69	0x3d820221	0.06348062
70	0x3ba20d04	0.0049453992
71	0x3cc52194	0.024063863
72	0xbc8ea16b	-0.017410954
73	0x3d6730c8	0.056443006
74	0x3d7a2379	0.061068986
75	0x3c764398	0.015030764
76	0x3d8f0e36	0.069851324
77	0x3d3445df	0.044011947
78	0xbc89a857	-0.016803904
79	0xbc8858e8	-0.016643956
80	0x3cac1273	0.021004891
81	0xbcb96583	-0.022631412
82	0x3df798e7	0.12089711
83	0x3d672e0f	0.05644041
84	0x3c94e67e	0.018176313
85	0x3da8771c	0.08225843
86	0x3dbe6752	0.092970505
87	0x3da97aaa	0.082753494
88	0x3d7b0ad9	0.061289642
89	0x3c517418	0.012784027
90	0x3d919f55	0.07110468
91	0x3cba3be3	0.022733634
92	0x3cf0ed54	0.029410042
93	0x3d29a0b8	0.04141304
94	0x3d376760	0.04477632
95	0x3c03932e	0.008030696
96	0x3b639c04	0.0034730444
97	0x3c73f9bf	0.014891087
98	0x3d6f23db	0.058383804
99	0x3c835d59	0.016035723
100	0xbd10b3a1	-0.035327557
101	0x3d018800	0.03162384
102	0x3c361709	0.01111389
103	0x3de5b430	0.11216009
104	0x3d44ba6e	0.048029356
105	0x3d23bcd2	0.039974995
106	0x3cad1425	0.02112777
107	0x3cde88c2	0.02716482
108	0xbc2f8a97	-0.010714195
109	0x3b8172ee	0.0039504683
110	0x3d70a263	0.058748614
111	0x3c64930e	0.013951076
112	0x3c52732a	0.01284484
113	0x3cc33c2c	0.023832403
114	0x3d21a775	0.03946634
115	0x3de53ed7	0.111936264
116	0x3cf33bfc	0.029691689
117	0x3cf422b8	0.029801711
118	0x3dbd7329	0.09250481
119	0x3d592f4a	0.053023614
120	0x3e0aa9cf	0.1354134
121	0x3d47bfb9	0.048766825
122	0x3d0588a9	0.032601032
123	0xbc947c32	-0.018125627
124	0xbb0bb52a	-0.00213177
125	0x3dc76c86	0.09737496
126	0x3ceb7a2f	0.028744785
127	0x3da1f02b	0.079071365
128	0x3f80a6bd	1.0050884
129	0x3f86b6ce	1.0524538
130	0x3f807d90	1.0038319
131	0x3f846dfa	1.0346062
132	0x3f82b2ea	1.021085
133	0x3f7aca07	0.9796452
134	0x3f82448e	1.0177171
135	0x3f83d073	1.0297989
136	0x3f7be3cf	0.98394483
137	0x3f81419a	1.0098145
138	0x3f7d438d	0.989312
139	0x3f865644	1.0495076
140	0x3f79d3a4	0.9758856
141	0x3f85f268	1.0464602
142	0x3f838a8f	1.027666
143	0x3f8229d3	1.0169014
144	0x3f82f304	1.0230412
145	0x3f7c7ae4	0.98625016
146	0x3f80734d	1.0035187
147	0x3f803925	1.0017439
148	0x3f77c37d	0.96782666
149	0x3f8013c8	1.0006037
150	0x3f826a22	1.0188639
151	0x3f814a20	1.0100746
152	0x3f7c829a	0.9863678
153	0x3f85cc7f	1.0453032
154	0x3f8022d7	1.0010632
155	0x3f849916	1.0359218
156	0x3f80420b	1.0020155
157	0x3f879d9e	1.0594976
158	0x3f7fe6af	0.9996137
159	0x3f8642b6	1.0489109
160	0x3f824574	1.0177445
161	0x3f7ae7ea	0.9801012
162	0x3f88644c	1.0655608
163	0x3f82ec77	1.0228413
164	0x3f742ebe	0.9538382
165	0x3f861983	1.0476536
166	0x3f88b53f	1.0680312
167	0x3f82addb	1.0209306
168	0x3f7e01a4	0.99221253
169	0x3f7b3550	0.98128223
170	0x3f846f43	1.0346454
171	0x3f7b3080	0.9812088
172	0x3f828520	1.0196877
173	0x3f860b37	1.0472172
174	0x3f80265a	1.0011704
175	0x3f840343	1.0313495
176	0x3f86cf6c	1.053205
177	0x3f83c278	1.0293722
178	0x3f81dfcb	1.0146421
179	0x3f805b8e	1.002794
180	0x3f882756	1.0637004
181	0x3f82b1fa	1.0210564
182	0x3f7fdfb4	0.9995072
183	0x3f78c9ff	0.9718322
184	0x3f7e0760	0.99230003
185	0x3f79afd0	0.97533894
186	0x3f85d5c7	1.0455865
187	0x3f8135ed	1.0094582
188	0x3f8375fb	1.027038
189	0x3f7e0601	0.9922791
190	0x3f86b3ff	1.052368
191	0x3f7a3a60	0.97745323
192	0xbcee5ed6	-0.029097956
193	0xbd95e187	-0.073184066
194	0x3d11df92	0.035613604
195	0xbd7d15a0	-0.0617882
196	0xbd3d4487	-0.04620793
197	0xbce1591e	-0.027508315
198	0x3d598efc	0.053114876
199	0xbd67ef16	-0.056624494
200	0xbd146e30	-0.036237895
201	0x3cdb9391	0.026803764
202	0x3a09e7a7	0.0005260654
203	0x3d730a53	0.059336018
204	0x3c07cbcb	0.008288334
205	0xbd8ee72b	-0.069776855
206	0x3d554f5f	0.052077647
207	0xbc13cd7d	-0.00902116
208	0x3d7fad57	0.06242117
209	0x3c249eac	0.010047596
210	0xbd1c7487	-0.038197067
211	0xbd1374ee	-0.036000185
212	0xbc0d20d2	-0.008613782
213	0x3caa84ac	0.020815216
214	0xbd3cdb1a	-0.04610739
215	0x3d43857c	0.047734722
216	0xbd00018d	-0.03125148
217	0xbd8653ac	-0.06558928
218	0xbd2d56e9	-0.042319212
219	0x3d5ecff2	0.05439753
220	0xbc8eafd9	-0.017417835
221	0xbd5945df	-0.05304515
222	0x3d3c8204	0.04602243
223	0xbd7302b1	-0.05932874
224	0xbd68bdb3	-0.056821536
225	0xbcc51524	-0.024057932
226	0xbda8c5ed	-0.08240876
227	0xbce2de8d	-0.027694011
228	0xbcd72eab	-0.02626737
229	0x3d907902	0.070543304
230	0x3d9b0532	0.0756935
231	0xbc665b8d	-0.014059913
232	0xbcb6eadb	-0.022328785
233	0xbd1b1d54	-0.037869766
234	0x3d08f908	0.03344062
235	0x3d54cc95	0.051952917
236	0xbc27667c	-0.010217305
237	0xbd5c54e7	-0.053791907
238	0x3cd90452	0.026491318
239	0x3c0e0c3e	0.008669911
240	0x3da08fb3	0.078399085
241	0xbd469e79	-0.048490975
242	0x3d2255be	0.03963255
243	0x3d398c32	0.045299716
244	0x3dbca7ef	0.09211718
245	0xbd6d66b9	-0.057959292
246	0xbcb4f23e	-0.022088166
247	0x3b07e475	0.0020735536
248	0x3c932e4d	0.017966414
249	0x3d2992d9	0.04139981
250	0x3cb77598	0.02239494
251	0x3b1f533c	0.0024311086
252	0xbcccadaf	-0.024985163
253	0xbd051227	-0.032488015
254	0x3d859f98	0.06524581
255	0xbcf77802	-0.030208591
