results/Test3/Jumper/Jumper-293811.pt (torch, 927964 bytes, 57 tensors)

network_body._body_endoder.seq_layers.0.weight f4 [64, 3]
0	0xbf246814	-0.6422131
1	0x3f1b1c5a	0.60590136
2	0x3e85ebe6	0.2615654
3	0x3f444f0b	0.7668311
4	0x3f3fa053	0.7485401
5	0x3f00e22c	0.5034511
6	0x3d99b8b3	0.07505932
7	0xbdbaf155	-0.09128062
8	0xbed23097	-0.41052696
9	0x3e9a8e55	0.30186716
10	0x3e644d96	0.22295222
11	0x3f6682c2	0.9004327
12	0xbde346b2	-0.110974684
13	0xbf2cf1d3	-0.67556494
14	0x3dd82a99	0.10555
15	0xbede22e5	-0.43385997
16	0xbe8013c0	-0.25015068
17	0xbd4c34de	-0.049855106
18	0x3c0205d6	0.007935962
19	0x3f060191	0.5234614
20	0x3d8269dc	0.06367847
21	0x3ef3c491	0.47610906
22	0xbe290c9c	-0.16508716
23	0x3f119516	0.5686811
24	0xbf9210d9	-1.1411391
25	0x3eb5fb58	0.35543323
26	0x3d908d0b	0.07058152
27	0x3d8a0608	0.067394316
28	0x3e61e700	0.22060776
29	0x3e83bdc5	0.2573072
30	0x3eae80f8	0.3408277
31	0xbf353643	-0.7078592
32	0xbf174344	-0.59087014
33	0x3dc3d8de	0.095628485
34	0x3d56ea08	0.052469283
35	0x3e2765f0	0.1634748
36	0x3ee8db1a	0.4547966
37	0xbe71617a	-0.2357234
38	0xbfbf7ab9	-1.4959327
39	0x3d3934e3	0.045216452
40	0x3e8b3b71	0.27193788
41	0xbe8beced	-0.27329198
42	0xbded41bd	-0.11584804
43	0xbea61c19	-0.32443312
44	0xbe9e2ac5	-0.30892006
45	0x3f086dea	0.53292716
46	0x3ddbde21	0.10735727
47	0x3f49b603	0.7879335
48	0x3f13627e	0.5757216
49	0x3f75e9c8	0.96059847
50	0xbdf4a311	-0.11945165
51	0x3eaf3496	0.34219807
52	0x3f81cf4f	1.014139
53	0x3f374522	0.71589863
54	0xbf821531	-1.0162717
55	0x3f74c862	0.9561826
56	0x3b4fb707	0.0031694786
57	0x3ef86f8e	0.4852261
58	0xbf263ee4	-0.64939713
59	0x3e9d28db	0.30695233
60	0x3ef9c04a	0.48779517
61	0x3f00e978	0.50356245
62	0x3dd0ac7d	0.101891495
63	0x3cb5a209	0.022171991
64	0xbf546944	-0.8297312
65	0x3e9aff0e	0.30272716
66	0x3f4323ae	0.7622632
67	0x3eef78b5	0.4677178
68	0x3edf7cb9	0.43649843
69	0x3dfc78e1	0.12327743
70	0xbd9410d2	-0.07229771
71	0xbf536b80	-0.82585907
72	0xbebf0c11	-0.37313893
73	0xbe92d80d	-0.2868046
74	0x3f297961	0.66200835
75	0x3e82c646	0.25541896
76	0x3e4276e8	0.18990672
77	0x3f8f1ad8	1.1180067
78	0xbee00d70	-0.43760252
79	0xbf072d3d	-0.52803403
80	0xbf601501	-0.8753205
81	0x3e6b7667	0.22994386
82	0xbf40070e	-0.75010765
83	0xbe0bdfb0	-0.13659549
84	0xbb9b0e9b	-0.0047319657
85	0x3dcfd61d	0.10148261
86	0xbf632205	-0.88723785
87	0xbe039e36	-0.12853321
88	0xbf4bc063	-0.79590434
89	0x3f9255b5	1.1432406
90	0xbf41ac3f	-0.7565345
91	0x3f5c55b8	0.86068296
92	0x3f17a51f	0.5923633
93	0x3ec14daa	0.37754565
94	0x3d019690	0.03163773
95	0xbea298aa	-0.31757098
96	0x3f3538b5	0.70789653
97	0xbf0b391f	-0.54384035
98	0x3e881f5e	0.2658643
99	0xbf3d8746	-0.74034536
100	0x3e0b4c75	0.13603385
101	0xbeb3b848	-0.35101533
102	0x3ee2f139	0.44324663
103	0xbeb57446	-0.35440272
104	0xbf65ba89	-0.89737755
105	0xbf3fbd61	-0.74898344
106	0x3f252db6	0.64522874
107	0xbf2ccebb	-0.67502946
108	0xbf6d0c46	-0.9259685
109	0x3ed87546	0.42276973
110	0xbfb0370c	-1.3766799
111	0x3e967e4f	0.2939324
112	0xbf6be785	-0.92150146
113	0xbd993e57	-0.074825935
114	0xbef7dbe3	-0.48409948
115	0xbfbb432c	-1.4629874
116	0x3bf287bd	0.007401435
117	0xbf1fe047	-0.62451595
118	0xbdf0508e	-0.117341146
119	0x3f59b6a9	0.8504434
120	0x3f98113b	1.1880258
121	0xbd4e6401	-0.05038834
122	0xbdddb6e2	-0.10825898
123	0xbf0c15a7	-0.5472054
124	0xbd33cabb	-0.04389451
125	0x3e2b8c6a	0.16752782
126	0xbe19a230	-0.15003276
127	0xbf891b69	-1.071149
128	0xbebeb519	-0.37247542
129	0xbf7e8c63	-0.99432963
130	0x3ecf0c30	0.40438986
131	0xbe1e18d6	-0.15439162
132	0x3e19fae8	0.1503712
133	0x3e747323	0.23872046
134	0xbf43183a	-0.7620884
135	0xbf6683e6	-0.9004501
136	0x3e89bc75	0.26901594
137	0xbeb41aa4	-0.35176575
138	0xbf07abdc	-0.5299661
139	0xbd3d4f27	-0.046218064
140	0xbc281792	-0.010259526
141	0xbf1d2df1	-0.61398226
142	0xbdd105ea	-0.10206206
143	0x3eb86d14	0.3602072
144	0x3e0bc4fa	0.1364936
145	0x3c9d937f	0.01923537
146	0xbd5728b1	-0.05252904
147	0x3e8a963e	0.2706775
148	0x3f37d20c	0.7180488
149	0x3f89931a	1.0748017
150	0x3f957ab0	1.1678066
151	0x3e9721b1	0.29517892
152	0xbdf575ea	-0.11985381
153	0xbf3326bc	-0.6998098
154	0x3e66bc13	0.22532682
155	0x3fa14d75	1.2601763
156	0xbedcbb21	-0.43111518
157	0x3fa3e15e	1.2803152
158	0x3dc7e32d	0.09760127
159	0xbd4c1a80	-0.04982996
160	0xbe260f1a	-0.16216698
161	0x3ea690ed	0.32532445
162	0xbf9f0355	-1.2422892
163	0x3ea6143f	0.32437322
164	0x3e81faf9	0.2538679
165	0xbd7cd1f2	-0.061723657
166	0x3ea400be	0.32031816
167	0xbf20d9a1	-0.62832075
168	0xbd92b94b	-0.07164248
169	0x3f1598fa	0.5843655
170	0x3e88ad9d	0.26694956
171	0x3f3d8735	0.74034435
172	0x3e2fd28a	0.17170158
173	0xbeccceef	-0.40001628
174	0x3f0f3b96	0.55950296
175	0x3ef74804	0.4829713
176	0xbdf1014f	-0.11767828
177	0x3e542112	0.2071574
178	0xbf125836	-0.5716585
179	0xbf097497	-0.53693527
180	0xbed47fac	-0.41503656
181	0x3e9582e9	0.2920144
182	0xbd805253	-0.06265702
183	0x3ea9b9df	0.3314962
184	0xbf7f3d5a	-0.9970299
185	0x3ddae736	0.10688631
186	0x3f64a637	0.89316124
187	0xbe6f2a34	-0.23355943
188	0xbe8c4ce7	-0.27402422
189	0xbee2af5a	-0.44274408
190	0x3e8d886b	0.2764314
191	0x3e966863	0.29376516

network_body._body_endoder.seq_layers.0.bias f4 [64]
0	0x3d4dd630	0.050253093
1	0x3d22c781	0.039741043
2	0x3d21bc7a	0.039486386
3	0x3d0ab520	0.03386414
4	0xbc1eb9dd	-0.009687868
5	0x3c179ed3	0.009254175
6	0x3d03b99c	0.032159433
7	0xbaa6cb3f	-0.0012725367
8	0x3c628754	0.01382621
9	0xbcecad3e	-0.028891202
10	0x3cb0a912	0.021564994
11	0x3c1ff2b6	0.009762457
12	0x3da381e7	0.07983761
13	0x3c825a8d	0.015912319
14	0x3c285ce6	0.010276055
15	0xbbb9ec69	-0.0056739342
16	0x3d1e1fcc	0.038604543
17	0x3cb4e585	0.0220821
18	0x3d688815	0.056770403
19	0x3c327192	0.010891335
20	0xbc0ab48d	-0.008465898
21	0x3b46c9e7	0.0030332746
22	0x3c374a57	0.011187158
23	0x3cd2b591	0.025721343
24	0x3d174218	0.036928266
25	0x3c98a113	0.018631494
26	0xbd0a61d9	-0.03378472
27	0xbc9f65bd	-0.019457692
28	0xb9bc7996	-0.00035948743
29	0x3cdadf89	0.026717918
30	0x3d3e690a	0.04648689
31	0x3c23431c	0.009964731
32	0xbc445aa3	-0.0119845
33	0xbcf54d51	-0.029944094
34	0x3d71ce2d	0.059034515
35	0x3c29b69d	0.01035848
36	0xbcb878a0	-0.022518456
37	0x3c55cca1	0.013049276
38	0x3d1089bc	0.035287604
39	0x3d3d8b06	0.04627516
40	0xbc4b06e4	-0.01239178
41	0xbad08e37	-0.0015911524
42	0x3c55540c	0.013020527
43	0x3d5f74a4	0.054554597
44	0xbc99e7a1	-0.018787207
45	0x3cd8e4b3	0.02647624
46	0x3c95bf61	0.018279733
47	0x3d058f04	0.032607093
48	0x3c14532a	0.009053031
49	0x3d181855	0.03713258
50	0x3d05b621	0.032644395
51	0x3d4b4990	0.0496307
52	0x3c8f8017	0.017517133
53	0xbaeecc7d	-0.0018218901
54	0x3c82a116	0.015945952
55	0xbc6632ac	-0.014050167
56	0x3d02233a	0.031771876
57	0x3ce0d331	0.027444454
58	0x3b860381	0.004089773
59	0x3c7a26ad	0.01526801
60	0x3c1288a2	0.008943709
61	0x3d17cb24	0.037058964
62	0x3c0cf7b6	0.008603981
63	0x3c460d26	0.012088096

network_body._body_endoder.seq_layers.2.weight f4 [64, 64]
0	0x3d1d8ea0	0.038466096
1	0x3e82575a	0.2545727
2	0x3d3597ed	0.04433434
3	0xbd252580	-0.040318966
4	0xbdada621	-0.08478952
5	0x3d7f41c6	0.062318586
6	0xbe2db520	-0.16963625
7	0xbd633de0	-0.05547893
8	0x3dfdebd4	0.12398496
9	0x3d0e97ee	0.03481286
10	0xbe13e15d	-0.14441438
11	0xbcf43190	-0.02980879
12	0xbd7bf3ed	-0.061511923
13	0xbdc0b888	-0.094101965
14	0xbe0f5f56	-0.14001212
15	0xbdc38293	-0.095463894
16	0x3e92ee3a	0.28697377
17	0x3e16cd96	0.14726862
18	0xbc8fd144	-0.01755584
19	0xbe532859	-0.2062086
20	0xbc0da944	-0.008646313
21	0xbc4f4765	-0.012651299
22	0x3d71631a	0.0589324
23	0xbca1df9e	-0.01975995
24	0x3b266920	0.002539225
25	0xbce0109c	-0.02735167
26	0xbd7f31f1	-0.062303487
27	0xbda83363	-0.08212926
28	0xbdab1984	-0.08354476
29	0x3d263fc3	0.04058815
30	0x3e588b71	0.21146943
31	0xbdaa20d5	-0.083070435
32	0xbe04dd73	-0.12975101
33	0x3db0e79c	0.08637926
34	0xbd5c5872	-0.053795286
35	0x3e1d44f1	0.1535833
36	0x3cc34799	0.023837851
37	0xbd440944	-0.0478604
38	0xbd5954de	-0.05305945
39	0x3e9dc19b	0.30811772
40	0xbdbdda2d	-0.09270129
41	0x3d592d89	0.05302194
42	0x3d7dcdbe	0.06196379
43	0xbd9a8662	-0.07545163
44	0x3dc00218	0.09375399
45	0x3cfba3ef	0.030717818
46	0x3c89479f	0.016757784
47	0x3e70b01f	0.23504685
48	0xbd936b99	-0.07198257
49	0xbdbc3877	-0.09190457
50	0xbdbe4e78	-0.092923105
51	0x3ec04741	0.37554362
52	0xbd40f7f1	-0.047111455
53	0xbde51573	-0.11185732
54	0x3e357ec7	0.17724143
55	0xbcce884d	-0.025211478
56	0x3df452df	0.11929869
57	0x3dbd47a4	0.0924218
58	0xbc0c8ade	-0.00857803
59	0xbcb5ba75	-0.022183636
60	0xbd2bc3c1	-0.041934732
61	0xbcc313d8	-0.023813173
62	0xbdc0c6f0	-0.09412944
63	0x3dfa7db9	0.12231011
64	0x3cd4cb8c	0.025975965
65	0xbe0fe678	-0.1405276
66	0xbd455542	-0.04817701
67	0xbe48e9dd	-0.19620462
68	0x3d1618f4	0.03664489
69	0x3e191137	0.14947973
70	0xbe705822	-0.2347112
71	0xbdb517aa	-0.08842404
72	0x3e6ed296	0.2332252
73	0xbdd373d7	-0.10324829
74	0xbd89cc2c	-0.06728396
75	0x3d6d60ea	0.057953753
76	0xbce90075	-0.0284426
77	0xbddc2a87	-0.10750299
78	0xbddc993f	-0.10771417
79	0x3d5d5111	0.05403239
80	0x3da6da23	0.08147075
81	0xbddef828	-0.10887176
82	0x3d807078	0.06271452
83	0xbd545740	-0.05184102
84	0xbe46e622	-0.19423726
85	0x3ecb61c9	0.39723042
86	0xbdee9eef	-0.11651408
87	0xbe25d17b	-0.16193192
88	0xbc846b8c	-0.016164564
89	0xbe1c9943	-0.1529284
90	0xbd9da0e6	-0.076967046
91	0x3e7bb062	0.24579003
92	0x3df6b793	0.12046733
93	0xbe06c2e0	-0.13160276
94	0xbe32988b	-0.17441003
95	0xbdbd5534	-0.09244767
96	0x3d19b9be	0.037530653
97	0x3eca17a0	0.3947115
98	0xbe20f506	-0.15718469
99	0x3e91c864	0.28473198
100	0x3e07a349	0.13245882
101	0xbd530b32	-0.05152435
102	0x3d796260	0.060884833
103	0xbd8958f6	-0.06706421
104	0xbd3510aa	-0.044205345
105	0x3e74fa92	0.2392371
106	0x3e1b99dd	0.15195413
107	0xbd4a6d9f	-0.04942095
108	0x3d6a66f2	0.057227083
109	0xbd0a4d6f	-0.033765253
110	0xbd2a2bce	-0.04154568
111	0xbc2caded	-0.010539514
112	0x3e80b917	0.25141212
113	0x3d98aee1	0.074552305
114	0xbbfa3e42	-0.0076368162
115	0xbd65aaab	-0.056070965
116	0xbc032a1c	-0.008005645
117	0xbd770df2	-0.060316034
118	0x3e931574	0.28727305
119	0x3d017885	0.031609077
120	0xbdf6795f	-0.120348684
121	0xbd85bb49	-0.065298624
122	0xbe72871c	-0.23684353
123	0xbdadc88f	-0.08485519
124	0xbdc7ff38	-0.09765476
125	0xbe1e8679	-0.15480985
126	0x3e122b80	0.14274406
127	0x3e47fce8	0.1953007
128	0xbd55ac4e	-0.052166276
129	0x3c313c61	0.010817618
130	0x3c645486	0.013936168
131	0xbc3495f0	-0.011022076
132	0xbdc77234	-0.097385794
133	0x3e6577d9	0.22409
134	0x3e52e666	0.20595703
135	0x3db832fe	0.08994101
136	0x3e50ec0f	0.20402549
137	0xbe4cef26	-0.20013103
138	0xbe457c09	-0.19285597
139	0x3cc02147	0.023453368
140	0xbd50e1b0	-0.050996482
141	0xbe024464	-0.12721401
142	0xbd340500	-0.04395008
143	0x3c408143	0.011749568
144	0xbc8550de	-0.016273912
145	0x3cd3970b	0.025828859
146	0x3e6b0b48	0.22953522
147	0xbd39f560	-0.045400023
148	0x3c8ccc84	0.017187364
149	0x3cd6c846	0.026218545
150	0x3e718add	0.23588128
151	0xbd8d086d	-0.06886373
152	0x3e118a7f	0.14212988
153	0xbc901b47	-0.017591132
154	0xbd54bd81	-0.051938538
155	0xbe68fc54	-0.22752506
156	0x3e0e67c9	0.13906778
157	0x3cfa93b6	0.030588012
158	0x3dd9c75a	0.106337264
159	0xbd8cdc84	-0.068779975
160	0x3e04fd70	0.12987304
161	0xbdb71fb7	-0.08941596
162	0xbe6de255	-0.2323087
163	0x3e211d0b	0.15733735
164	0xbd81a932	-0.063310996
165	0x3d677ca3	0.056515347
166	0x3db1516c	0.08658108
167	0x3ee0680c	0.4382938
168	0x3d3d7140	0.04625058
169	0x3e2b5a4a	0.16733661
170	0xbe86bcf4	-0.26316035
171	0x3e3dccf0	0.18535209
172	0xbdf62bde	-0.12020086
173	0xbdd5931a	-0.10428448
174	0x3cec7a31	0.02886686
175	0x3dcdab35	0.10042421
176	0xbe500e4c	-0.20317954
177	0xbd553743	-0.052054655
178	0x3b07ac76	0.002070216
179	0x3d32ca69	0.043650065
180	0x3e408369	0.18800129
181	0xbb3df46f	-0.0028984805
182	0x3d3e8a26	0.046518467
183	0x3de1e693	0.11030307
184	0x3e4afda7	0.19823323
185	0xbde48163	-0.11157491
186	0xbe128307	-0.14307795
187	0xbd97e03f	-0.074158184
188	0x3dd5e817	0.10444658
189	0x3da19ba6	0.07891016
190	0x3cbde0a8	0.023178414
191	0x3e4e43ca	0.20143047
192	0xbcc793e9	-0.024362521
193	0x3d6467fe	0.055763237
194	0xbd242cf5	-0.040081937
195	0x3ce5a32e	0.028031912
196	0x3d408652	0.047003098
197	0xbd85be2d	-0.06530414
198	0xbdcf2c97	-0.10115927
199	0x3da75a13	0.08171477
200	0xbe87ddd7	-0.26536438
201	0x3e14270b	0.14468019
202	0x3d3bc522	0.045842297
203	0x3c12a208	0.008949764
204	0x3d626219	0.055269334
205	0x3da1414c	0.078737825
206	0xbd66d10a	-0.0563517
207	0xbd7495a4	-0.05971302
208	0xbe1fa733	-0.15591125
209	0xbe046af5	-0.12931426
210	0xbdc3062b	-0.09522661
211	0x3dddf066	0.10836868
212	0x3b0f444b	0.0021860774
213	0x3e754ed7	0.23955856
214	0xbb0d2596	-0.0021537296
215	0xbd839717	-0.064253025
216	0xbd1b61b7	-0.037934985
217	0x3d6917b3	0.056907367
218	0x3c0e03d7	0.008667908
219	0x3cd7e688	0.026355043
220	0xbdb7f25c	-0.08981773
221	0xbd602013	-0.05471809
222	0xbe23858f	-0.15968917
223	0xbe8dac6a	-0.27670604
224	0x3d49b19b	0.049241643
225	0x3d9c476b	0.076308094
226	0x3d505cbd	0.050869692
227	0x3db7fdb2	0.089839354
228	0xbe02a8d1	-0.12759711
229	0xbda2cf33	-0.07949676
230	0xbe183622	-0.148644
231	0xbe0c28fc	-0.1368751
232	0xbdd80be4	-0.10549143
233	0x3e0cfc9b	0.13768236
234	0xbbbbf78e	-0.005736298
235	0xbdb75033	-0.08950844
236	0x3d671ef7	0.056426015
237	0x3e09b708	0.13448727
238	0xbe5c99fc	-0.21543115
239	0x3d865558	0.06559247
240	0x3dfed443	0.124428295
241	0xbe257dd9	-0.16161288
242	0x3e7791dd	0.24176736
243	0x3db3a314	0.08771339
244	0xbe8d7dad	-0.27634946
245	0x3deb2a11	0.11482633
246	0xbc93c135	-0.018036464
247	0x3d94b5af	0.07261216
248	0xbd0ba0db	-0.03408895
249	0xbd53a0ee	-0.051667146
250	0x3ea98045	0.33105674
251	0x3e124277	0.14283167
252	0x3d8add16	0.0678045
253	0xbd9964e9	-0.0748995
254	0x3e214a3c	0.15750974
255	0xbd943b40	-0.072378635

network_body._body_endoder.seq_layers.2.bias f4 [64]
0	0x3c0c8fa5	0.008579169
1	0xbd319d61	-0.04336298
2	0x3bc1f6f5	0.005919332
3	0xbb27dcc1	-0.0025613757
4	0x3c367ac2	0.011137666
5	0xbc8bb486	-0.017053854
6	0x3c0eac9d	0.008708146
7	0x3c551aca	0.013006875
8	0xbad6c0e6	-0.0016384393
9	0x3cb3adb9	0.021933423
10	0xbc77b558	-0.015118919
11	0x3cc3031c	0.023805194
12	0x3c6bc75d	0.014390794
13	0xbc24d38a	-0.0100602005
14	0xbc3227ce	-0.010873748
15	0xbbc8d41b	-0.0061288006
16	0x3d1f5b0e	0.038905196
17	0x3d0d5ad7	0.03451046
18	0x3c5c7a14	0.01345684
19	0x3c2f8bcb	0.010714482
20	0x3c7036e3	0.0146615235
21	0x3bc5fe18	0.006042253
22	0x3d0c3c59	0.03423724
23	0xbb93ed30	-0.004514359
24	0xbc189bbf	-0.0093144765
25	0xbc21d838	-0.009878211
26	0x3b78b24c	0.003794807
27	0x3cce4dc1	0.02518356
28	0xbc5d73b2	-0.013516353
29	0x3d2a37ba	0.04155705
30	0xbb592920	-0.0033136085
31	0x3bf48545	0.007462176
32	0x3d298496	0.04138621
33	0xbca1b584	-0.019739874
34	0xba966c49	-0.0011476363
35	0x3c62fdc6	0.01385445
36	0x3d012ac3	0.03153492
37	0x3c54aa27	0.012980021
38	0x3cd817b4	0.02637849
39	0x3c2d472d	0.010576052
40	0x3c9f9693	0.01948098
41	0x3ba70d5c	0.005098028
42	0x3ca68dd6	0.020331305
43	0xbc30eba4	-0.010798369
44	0x3c5b3307	0.013378865
45	0x3bed343d	0.0072388933
46	0x3b70fb4a	0.0036770874
47	0x3bc58cca	0.0060287463
48	0x3bf07e43	0.0073392703
49	0x3bd0b0eb	0.0063687465
50	0xbc0b7a6c	-0.008513074
51	0xbcda56fe	-0.02665281
52	0xbbbc6588	-0.005749408
53	0x3b55e751	0.0032639096
54	0x3cd01575	0.025400857
55	0xbd1da841	-0.038490538
56	0x3ce6c357	0.028169317
57	0x3d3de798	0.046363443
58	0x3d0b98f3	0.03408141
59	0x3c3e5d2f	0.011618896
60	0x3bf21cb4	0.0073886756
61	0x3b2754ad	0.0025532648
62	0xbc37d900	-0.01122117
63	0xbc40fcfc	-0.011779066

network_body.lstm.lstm.weight_ih_l0 f4 [256, 64]
0	0xbe0be079	-0.13659848
1	0x3dd01241	0.10159732
2	0x3e9c2446	0.30496424
3	0xbd6b933e	-0.057513468
4	0xbe8711ae	-0.26380676
5	0x3db8f955	0.09031931
6	0x3cb0bf4f	0.021575598
7	0x3e4b76ff	0.19869612
8	0xbe3a49fe	-0.18192288
9	0x3e51d3fd	0.20491023
10	0x3e4bc3c5	0.19898899
11	0xbe650397	-0.2236465
12	0xbe4ca891	-0.19986178
13	0xbe20b499	-0.15693893
14	0x3daab16b	0.08334621
15	0xbe03ce72	-0.12871721
16	0xbe00f06b	-0.12591712
17	0xbe20114e	-0.15631601
18	0x3e864e5e	0.26231664
19	0x3be16bee	0.0068793213
20	0x3c96403e	0.01834118
21	0x3e2fbe1c	0.17162365
22	0x3e971afc	0.29512775
23	0xbea2dfc4	-0.31811345
24	0x3e39f302	0.18159106
25	0xbdae8783	-0.085219406
26	0xbda71059	-0.08157415
27	0x3d9aa171	0.07550324
28	0xbe844080	-0.2583046
29	0xbda5b204	-0.080905944
30	0xbd072b9b	-0.03300057
31	0xbdd9c117	-0.10632532
32	0xbc8c6b67	-0.017141057
33	0xbd0a94d4	-0.03383334
34	0x3e32ffe0	0.17480421
35	0xbddbf254	-0.1073958
36	0x3e624e6e	0.22100231
37	0x3e4420dd	0.19153161
38	0x3e91f927	0.285104
39	0x3e507191	0.20355822
40	0x3d69711a	0.056992628
41	0x3da61d32	0.08111037
42	0xbdb65443	-0.089027904
43	0x3dda4b12	0.1065885
44	0xbe6f06f2	-0.23342493
45	0xbe87e46d	-0.26541463
46	0xbd4678a5	-0.0484549
47	0xbe9fa1b3	-0.31178054
48	0xbe3b46a2	-0.18288663
49	0xbe3c47ee	-0.18386814
50	0xbd6bd765	-0.057578463
51	0x3e0f4dda	0.13994542
52	0xbe60afe2	-0.21942094
53	0xbe09a944	-0.13443476
54	0x3d6f984e	0.05849486
55	0xbe2275cc	-0.15865248
56	0xbe70ae10	-0.235039
57	0xbd751f21	-0.05984414
58	0x3cbcdf90	0.023055822
59	0x38c398e6	9.326804e-05
60	0xbd8b7ea9	-0.06811268
61	0x3e364ada	0.17801991
62	0xbdd2314a	-0.102633074
63	0xbe8380d1	-0.25684217
64	0xbd17e2a6	-0.037081383
65	0x3d941efc	0.07232472
66	0xbdaf1608	-0.08549124
67	0x3d841c20	0.06450677
68	0x3e339778	0.1753825
69	0xbe586a30	-0.21134257
70	0xbd0d5bb0	-0.03451127
71	0xbd208879	-0.03919265
72	0xbe06b0d8	-0.13153398
73	0x3d8df539	0.06931538
74	0xbc4904de	-0.012269227
75	0x3e2f0ba3	0.17094283
76	0x3e00bf74	0.12573034
77	0x3e0a693d	0.13516708
78	0xbe6fde07	-0.2342454
79	0x3d8455a9	0.06461651
80	0xbe024f18	-0.12725484
81	0x3e0ab72d	0.13546439
82	0xbd6f6383	-0.05844451
83	0xbd03eda9	-0.032209072
84	0xbe26a5be	-0.16274163
85	0xbd8b00ef	-0.067872874
86	0x3df18cb7	0.11794417
87	0xbdd67a21	-0.10472513
88	0xbe5ff0ba	-0.21869174
89	0x3dce5a33	0.10075798
90	0x3e811e05	0.25218216
91	0x3e14869f	0.14504479
92	0x3dc8e468	0.0980919
93	0x3e3956be	0.18099496
94	0x3d0e8475	0.03479429
95	0x3debff83	0.11523344
96	0x3da95d51	0.08269752
97	0xbdf59494	-0.1199123
98	0xbe410395	-0.18849023
99	0x3e37672a	0.17910448
100	0x3da31491	0.07962907
101	0xbe12988a	-0.14316002
102	0x3e1f7f6e	0.15575954
103	0x3d8172de	0.06320737
104	0xbe35f2ae	-0.17768356
105	0x3d2b634d	0.041842747
106	0x3da2541d	0.079261996
107	0xbd5f4770	-0.054511487
108	0xbe3ace7d	-0.18242832
109	0x3d780990	0.060555995
110	0x3d8293d2	0.06375851
111	0xbdc9ff14	-0.098631054
112	0xbd50c8ea	-0.050972857
113	0xbe5fcba2	-0.21855024
114	0xbe3191e7	-0.17340814
115	0xbe01bcb1	-0.12669636
116	0xbc35dd52	-0.01110013
117	0x3e11a8be	0.14224526
118	0x3e8c0192	0.27344948
119	0x3d97b0df	0.07406782
120	0xbcbaec96	-0.022817891
121	0x3e63015c	0.22168487
122	0x3dab5fc8	0.08367878
123	0x3ca04cc7	0.01956786
124	0x3e01356a	0.12618032
125	0x3d34a8f4	0.04410644
126	0x3d8c1c15	0.06841294
127	0xbe11372b	-0.14181201
128	0xbd153bf4	-0.03643413
129	0x3deb04ef	0.114755504
130	0x3e844d08	0.2584002
131	0xbe0e9cde	-0.13927028
132	0xbe8923fc	-0.26785266
133	0xbe202534	-0.15639192
134	0xbdbc16f9	-0.09184069
135	0x3e7378d5	0.23776563
136	0x3df49393	0.1194221
137	0x3cc02e43	0.02345956
138	0xbb97d246	-0.004633221
139	0x3d6f7a52	0.058466263
140	0xbde1904d	-0.11013851
141	0x3e0fcad5	0.14042218
142	0xbd414b1c	-0.04719077
143	0xbd6a410b	-0.057190936
144	0xbd4c0d03	-0.049817096
145	0x3d34922b	0.04408471
146	0x3dd3e880	0.1034708
147	0xbdab942e	-0.083778724
148	0xbe1590b1	-0.14605977
149	0x3df459ea	0.11931212
150	0x3e37a2f4	0.17933255
151	0xbd819df5	-0.06328956
152	0x3bbd950b	0.0057855896
153	0x3e2330fa	0.15936652
154	0xbe251ece	-0.16125032
155	0x3e767dd8	0.24071443
156	0xbe3153e9	-0.17317165
157	0x3e0ae24c	0.13562888
158	0xbc9e21bf	-0.0193032
159	0xbdfcd90a	-0.123460844
160	0xbca7c885	-0.020481357
161	0x3d01bf9e	0.03167688
162	0x3ca1bd0c	0.019743465
163	0x3d947d8a	0.07250507
164	0x3e791f97	0.24328457
165	0xbbb4524e	-0.0055029755
166	0x3e547903	0.20749287
167	0x3e21abc6	0.15788183
168	0xbd99bbbf	-0.07506513
169	0x3e522119	0.20520438
170	0x3d9448e0	0.07240462
171	0xbce569f3	-0.028004622
172	0xbdb19bff	-0.08672332
173	0xbe9954c1	-0.29947475
174	0xbe792e88	-0.24334157
175	0x3d031abd	0.03200792
176	0xbd206b90	-0.03916508
177	0xbe187124	-0.1488691
178	0xbe4c996a	-0.19980398
179	0xbdadaf0f	-0.084806554
180	0xbe3b689b	-0.18301623
181	0xbd8a6791	-0.06758035
182	0x3d9bdd40	0.076105595
183	0x3e14763d	0.1449823
184	0xbdde44f9	-0.10852999
185	0xbdb20669	-0.08692629
186	0x3e4e7bbf	0.20164393
187	0x3db63051	0.088959344
188	0xbe5b745d	-0.21431108
189	0xbe70d11e	-0.23517272
190	0x3ddf8a01	0.10914994
191	0xbe37c0eb	-0.17944686
192	0xbcc22836	-0.023700815
193	0xbe5112b3	-0.2041729
194	0x3d9dee4f	0.077114694
195	0x3e0924d3	0.13392954
196	0x3cd798ff	0.026318071
197	0x3c8d2bce	0.017232802
198	0x3dd3deed	0.10345254
199	0xbe2382ca	-0.15967861
200	0x3d4dfdc7	0.05029085
201	0x3e4e5cb8	0.20152557
202	0xbe608095	-0.2192405
203	0xbdc9363d	-0.09824798
204	0xbe084e9f	-0.13311242
205	0xbe3d7c26	-0.1850439
206	0xbe2159c5	-0.157569
207	0x3e6ddf77	0.23229776
208	0x3ccefbbb	0.025266519
209	0x3e3f288b	0.1866781
210	0x3d5a5905	0.053307552
211	0xbe3146a1	-0.17312099
212	0xbca00462	-0.01953334
213	0xbddba771	-0.10725296
214	0x3e8e32de	0.27773184
215	0xbe6efccf	-0.23338626
216	0x3b690316	0.0035554818
217	0xbe5e2da6	-0.21697101
218	0x3e609c0f	0.21934532
219	0xbe185756	-0.14877066
220	0x3e13834a	0.14405552
221	0x3e5892f2	0.21149805
222	0x3db3906b	0.0876778
223	0x3e090a87	0.13382922
224	0xbd9b04ae	-0.07569252
225	0x3c80bb93	0.015714442
226	0x3dfa279b	0.122145854
227	0x3dfbde19	0.12298221
228	0x3c5b32fb	0.013378854
229	0xbd9d18be	-0.07670735
230	0xbd5e4e91	-0.054274146
231	0x3d2e3b7f	0.04253721
232	0xbdd20d7b	-0.102564774
233	0xbd855ffd	-0.06512449
234	0xba89e19c	-0.0010519507
235	0xbe5fc9a5	-0.21854265
236	0xbe28a3c9	-0.16468729
237	0x3e1dc98c	0.15408915
238	0xbe1d99cc	-0.153907
239	0x3dea6325	0.114446916
240	0x3c473e05	0.012160783
241	0x3d6d5cb8	0.05794975
242	0xbd12273c	-0.035681948
243	0x3d3566c2	0.04428745
244	0x3e0b4b42	0.13602927
245	0xbdec78d8	-0.115464866
246	0x3d1d1a1c	0.038354978
247	0xbd1cc517	-0.038273897
248	0xbd7e9717	-0.06215581
249	0x3d9da168	0.076968014
250	0xbe25a71c	-0.16177028
251	0x3d44f2d0	0.048083127
252	0xbe4f32b1	-0.20234181
253	0x3d3705c6	0.04468324
254	0x3e090f72	0.13384798
255	0xbccc5bae	-0.02494606

network_body.lstm.lstm.weight_hh_l0 f4 [256, 64]
0	0x3dddc00b	0.10827645
1	0x3e15e03e	0.14636323
2	0x3d18e80a	0.037330665
3	0xbe3943c5	-0.18092258
4	0xbc8d4d83	-0.017248875
5	0xbd84866c	-0.064709514
6	0x3e3ddac4	0.18540484
7	0xbda2f18c	-0.07956228
8	0xbc9b7c60	-0.018980205
9	0x3e3d424b	0.1848232
10	0xbddd63fb	-0.108100854
11	0x3d97e3b8	0.07416481
12	0x3e51b49d	0.20479055
13	0xbe624279	-0.2209567
14	0xbc6b0222	-0.01434377
15	0xbe4280e0	-0.18994474
16	0xbde0977d	-0.10966394
17	0xbbd37dd7	-0.0064542103
18	0x3d449cb4	0.048001006
19	0xbd1a42d1	-0.037661377
20	0xbd393536	-0.04521676
21	0x3d570154	0.0524915
22	0x3d0c90ae	0.034317665
23	0x3e6352f4	0.22199613
24	0xbd9ef0e7	-0.07760792
25	0xbd75436e	-0.05987876
26	0xbe5f32ab	-0.21796672
27	0x3e571f60	0.21008062
28	0x3dde664a	0.10859354
29	0x3e446c6b	0.19181983
30	0xbdd58b0b	-0.10426911
31	0x3e2ed936	0.17075047
32	0x3dbeb16c	0.09311184
33	0xbe41e5a4	-0.18935257
34	0x3e01039c	0.12599033
35	0xbe3027f0	-0.17202735
36	0x3dae882a	0.08522065
37	0x3e10f237	0.14154898
38	0xbad057a3	-0.0015895258
39	0x3d783ef8	0.060606927
40	0xbd31b651	-0.04338676
41	0xbcd42555	-0.025896708
42	0xbc02d37a	-0.00798499
43	0x3dc32fee	0.09530626
44	0xbddea805	-0.10871891
45	0x3df7fa38	0.12108272
46	0xbe1b6f02	-0.15179065
47	0xbd3ca8db	-0.04605947
48	0xbe353e25	-0.17699488
49	0x3d3f126e	0.046648435
50	0xbcdf722b	-0.02727612
51	0xbe131b43	-0.14365868
52	0x3e2dabbc	0.16960043
53	0xbe2bf858	-0.16793954
54	0xbdf35f62	-0.11883427
55	0x3e4b970b	0.19881837
56	0xbe180267	-0.14844666
57	0x3d1037c8	0.035209447
58	0x3e02bfe4	0.12768513
59	0x3c633a3c	0.013868865
60	0xbe0c9533	-0.1372879
61	0x3de781a3	0.11304023
62	0x3e04f394	0.12983543
63	0xbca05ed5	-0.01957647
64	0x3e3c95b0	0.18416476
65	0xbe7040a0	-0.23462152
66	0xbe2084cb	-0.15675656
67	0xbd9bdd5b	-0.076105796
68	0xbd110884	-0.03540851
69	0x3cc55239	0.024087058
70	0xbddc87a3	-0.10768058
71	0xbe1e2f29	-0.15447678
72	0x3cbbcb52	0.0229241
73	0x3e0c194c	0.13681525
74	0xbe5c739c	-0.21528476
75	0x3e85dbba	0.261442
76	0xbda9d15d	-0.08291886
77	0xbe3cb486	-0.18428239
78	0xbe3835e3	-0.17989306
79	0xbe655579	-0.22395886
80	0xbce04d54	-0.027380623
81	0x3d056bec	0.032573625
82	0xbd9d8eae	-0.076932296
83	0x3b9cf267	0.004789639
84	0xbd41eb2d	-0.04734342
85	0xbe0604e5	-0.13087805
86	0x3c7e26b9	0.015512162
87	0xbe229b75	-0.15879615
88	0x3e231d32	0.15929106
89	0xbd0b2e8b	-0.033979934
90	0xbd4a8a14	-0.049448088
91	0xbda7ae17	-0.08187502
92	0xbdd14ffe	-0.102203354
93	0xbe5efcac	-0.21776074
94	0xbe3f698a	-0.18692604
95	0x3e332374	0.17493993
96	0x3dcf907e	0.101349816
97	0x3e24f296	0.16108164
98	0xbe612ea8	-0.21990454
99	0xbe209203	-0.15680699
100	0x3c196a93	0.009363788
101	0x3e488e75	0.19585593
102	0xbdac8382	-0.084235206
103	0xbe655cec	-0.22398728
104	0xbe7f02d5	-0.24903424
105	0x3e140833	0.14456253
106	0xbdbf347d	-0.09336183
107	0xbe047ba0	-0.12937784
108	0x3c80e79f	0.015735446
109	0x3e1f631d	0.15565152
110	0x3e21cbeb	0.15800445
111	0x3e161b42	0.14658836
112	0xbdc7912f	-0.097444884
113	0x3e2396ab	0.15975444
114	0x3e34a776	0.17642006
115	0x3de566ed	0.11201272
116	0xbd4ae816	-0.04953774
117	0x3d85f6de	0.06541227
118	0x3d2a290b	0.041543048
119	0x3e31e456	0.1737226
120	0x3d9bd1a4	0.07608345
121	0x3cb21bd9	0.021741794
122	0x3e1132ff	0.1417961
123	0xbe023106	-0.12714013
124	0x3cbc18e9	0.022961097
125	0x3e1a986b	0.15097205
126	0xbdcd5c92	-0.10027422
127	0x3c41e41d	0.011834172
128	0x3ddaea79	0.10689253
129	0xbd87add2	-0.066249505
130	0xbe109f5b	-0.1412329
131	0xbdc7b3b0	-0.097510695
132	0xbe23e49f	-0.16005181
133	0xbcf17bcd	-0.029477978
134	0x3e3a279e	0.18179175
135	0x3cb28a11	0.02179435
136	0x3c8cb6f9	0.017177092
137	0x3e35af66	0.1774269
138	0x3e297d4c	0.16551703
139	0x3e642986	0.22281465
140	0x3da0d289	0.078526564
141	0x3d46c082	0.048523434
142	0x3e5b2d0e	0.21403906
143	0xbe36e9ba	-0.17862597
144	0xbe0cc4d7	-0.13746963
145	0x3def09ef	0.116718166
146	0x3e36625e	0.17810962
147	0x3e0f663c	0.14003843
148	0x3dd22191	0.102603085
149	0xbe3c82a9	-0.18409218
150	0x3c8cb071	0.017173978
151	0xbe0c8719	-0.1372341
152	0xbe0f91aa	-0.1402041
153	0xbd5d1205	-0.053972263
154	0xbbf64608	-0.0075156726
155	0xbcd64f4f	-0.026160864
156	0xbe0b79ad	-0.13620634
157	0x3c3ab584	0.011395816
158	0xbb4507c9	-0.0030064455
159	0xbe36276b	-0.17788474
160	0xbd94ee72	-0.07272042
161	0xbe47e260	-0.19519949
162	0x3d149d81	0.03628302
163	0x3db3e6be	0.08784245
164	0x3e43e50b	0.19130342
165	0xbddbb1a9	-0.10727245
166	0xbdf2e98e	-0.11860953
167	0xbe4a4882	-0.19754222
168	0x3dd29f5c	0.10284302
169	0x3caacb00	0.020848751
170	0xbdb98231	-0.09058035
171	0xbcb730ef	-0.0223622
172	0xbdcdc217	-0.10046785
173	0x3c2bb7b7	0.010480813
174	0x3e04c6df	0.12966488
175	0x3dc2aa36	0.095051214
176	0xbd97052d	-0.07374034
177	0x3cab2bdb	0.020894935
178	0xbd7d3830	-0.061821163
179	0xbe16d0c4	-0.14728075
180	0xbe26eeed	-0.1630208
181	0xbd293c9b	-0.041317564
182	0x3dbeab27	0.093099885
183	0x3e0e08be	0.13870522
184	0xbd9fe38d	-0.07807074
185	0xbdc29ada	-0.09502192
186	0xbd8b780d	-0.06810007
187	0x3e079d69	0.13243641
188	0xbd3b3a0c	-0.045709655
189	0xbe3d1b71	-0.184675
190	0xbb7d09c5	-0.003861056
191	0xbe284f42	-0.16436484
192	0xbe14d746	-0.14535245
193	0x3cf666af	0.03007826
194	0xbe310c64	-0.17289883
195	0x3db31398	0.087439716
196	0xbd883667	-0.066510014
197	0x3cd4ea7b	0.025990715
198	0xbe31931f	-0.17341278
199	0xbe69f405	-0.22846992
200	0x3d981e20	0.07427621
201	0xbb5b4dcf	-0.0033463126
202	0x3e023ca5	0.12718447
203	0xbdffc6ec	-0.12489113
204	0x3db07ab9	0.086171575
205	0xbdb2716d	-0.087130405
206	0x3dbeb5a2	0.093119875
207	0xbd83db9e	-0.06438373
208	0x3e2cce1e	0.16875502
209	0xbe3ae6bb	-0.18252079
210	0x3e2958d1	0.16537787
211	0xbde8a3f0	-0.113593936
212	0xbe446b1b	-0.19181482
213	0x3d12fe6f	0.035887178
214	0xbe371f5c	-0.17883056
215	0x3ddc30a5	0.10751466
216	0xbe4f1dcd	-0.20226212
217	0xbe0493ff	-0.12947081
218	0x3de9bdf2	0.11413182
219	0x3e351da4	0.17687088
220	0xbda18984	-0.07887557
221	0x3dc4b9ac	0.096057266
222	0x3e548fb2	0.2075794
223	0xbceda735	-0.029010395
224	0xbd2b3917	-0.041802492
225	0x3b5cff2d	0.0033721433
226	0x3e2c17bf	0.16805933
227	0xbd8faeda	-0.07015772
228	0x3dcffd86	0.10155778
229	0xbbb6b4a1	-0.005575732
230	0x3e29b27a	0.1657199
231	0xbe329cd6	-0.1744264
232	0xbe004924	-0.12527901
233	0xbd4e6475	-0.050388772
234	0xbdd7a719	-0.10529918
235	0xbe3f4efc	-0.18682474
236	0xbd3ad65f	-0.045614596
237	0xbdca6f69	-0.09884531
238	0xbe19cccb	-0.15019529
239	0x3e71fdb6	0.2363194
240	0xbcce3244	-0.025170453
241	0xbd594aee	-0.053049974
242	0x3d481619	0.0488492
243	0xbd2e29db	-0.042520385
244	0x3e53b4d8	0.20674455
245	0x3e13375b	0.14376585
246	0x3d0cd6a3	0.03438438
247	0xbe29a97d	-0.16568561
248	0x393b565c	0.00017865881
249	0x3d815cd1	0.063165314
250	0x3c845f77	0.016158802
251	0xbdf561a0	-0.11981511
252	0xbe017a89	-0.126444
253	0xbbbbf0a0	-0.005735472
254	0x3e3798ee	0.17929432
255	0x3da949d6	0.08266036

network_body.lstm.lstm.bias_ih_l0 f4 [256]
0	0x3c060f1e	0.008182315
1	0x3d354551	0.04425556
2	0x3d044606	0.032293342
3	0x3d13d01a	0.036087133
4	0x3d10aac3	0.0353191
5	0x3d89eb45	0.06734327
6	0x3d081895	0.03322657
7	0x3d2c3d40	0.0420506
8	0x3befe49c	0.0073209535
9	0x3dd5655c	0.104197234
10	0x3ccad161	0.024758043
11	0x3d66f113	0.05638225
12	0x3d8a74f3	0.067605875
13	0x3d2ef493	0.042713713
14	0x3c36f457	0.011166654
15	0x3c58602e	0.013206525
16	0x3d05ad02	0.032635696
17	0x3c5e1e52	0.013557034
18	0x3ded13d2	0.11576046
19	0x3d61be13	0.05511291
20	0x3b94aade	0.0045369705
21	0x3d03e648	0.032202035
22	0x3d9a0e07	0.07522207
23	0x3d2c1a33	0.042017173
24	0x3d5bff9a	0.053710558
25	0x3d362719	0.04447088
26	0x3c5029bb	0.012705262
27	0x3d0c4697	0.034247007
28	0x3d2bca30	0.041940868
29	0x3d59c984	0.053170696
30	0x3c93d3f5	0.018045405
31	0x3d06bb8b	0.0328937
32	0x3d13267b	0.03592537
33	0x3c41119b	0.011783983
34	0x3d9679c4	0.07347444
35	0x3d38d263	0.045122515
36	0xbc96ec22	-0.018423144
37	0x3d40893e	0.047005884
38	0x3d31a4c6	0.04337003
39	0x3dcae611	0.09907163
40	0x3d08d23b	0.033403616
41	0x3dbee5d6	0.093211815
42	0x3d1f0723	0.038825165
43	0x3cd1f133	0.025627708
44	0x3ca96b70	0.020681113
45	0x3d39bb1c	0.045344457
46	0x3d61d20d	0.05513196
47	0x3ce75cf0	0.028242558
48	0x3d14f767	0.036368754
49	0x3d26f59f	0.040761586
50	0xbc858315	-0.016297856
51	0x3b9d94c1	0.0048089926
52	0x3d567194	0.05235441
53	0x3d31cdc5	0.043409128
54	0x3c71c695	0.014756818
55	0x3d33eb44	0.04392554
56	0x3dce6780	0.10078335
57	0x3d09d4ad	0.03365009
58	0x3ce94918	0.028477237
59	0x3c4ebc8f	0.012618198
60	0x3cb91094	0.022590913
61	0x3d4b68c1	0.049660448
62	0x3d6943d8	0.056949466
63	0x3d76fe3b	0.060301047
64	0x3f7d66f5	0.98985225
65	0x3f8300c1	1.0234605
66	0x3f7de53b	0.991779
67	0x3f8170f0	1.0112591
68	0x3f825fde	1.0185506
69	0x3f7bff0f	0.98436064
70	0x3f823def	1.0175151
71	0x3f831c2c	1.0242972
72	0x3f7c09d4	0.98452497
73	0x3f808667	1.0041016
74	0x3f7537e3	0.957884
75	0x3f83e200	1.0303345
76	0x3f790a9b	0.9728181
77	0x3f826f2f	1.019018
78	0x3f8257fb	1.01831
79	0x3f828c8e	1.0199144
80	0x3f814bb9	1.0101234
81	0x3f7d42ad	0.98929864
82	0x3f7f0edf	0.99632066
83	0x3f7e6aa3	0.99381465
84	0x3f7b39f6	0.98135316
85	0x3f7a5f24	0.97801423
86	0x3f818770	1.0119457
87	0x3f80bc19	1.0057403
88	0x3f78a630	0.9712858
89	0x3f827699	1.0192443
90	0x3f7b87c6	0.9825405
91	0x3f8275a2	1.0192149
92	0x3f82c4db	1.0216326
93	0x3f844f11	1.0336629
94	0x3f80c984	1.0061498
95	0x3f83420a	1.0254529
96	0x3f8123a5	1.0089003
97	0x3f7b6114	0.98195004
98	0x3f849fd1	1.0361272
99	0x3f81508e	1.0102708
100	0x3f77bbce	0.9677094
101	0x3f828c6d	1.0199105
102	0x3f851c33	1.0399231
103	0x3f8042f5	1.0020434
104	0x3f7ef9b7	0.99599785
105	0x3f7a07c3	0.97668093
106	0x3f832dc4	1.0248342
107	0x3f7771a0	0.96657753
108	0x3f820b63	1.0159725
109	0x3f83efe8	1.0307589
110	0x3f7ebbd3	0.99505347
111	0x3f82e096	1.0224788
112	0x3f832175	1.0244585
113	0x3f81d251	1.0142308
114	0x3f814aad	1.0100914
115	0x3f7d9803	0.99060076
116	0x3f8439a1	1.0330087
117	0x3f81cedf	1.0141257
118	0x3f7b8ced	0.9826191
119	0x3f7770b2	0.96656334
120	0x3f7b6143	0.98195285
121	0x3f7a0fc0	0.9768028
122	0x3f844d7c	1.0336146
123	0x3f7f36b1	0.9969283
124	0x3f83a812	1.0285666
125	0x3f7c830e	0.98637474
126	0x3f841a75	1.0320574
127	0x3f79062b	0.97275037
128	0xbc78e747	-0.01519186
129	0xbd0b75f6	-0.034048043
130	0x3bbf46b3	0.0058372854
131	0xbcb6fe8c	-0.022338174
132	0xbcbc7e4c	-0.023009442
133	0xbc0b30b0	-0.008495495
134	0x3cba711b	0.022759011
135	0xbd21b81e	-0.03948223
136	0xbcdc82cf	-0.026917843
137	0x3c047e8c	0.008086812
138	0x3cb80fb5	0.022468427
139	0x3ce9061a	0.028445292
140	0xbc1312b2	-0.008976625
141	0xbcf9cda1	-0.03049356
142	0x3cbc1097	0.02295713
143	0xbc50d56a	-0.012746194
144	0x3cbab80f	0.022792844
145	0x3cc199dc	0.023632936
146	0xbccb63e8	-0.024827912
147	0xbc3f2067	-0.01166544
148	0x3c18d30b	0.00932766
149	0x3b7b6b72	0.0038363603
150	0xbca4f8eb	-0.020138225
151	0x3cdfba29	0.027310448
152	0xbc017475	-0.007901301
153	0xbcd9ce95	-0.026587764
154	0xbc4230a9	-0.011852422
155	0x3cc3f94c	0.023922585
156	0xbcff41bd	-0.031159276
157	0xbca33ca4	-0.019926377
158	0x3ce8b5e6	0.028407048
159	0xbcd16e61	-0.025565328
160	0xbcca9f17	-0.024734063
161	0xbc300a36	-0.010744622
162	0xbd2962f0	-0.04135412
163	0xbcea357f	-0.028589962
164	0xbcace085	-0.021103153
165	0x3ce31280	0.027718782
166	0x3d1302a9	0.03589121
167	0xbb20db35	-0.002454472
168	0xbc9926b6	-0.018695217
169	0xbc130444	-0.008973185
170	0x3ce85ddc	0.028365068
171	0x3ce532fa	0.02797841
172	0x3c908b4f	0.017644553
173	0xbc867ea6	-0.016417813
174	0x3c632892	0.013864653
175	0x3a80ff5b	0.0009841727
176	0x3d1d4982	0.03840018
177	0xbcaffed5	-0.021483818
178	0xbb6b35ae	-0.003589015
179	0x3cda0088	0.026611581
180	0x3d482bf5	0.048870046
181	0xbcec0cdd	-0.028814727
182	0xbbd92197	-0.0066263187
183	0x3bfdbb25	0.0077432566
184	0x3b91ad7d	0.0044457302
185	0x3c8c111d	0.017098004
186	0x3ca2a541	0.01985419
187	0x3be878f4	0.007094497
188	0xbc821ae9	-0.015881972
189	0xbbe8f433	-0.007109189
190	0x3ced9eca	0.02900638
191	0xbbc72b3b	-0.0060781515
192	0x3dca6a6d	0.0988358
193	0x3cd55d88	0.026045576
194	0x3daf7fe4	0.08569315
195	0xbc93f27f	-0.018059967
196	0x3cc554b9	0.02408825
197	0x3d9514bd	0.07279346
198	0xbbefa8f9	-0.0073138443
199	0x3c8fdbdd	0.017560894
200	0xbbae4c94	-0.0053191874
201	0x3d9e665b	0.077343665
202	0x3cf60975	0.030033806
203	0x3c2f7a98	0.010710381
204	0x3da8f7e5	0.08250407
205	0x3c8ebdae	0.01742443
206	0xbba8dfbc	-0.0051536243
207	0x39d5f92f	0.00040812182
208	0x3baf48a0	0.0053492337
209	0xbb2e5bc9	-0.0026605001
210	0x3dd39d99	0.10332794
211	0x3d4a753a	0.049428202
212	0x3cd2d18e	0.02573469
213	0x3d8f1326	0.06986074
214	0x3d9d8f65	0.07693366
215	0x3db33ec6	0.087522075
216	0x3d7b45bd	0.061345804
217	0x3c776fdb	0.015102352
218	0x3d8df56d	0.06931577
219	0x3a2be348	0.0006557
220	0x3c9fb9d6	0.019497793
221	0x3ce26043	0.027633792
222	0x3cdd6bdf	0.027028976
223	0x3befc8d7	0.007317643
224	0x3c362850	0.01111801
225	0x3d029ed8	0.031889766
226	0x3d28ec72	0.041241117
227	0x3ce731a9	0.028221922
228	0xbc9b9d72	-0.018995974
229	0x3c436bbb	0.01192754
230	0x3be90bb2	0.00711199
231	0x3db896d0	0.0901314
232	0x3d57c76c	0.052680418
233	0x3d6cf171	0.057847444
234	0x3ca03590	0.01955679
235	0x3ca5440c	0.020174049
236	0x3b88d334	0.004175568
237	0x3bb0b5d8	0.005392771
238	0x3d6dd095	0.058060247
239	0x3c764336	0.015030673
240	0xbc47b3dd	-0.012188879
241	0x3cc7fcff	0.02441263
242	0x3c8b6ded	0.01702019
243	0x3dcaea74	0.09908
244	0x3c5a9f7d	0.013343689
245	0x3c4d6388	0.012535937
246	0x3db6bb00	0.08922386
247	0x3d85f91e	0.06541656
248	0x3de714a8	0.11283237
249	0x3d810263	0.06299283
250	0x3cb8824d	0.02252307
251	0x3b35ccd8	0.0027740505
252	0xbc4fb48e	-0.012677325
253	0x3d9646df	0.07337736
254	0x3c4edf9b	0.012626554
255	0x3d82b3b6	0.063819334

network_body.lstm.lstm.bias_hh_l0 f4 [256]
0	0x3c060f14	0.008182306
1	0x3d354551	0.04425556
2	0x3d044609	0.032293353
3	0x3d13d01b	0.036087137
4	0x3d10aac3	0.0353191
5	0x3d89eb47	0.06734329
6	0x3d081894	0.033226565
7	0x3d2c3d3f	0.042050596
8	0x3befe4a3	0.007320957
9	0x3dd5655b	0.10419723
10	0x3ccad165	0.02475805
11	0x3d66f110	0.05638224
12	0x3d8a74f3	0.067605875
13	0x3d2ef494	0.042713717
14	0x3c36f457	0.011166654
15	0x3c586032	0.0132065285
16	0x3d05ad02	0.032635696
17	0x3c5e1e57	0.013557038
18	0x3ded13d1	0.11576045
19	0x3d61be14	0.055112913
20	0x3b94aacd	0.0045369626
21	0x3d03e647	0.03220203
22	0x3d9a0e07	0.07522207
23	0x3d2c1a34	0.042017177
24	0x3d5bff97	0.053710546
25	0x3d362715	0.044470865
26	0x3c5029c2	0.012705268
27	0x3d0c4697	0.034247007
28	0x3d2bca30	0.041940868
29	0x3d59c985	0.0531707
30	0x3c93d3f5	0.018045405
31	0x3d06bb8b	0.0328937
32	0x3d13267c	0.035925373
33	0x3c41119a	0.011783982
34	0x3d9679c4	0.07347444
35	0x3d38d262	0.04512251
36	0xbc96ec25	-0.01842315
37	0x3d40893e	0.047005884
38	0x3d31a4c6	0.04337003
39	0x3dcae610	0.09907162
40	0x3d08d240	0.033403635
41	0x3dbee5d5	0.09321181
42	0x3d1f0724	0.03882517
43	0x3cd1f138	0.025627717
44	0x3ca96b69	0.0206811
45	0x3d39bb1c	0.045344457
46	0x3d61d208	0.055131942
47	0x3ce75cf2	0.028242562
48	0x3d14f767	0.036368754
49	0x3d26f59f	0.040761586
50	0xbc858317	-0.01629786
51	0x3b9d94be	0.004808991
52	0x3d567196	0.052354418
53	0x3d31cdc3	0.04340912
54	0x3c71c6af	0.0147568425
55	0x3d33eb41	0.043925527
56	0x3dce677e	0.10078333
57	0x3d09d4a8	0.03365007
58	0x3ce94918	0.028477237
59	0x3c4ebc91	0.0126182
60	0x3cb91095	0.022590915
61	0x3d4b68c2	0.04966045
62	0x3d6943d8	0.056949466
63	0x3d76fe39	0.06030104
64	0x3f7d66f7	0.98985237
65	0x3f8300c1	1.0234605
66	0x3f7de53b	0.991779
67	0x3f8170f0	1.0112591
68	0x3f825fde	1.0185506
69	0x3f7bff0f	0.98436064
70	0x3f823def	1.0175151
71	0x3f831c2c	1.0242972
72	0x3f7c09d4	0.98452497
73	0x3f808668	1.0041018
74	0x3f7537e3	0.957884
75	0x3f83e200	1.0303345
76	0x3f790a9c	0.97281814
77	0x3f826f2f	1.019018
78	0x3f8257fb	1.01831
79	0x3f828c8e	1.0199144
80	0x3f814bb9	1.0101234
81	0x3f7d42ad	0.98929864
82	0x3f7f0edf	0.99632066
83	0x3f7e6aa5	0.99381477
84	0x3f7b39f7	0.9813532
85	0x3f7a5f23	0.9780142
86	0x3f818770	1.0119457
87	0x3f80bc19	1.0057403
88	0x3f78a62f	0.97128576
89	0x3f827699	1.0192443
90	0x3f7b87c4	0.98254037
91	0x3f8275a2	1.0192149
92	0x3f82c4db	1.0216326
93	0x3f844f11	1.0336629
94	0x3f80c986	1.00615
95	0x3f83420a	1.0254529
96	0x3f8123a6	1.0089004
97	0x3f7b6114	0.98195004
98	0x3f849fd1	1.0361272
99	0x3f81508e	1.0102708
100	0x3f77bbd0	0.96770954
101	0x3f828c6d	1.0199105
102	0x3f851c33	1.0399231
103	0x3f8042f5	1.0020434
104	0x3f7ef9b5	0.9959977
105	0x3f7a07c3	0.97668093
106	0x3f832dc4	1.0248342
107	0x3f7771a0	0.96657753
108	0x3f820b63	1.0159725
109	0x3f83efe8	1.0307589
110	0x3f7ebbd3	0.99505347
111	0x3f82e096	1.0224788
112	0x3f832175	1.0244585
113	0x3f81d251	1.0142308
114	0x3f814aad	1.0100914
115	0x3f7d9802	0.9906007
116	0x3f8439a1	1.0330087
117	0x3f81cedf	1.0141257
118	0x3f7b8ceb	0.982619
119	0x3f7770b2	0.96656334
120	0x3f7b6142	0.9819528
121	0x3f7a0fc0	0.9768028
122	0x3f844d7d	1.0336148
123	0x3f7f36b1	0.9969283
124	0x3f83a812	1.0285666
125	0x3f7c830e	0.98637474
126	0x3f841a75	1.0320574
127	0x3f79062a	0.9727503
128	0xbc78e75f	-0.015191882
129	0xbd0b75f7	-0.034048047
130	0x3bbf46ba	0.0058372887
131	0xbcb6fe8e	-0.022338178
132	0xbcbc7e4b	-0.02300944
133	0xbc0b30ac	-0.008495491
134	0x3cba711d	0.022759015
135	0xbd21b81d	-0.039482225
136	0xbcdc82ce	-0.026917841
137	0x3c047e99	0.008086824
138	0x3cb80fbc	0.02246844
139	0x3ce9061a	0.028445292
140	0xbc1312c0	-0.008976638
141	0xbcf9cda1	-0.03049356
142	0x3cbc1097	0.02295713
143	0xbc50d570	-0.0127462
144	0x3cbab80e	0.022792842
145	0x3cc199dd	0.023632938
146	0xbccb63ef	-0.024827925
147	0xbc3f205f	-0.011665433
148	0x3c18d307	0.009327657
149	0x3b7b6b74	0.0038363608
150	0xbca4f8e9	-0.02013822
151	0x3cdfba27	0.027310444
152	0xbc017481	-0.007901312
153	0xbcd9ce97	-0.026587768
154	0xbc4230ab	-0.011852424
155	0x3cc3f94b	0.023922583
156	0xbcff41bc	-0.031159274
157	0xbca33ca3	-0.019926375
158	0x3ce8b5e4	0.028407045
159	0xbcd16e61	-0.025565328
160	0xbcca9f1b	-0.02473407
161	0xbc300a32	-0.010744618
162	0xbd2962f0	-0.04135412
163	0xbcea357b	-0.028589955
164	0xbcace082	-0.021103147
165	0x3ce31280	0.027718782
166	0x3d1302aa	0.035891213
167	0xbb20daf2	-0.0024544564
168	0xbc9926b7	-0.018695218
169	0xbc130448	-0.008973189
170	0x3ce85ddc	0.028365068
171	0x3ce532fe	0.027978417
172	0x3c908b4d	0.017644549
173	0xbc867ea7	-0.016417814
174	0x3c632891	0.013864652
175	0x3a80ff54	0.0009841719
176	0x3d1d4980	0.038400173
177	0xbcaffed6	-0.02148382
178	0xbb6b35a1	-0.003589012
179	0x3cda0084	0.026611574
180	0x3d482bf5	0.048870046
181	0xbcec0cde	-0.02881473
182	0xbbd9219f	-0.0066263224
183	0x3bfdbb32	0.0077432627
184	0x3b91ad77	0.0044457274
185	0x3c8c1112	0.017097984
186	0x3ca2a541	0.01985419
187	0x3be878f2	0.007094496
188	0xbc821ae7	-0.015881969
189	0xbbe8f429	-0.0071091843
190	0x3ced9ecc	0.029006384
191	0xbbc72b53	-0.0060781627
192	0x3dca6a6a	0.09883578
193	0x3cd55d8a	0.02604558
194	0x3daf7fe0	0.08569312
195	0xbc93f284	-0.018059976
196	0x3cc554b5	0.024088243
197	0x3d9514be	0.07279347
198	0xbbefa90c	-0.007313853
199	0x3c8fdbd9	0.017560886
200	0xbbae4c91	-0.005319186
201	0x3d9e6658	0.07734364
202	0x3cf60976	0.030033808
203	0x3c2f7a8f	0.010710373
204	0x3da8f7e2	0.08250405
205	0x3c8ebdac	0.017424427
206	0xbba8dfc9	-0.0051536304
207	0x39d5f963	0.00040812333
208	0x3baf48a2	0.0053492347
209	0xbb2e5bcc	-0.0026605008
210	0x3dd39d99	0.10332794
211	0x3d4a7538	0.049428195
212	0x3cd2d188	0.025734678
213	0x3d8f1326	0.06986074
214	0x3d9d8f63	0.076933645
215	0x3db33ec5	0.08752207
216	0x3d7b45bd	0.061345804
217	0x3c776fdc	0.015102353
218	0x3d8df56d	0.06931577
219	0x3a2be3a6	0.00065570546
220	0x3c9fb9d3	0.019497788
221	0x3ce26046	0.027633797
222	0x3cdd6bd9	0.027028965
223	0x3befc8de	0.0073176464
224	0x3c362841	0.011117996
225	0x3d029ed5	0.031889755
226	0x3d28ec6e	0.041241102
227	0x3ce731a8	0.02822192
228	0xbc9b9d6e	-0.018995967
229	0x3c436ba3	0.011927518
230	0x3be90bcc	0.007112002
231	0x3db896d1	0.09013141
232	0x3d57c76b	0.052680414
233	0x3d6cf16f	0.057847437
234	0x3ca03594	0.019556798
235	0x3ca54409	0.020174043
236	0x3b88d312	0.004175552
237	0x3bb0b5af	0.005392752
238	0x3d6dd093	0.05806024
239	0x3c76432d	0.015030664
240	0xbc47b3dd	-0.012188879
241	0x3cc7fd04	0.02441264
242	0x3c8b6dea	0.017020185
243	0x3dcaea77	0.09908002
244	0x3c5a9f79	0.013343685
245	0x3c4d6380	0.01253593
246	0x3db6bafe	0.08922385
247	0x3d85f91f	0.06541657
248	0x3de714a4	0.11283234
249	0x3d810265	0.06299285
250	0x3cb8824e	0.022523072
251	0x3b35ccd3	0.0027740493
252	0xbc4fb491	-0.012677328
253	0x3d9646dd	0.07337735
254	0x3c4edf9d	0.012626556
255	0x3d82b3b2	0.063819304

action_model._discrete_distribution.branches.0.weight f4 [2, 64]
0	0xbe12e98c	-0.14346904
1	0xbdaf7e59	-0.08569021
2	0x3dcc5ebb	0.09979006
3	0xbdc5757c	-0.09641549
4	0xbd3b6c39	-0.045757506
5	0xbdaabc05	-0.08336643
6	0x3d87a141	0.066225536
7	0xbdab4143	-0.08362057
8	0xbd9f41a7	-0.07776194
9	0x3ddac6eb	0.10682472
10	0xbd9347d6	-0.07191436
11	0x3def72ef	0.11691844
12	0x3dcd682e	0.10029636
13	0xbd9e9a7d	-0.0774431
14	0x3d571670	0.052511632
15	0xbdb7c60e	-0.08973323
16	0x3da2d7a5	0.07951287
17	0xbd417187	-0.04722741
18	0xbdeb0185	-0.11474899
19	0xbdd6d858	-0.10490483
20	0x3cc29b49	0.023755686
21	0x3dbf31be	0.093356594
22	0xbe0143ac	-0.12623471
23	0x3e054ab4	0.13016778
24	0xbdfad22d	-0.12247119
25	0xbd7f1cd3	-0.06228335
26	0xbdd9092b	-0.10597452
27	0x3db9910d	0.09060869
28	0xbd9011b2	-0.07034625
29	0xbdbfa84f	-0.09358274
30	0x3dc5b1a8	0.09653026
31	0xbdce043c	-0.100594014
32	0xbd8ff259	-0.07028646
33	0xbd7f9042	-0.062393434
34	0xbdd2b0b2	-0.10287608
35	0xbd1df7df	-0.038566466
36	0x3d6b9c26	0.05752196
37	0x3d8ecdfe	0.06972884
38	0x3da8edc1	0.08248473
39	0xbddb6300	-0.10712242
40	0xbdd0c439	-0.101936765
41	0xbda97d03	-0.08275797
42	0x3da383c3	0.07984116
43	0x3daa33d9	0.083106704
44	0xbc2ec66f	-0.010667427
45	0xbda8c21e	-0.0824015
46	0x3dddd4fa	0.10831638
47	0x3d6f8885	0.058479805
48	0x3dbb43b3	0.09143772
49	0xbd5d3e33	-0.054014396
50	0x3d853eba	0.06506105
51	0x3e19d854	0.15023929
52	0x3de46c42	0.11153461
53	0xbdcc4da5	-0.09975747
54	0xbe09c049	-0.13452257
55	0xbda39acc	-0.079885095
56	0x3e2ea1f9	0.17053975
57	0x3db14f37	0.08657687
58	0x3d94e7cb	0.072707735
59	0xbd277238	-0.040880412
60	0xbd6d76a4	-0.057974473
61	0xbde2900b	-0.1106263
62	0x3da5c018	0.080932796
63	0xbdadec5d	-0.08492348
64	0x3e08c53a	0.13356486
65	0x3dc1c560	0.094614744
66	0xbdee295e	-0.11628984
67	0x3da72dc2	0.081630245
68	0x3d9ed831	0.07756079
69	0x3da29945	0.0793939
70	0xbd9d8eb4	-0.07693234
71	0x3d9ed260	0.077549696
72	0x3da50b59	0.08058805
73	0xbde80963	-0.113299154
74	0x3db0cfc7	0.086333804
75	0xbdafc4bf	-0.08582448
76	0xbda24aa6	-0.07924394
77	0x3d4e8bd7	0.05042633
78	0xbd49fb1f	-0.049311753
79	0x3d6c5114	0.05769451
80	0xbdba3fe6	-0.09094219
81	0x3d2d6d35	0.042340476
82	0x3e031ced	0.12804003
83	0x3dae2c26	0.085045144
84	0xbc9a4b3f	-0.018834708
85	0xbdd7a4af	-0.10529458
86	0x3df31445	0.118691005
87	0xbdfbd773	-0.12296953
88	0x3dfc0ee2	0.12307526
89	0x3da673c7	0.081275515
90	0x3dae2ee7	0.0850504
91	0xbdcb10de	-0.099153265
92	0x3d8a75a8	0.067607224
93	0x3d9afac3	0.0756736
94	0xbdcc2543	-0.099680446
95	0x3d660467	0.056156542
96	0x3de406ed	0.111341335
97	0x3dac0db5	0.08401052
98	0x3db2ac44	0.08724263
99	0x3d2a5dac	0.04159324
100	0xbd7dac05	-0.06193163
101	0xbdd7ccb2	-0.105370894
102	0xbda56a76	-0.080769464
103	0x3df468d3	0.11934056
104	0x3de3f197	0.11130064
105	0x3dd446a5	0.10365037
106	0xbd9ba437	-0.07599681
107	0xbd5d3a69	-0.054010782
108	0x37b736a6	2.1840748e-05
109	0x3d8ff229	0.0702861
110	0xbdc4ee91	-0.096158154
111	0xbd4da190	-0.050202906
112	0xbda15e9e	-0.07879375
113	0x3d81fc0c	0.06346902
114	0xbd87501b	-0.06607076
115	0xbe079bb7	-0.13242994
116	0xbde57f9e	-0.11205982
117	0x3df6a737	0.120436125
118	0x3e0484f6	0.12941346
119	0x3dc0afa8	0.09408504
120	0xbe0ebe07	-0.13939677
121	0xbde06ee3	-0.1095865
122	0xbd854a5c	-0.065083236
123	0x3cb1447e	0.021639105
124	0x3d9ed683	0.077557586
125	0x3dd87fec	0.10571274
126	0xbdaf3bcc	-0.08556327
127	0x3dc8afe1	0.09799171

action_model._discrete_distribution.branches.0.bias f4 [2]
0	0x3cb982bf	0.022645352
1	0xbcb982b7	-0.022645338
