Assets/results/Jumper_10.onnx (onnx, 154598 bytes, 9 tensors)

network_body._body_endoder.seq_layers.0.weight f4 [64, 3]
0	0x3f0d7a7f	0.5526504
1	0xbe96e1ac	-0.2946905
2	0xbf3bed79	-0.7340923
3	0xbf56d50c	-0.83918834
4	0x3eea13b3	0.45718154
5	0xbe070af7	-0.13187777
6	0xbf7bc3f2	-0.98345864
7	0xbbf25ea4	-0.007396536
8	0xbf0e53ac	-0.55596423
9	0xbeaf8489	-0.34280804
10	0x3df184e9	0.11792929
11	0x3da14049	0.078735895
12	0x3e2a1f5e	0.16613528
13	0xbfa9872e	-1.3244379
14	0x3e9203e8	0.28518605
15	0xbd59cb5b	-0.05317245
16	0x3eb86699	0.36015776
17	0x3f207fdb	0.6269509
18	0xbc9c9454	-0.019113697
19	0xbd39277f	-0.045203682
20	0xbf439240	-0.76395035
21	0xbeba32b2	-0.36366802
22	0xbe62c2eb	-0.22144668
23	0x3dd1dc23	0.10247066
24	0x3d0ccc3d	0.034374464
25	0x3f3fc5a1	0.7491093
26	0xbf60e3b8	-0.8784747
27	0x3f238c6f	0.6388616
28	0x3f078d6f	0.52950186
29	0x3e0b7679	0.13619412
30	0x3f4b5a5d	0.7943476
31	0xbd9d578b	-0.07682713
32	0xbea14f51	-0.31505826
33	0x3f13c8e5	0.57728416
34	0xbe782495	-0.24232705
35	0x3be20fc2	0.006898851
36	0x3ee65486	0.4498636
37	0xbda846f7	-0.082166605
38	0x3e9b79a7	0.3036625
39	0x3f2e697c	0.68129706
40	0x3fc42c8a	1.5326092
41	0x3da70c23	0.08156612
42	0x3b6f1b9e	0.0036484967
43	0x3ec95fa4	0.3933078
44	0xbf87e587	-1.0616921
45	0xbf58ad1e	-0.84639156
46	0x3eef42a7	0.4673054
47	0xbe120697	-0.14260326
48	0x3ee8aa5a	0.45442468
49	0x3e4e042e	0.20118782
50	0x3d06bf84	0.032897487
51	0x3ebe0bef	0.3711848
52	0xbf4c3133	-0.7976257
53	0xbf556770	-0.8336096
54	0xbed97168	-0.42469335
55	0xbe014ba6	-0.12626514
56	0xbf27b8a4	-0.65516114
57	0x3eec81a1	0.4619265
58	0xbfde7b9b	-1.7381471
59	0xbe89f8a9	-0.26947525
60	0xbe8b16b8	-0.2716577
61	0xbea9a0bc	-0.33130443
62	0x3ea5d17e	0.32386392
63	0xbe598b24	-0.21244484
64	0x3d918121	0.071047075
65	0xbeace175	-0.3376576
66	0x3f5c48d8	0.8604865
67	0x3f34f9ab	0.70693463
68	0x3e4b6d72	0.19865969
69	0x3ef37fdb	0.47558483
70	0xbf0b9552	-0.5452472
71	0xbf9357c5	-1.151116
72	0xbfa0b348	-1.2554712
73	0xbf310108	-0.691422
74	0x3f41b39c	0.7566469
75	0x3f143bfc	0.5790403
76	0xbf181977	-0.59413856
77	0xbf36b5b1	-0.7137099
78	0xbc5715c7	-0.013127751
79	0xbf133981	-0.5750962
80	0x3d5697ff	0.05239105
81	0xbe2dcb79	-0.1697215
82	0x3ed468bb	0.41486153
83	0x3f98e158	1.194377
84	0x3f8ed76f	1.1159495
85	0x3f70393b	0.93837327
86	0xbe0450f0	-0.129215
87	0x3f8982fd	1.07431
88	0xbecf22fc	-0.40456378
89	0xbf3c8874	-0.7364571
90	0x3ea7e752	0.3279367
91	0xbdaaa718	-0.08332652
92	0x3ceea515	0.029131452
93	0xbec11426	-0.37710685
94	0x3ecf1024	0.40442002
95	0x3e9012bf	0.28139302
96	0x3c99bfb1	0.018768163
97	0x3f0ea325	0.5571769
98	0x3d0fc3a4	0.035098687
99	0xbf58b753	-0.8465473
100	0x3d9ed999	0.07756347
101	0x3f34a39d	0.70562154
102	0x3e58f9b7	0.21189009
103	0xbf846502	-1.0343325
104	0x3e9b936a	0.30385906
105	0xbf360eaf	-0.71116155
106	0xbfc5ab68	-1.5442934
107	0x3f04569c	0.51694655
108	0x3e89045f	0.26761147
109	0xbf583f4a	-0.8447157
110	0x3cb63fd0	0.022247225
111	0x3eec7760	0.46184826
112	0xbf530544	-0.8242991
113	0x3eabc076	0.33545274
114	0x3ecb8179	0.39747217
115	0x3e84ae31	0.25914147
116	0x3e924584	0.2856866
117	0x3d194b3d	0.03742527
118	0x3d469967	0.04848614
119	0x3f29bf32	0.66307366
120	0xbfabd10e	-1.3423173
121	0x3f045c8e	0.5170373
122	0xbe6cfeac	-0.23144025
123	0xbea84afd	-0.32869712
124	0xbe3d0359	-0.18458308
125	0xbdfc854d	-0.123301126
126	0x3d9eaeea	0.07748206
127	0x3ef49a82	0.4777413
128	0x3f54c42e	0.83111846
129	0x3f3ac9ae	0.7296399
130	0xbd8693d7	-0.06571167
131	0x3f918c68	1.1370974
132	0xbd525680	-0.051352024
133	0x3f135da9	0.5756479
134	0x3f52965a	0.8226067
135	0xbf962f43	-1.1733173
136	0x3e45e291	0.1932471
137	0x3e6ed9a0	0.23325205
138	0xbeafc91a	-0.34333116
139	0xbfc83c2b	-1.5643362
140	0x3f78f28c	0.972451
141	0x3e89dc79	0.2692602
142	0xbd0142fc	-0.031558022
143	0xbc16a109	-0.009193667
144	0x3f482aba	0.78190196
145	0xbe84bde5	-0.25926128
146	0x3e4f19bd	0.20224662
147	0x3f092292	0.53568375
148	0xbeb8e797	-0.3611419
149	0xbd3b37fc	-0.045707688
150	0x3e7dbf44	0.24779993
151	0xbf60a2db	-0.877485
152	0xbe3b0c75	-0.1826647
153	0x3f11c074	0.56934285
154	0x3f2ad420	0.6672993
155	0x3ed2855a	0.41117364
156	0xbda67713	-0.0812818
157	0x3e8abbec	0.27096498
158	0xbf2328ff	-0.6373443
159	0xbf15e1ff	-0.5854797
160	0xbf7a8dc2	-0.97872555
161	0xbec3e8cb	-0.38263544
162	0x3faff610	1.3746967
163	0xbefb4117	-0.49073097
164	0x3e961e33	0.29319915
165	0x3d9aab38	0.07552189
166	0xbe77ccff	-0.24199294
167	0x3f550824	0.83215547
168	0xbee28084	-0.44238675
169	0x3f06514d	0.52467805
170	0xbb9c517b	-0.0047704554
171	0xbd7faf15	-0.06242283
172	0xbeaf3c9a	-0.34225923
173	0x3d09aa52	0.033609696
174	0xbd573575	-0.052541215
175	0xbf0db871	-0.5535956
176	0x3ecf5a35	0.4049851
177	0x3d7896ed	0.06069081
178	0xbebf2583	-0.37333307
179	0xbe27d133	-0.16388397
180	0xbe58d199	-0.21173705
181	0xbf280a6b	-0.65640897
182	0xbd324e18	-0.043531507
183	0x3f74face	0.956952
184	0x3f8ff36e	1.1246164
185	0xbe88f708	-0.2675097
186	0x3fad1a40	1.3523636
187	0xbe5da1d9	-0.21643771
188	0x3dc80db6	0.0976824
189	0x3f0659f6	0.5248102
190	0xbecf3808	-0.40472436
191	0xbeeb4fb8	-0.45959258

network_body._body_endoder.seq_layers.0.bias f4 [64]
0	0x3d33abfb	0.043865185
1	0x3d6b10f4	0.057389215
2	0xbd691cf7	-0.05691239
3	0x3d2d2a68	0.04227677
4	0x3b7d4bfc	0.0038650027
5	0x3d1edb11	0.038783137
6	0x3d3565bc	0.044286475
7	0xbc51af70	-0.012798175
8	0x3dbc45c9	0.09192998
9	0xbbab0b3d	-0.0052198456
10	0x39ebff66	0.0004501298
11	0xbc8bc237	-0.017060382
12	0xbd55d086	-0.052200817
13	0x3c98f9bd	0.018673772
14	0xbc83385c	-0.016018085
15	0x3caeb48a	0.021326322
16	0x3c44d433	0.012013483
17	0x3d4ea6e7	0.05045214
18	0xbd2a1488	-0.041523486
19	0x3d284451	0.041080777
20	0xbba5e490	-0.005062647
21	0x3c85020a	0.016236324
22	0x3cbc64b8	0.022997245
23	0x3d37e9d0	0.044900715
24	0x3dad6363	0.08466222
25	0x3c8d1332	0.017221067
26	0xbc149843	-0.009069505
27	0x3d1a82f2	0.037722535
28	0x3cbe59ba	0.023236144
29	0x3cc31cd9	0.023817467
30	0x3c04c572	0.008103715
31	0x3d3a196c	0.0454344
32	0xbb2d7216	-0.0026465706
33	0x3d2dcc93	0.042431425
34	0x39f12ce7	0.00046000557
35	0xbc2e28ff	-0.010629891
36	0xbbd46ee1	-0.0064829444
37	0x3cc2f9f7	0.023800833
38	0x3b86f522	0.0041185776
39	0x3cfb6b45	0.030690799
40	0x3d9889ca	0.07448156
41	0xbcadfcfe	-0.0212388
42	0x3d032a43	0.032022726
43	0x3ca76690	0.020434648
44	0x3ccbdaf1	0.024884673
45	0x3d983d86	0.0743361
46	0x3cc2d630	0.023783773
47	0xbcc237f6	-0.023708325
48	0xbce8ad73	-0.02840302
49	0x3b3816fb	0.002808987
50	0x3c13c309	0.009018668
51	0x3b0cff60	0.002151452
52	0xbce0953d	-0.027414912
53	0x3d219b8f	0.039454993
54	0xbc29d87a	-0.010366553
55	0xbd39c1e9	-0.045350943
56	0x3d2a6f16	0.041609846
57	0x3d36b7d8	0.04460892
58	0xbcc2dac7	-0.023785962
59	0xb904a554	-0.0001265009
60	0xbb40d05b	-0.0029421065
61	0x3c9c9f14	0.019118823
62	0xbc2c8af4	-0.010531176
63	0x3c30ecd6	0.010798654

network_body._body_endoder.seq_layers.2.weight f4 [64, 64]
0	0x3d650e43	0.055921804
1	0x3d0e9447	0.034809377
2	0x3b9745ef	0.004616491
3	0x3d168985	0.036752243
4	0xbe3f5b3c	-0.18687147
5	0x3e42b4c6	0.19014272
6	0xbd129f3a	-0.03579638
7	0xbd636623	-0.055517327
8	0xbb0db1a6	-0.002162078
9	0x3e88b3ce	0.2669968
10	0xbe23251d	-0.15932126
11	0xbdae1d35	-0.085016645
12	0x3dbc8d7f	0.09206676
13	0x3e33c250	0.17554593
14	0xbdfba933	-0.122881316
15	0xbddc7599	-0.107646175
16	0xbe40706a	-0.18792883
17	0x3dc44db1	0.09585131
18	0xbdb01a77	-0.08598798
19	0xbd09d85f	-0.033653613
20	0x3d5f6de3	0.054548156
21	0x3e0b749e	0.13618705
22	0x3e48ba60	0.19602346
23	0xbdc7cb57	-0.09755581
24	0x3e21460c	0.15749377
25	0xbe7fe127	-0.24988233
26	0xbde7d8a5	-0.113206185
27	0xbd3de2c5	-0.046358842
28	0x3c5f2391	0.01361932
29	0xbdfd76a7	-0.12376147
30	0xbe12f60a	-0.14351669
31	0x3d2c62bc	0.042086348
32	0xbd6f3a0b	-0.058404963
33	0x3e2869fd	0.16446681
34	0xbbaaad52	-0.0052086497
35	0x3cd82f58	0.026389763
36	0xbc037a2a	-0.008024732
37	0xbdef154e	-0.116739854
38	0xbd2b53c3	-0.04182793
39	0xbe458868	-0.19290316
40	0x3d9968e8	0.074907124
41	0xbd6f9fac	-0.058501884
42	0x3dd6bfe1	0.10485817
43	0x3ea65fde	0.32495016
44	0x3db72088	0.08941752
45	0x3db33868	0.08750993
46	0x3d414f13	0.04719455
47	0xbdc94ccf	-0.09829103
48	0xbdb0c584	-0.08631423
49	0xbd46d2cf	-0.048540886
50	0x3e27a074	0.16369802
51	0x3dc56fca	0.09640463
52	0x3d2da62a	0.042394795
53	0x3d4a126b	0.04933397
54	0xbcee81ef	-0.029114692
55	0x3c966972	0.018360827
56	0xbd4a4a4f	-0.049387272
57	0x3d0f6850	0.03501159
58	0xbe0f8af3	-0.14017849
59	0xbdd407d3	-0.10353055
60	0xbd74bd1d	-0.059750665
61	0xbd5864da	-0.052830555
62	0x3d1fc1ef	0.03900331
63	0xbd0226a2	-0.031775124
64	0xbd810886	-0.06300454
65	0xbcd2aee3	-0.025718158
66	0xbe53424b	-0.20630758
67	0xbe9be578	-0.30448508
68	0xbc81aec8	-0.015830413
69	0xbe18db48	-0.14927399
70	0x3e2a4262	0.16626886
71	0x3d88eb4e	0.06685506
72	0xbd2dfc9b	-0.04247723
73	0xbd461b91	-0.048366133
74	0x3de63c5b	0.11241981
75	0xbe7805ef	-0.24221013
76	0x3d76c2df	0.060244437
77	0xbe8a0ed2	-0.26964432
78	0x3e2428e5	0.16031225
79	0x3c22be10	0.00993301
80	0xbd84993c	-0.0647454
81	0x3e9fa625	0.31181446
82	0x3d85ba8d	0.06529722
83	0x3dcb972a	0.09940942
84	0x3ca2d40e	0.019876506
85	0xbdea8f51	-0.11453117
86	0xbd779048	-0.06044033
87	0x3e4551d8	0.19269502
88	0xbb05fea4	-0.0020445967
89	0xbd7f1d37	-0.06228372
90	0xbda2f0a7	-0.07956057
91	0x3c3ab7c6	0.011396354
92	0xbdd579db	-0.10423633
93	0x3e10cbd5	0.14140256
94	0x3d445160	0.047929168
95	0xbe2fc1a3	-0.1716371
96	0x3d13554d	0.03597002
97	0xbe4c6dca	-0.19963756
98	0x3d14ecca	0.036358632
99	0xbdceacc9	-0.1009155
100	0xbce1a37e	-0.02754378
101	0x3e37d7dc	0.17953438
102	0x3cb2df85	0.021835098
103	0xbcecf765	-0.02892656
104	0x3e5cdd43	0.2156878
105	0xbb99399f	-0.0046760584
106	0xbdb427c6	-0.08796649
107	0x3e205e28	0.15660918
108	0x3d33536e	0.043780737
109	0x3e500958	0.20316064
110	0xbe857cd2	-0.26071793
111	0x3e5823eb	0.21107452
112	0xbb1b473d	-0.0023693584
113	0x3d839f8e	0.06426917
114	0xbd6b8312	-0.057498045
115	0x3c850d48	0.016241685
116	0x3e4a051d	0.19728513
117	0xbd37d343	-0.04487921
118	0x3e179dc9	0.14806284
119	0xbe195b3c	-0.1497621
120	0xbdc77375	-0.097388186
121	0xbd790bcc	-0.060802266
122	0x3d471e26	0.048612736
123	0xbd6cc18e	-0.057801776
124	0x3e27babb	0.16379826
125	0xbcce0fea	-0.025154073
126	0x3dcf5f03	0.10125544
127	0xbd243fbc	-0.040099844
128	0xbd533ece	-0.051573567
129	0xbcfa9e4d	-0.030593062
130	0x3d62fd51	0.055417363
131	0x3d748833	0.059700202
132	0xbe41974c	-0.18905371
133	0x3e1d9b6a	0.15391317
134	0xbe259797	-0.16171108
135	0xbd9f851c	-0.077890605
136	0x3d03087e	0.03199052
137	0x3d73044c	0.05933027
138	0xbe173b8e	-0.14768812
139	0xbd11a142	-0.035554178
140	0x3e6a4128	0.22876418
141	0xbd2055f0	-0.039144456
142	0x3e5ee5ab	0.21767299
143	0x3e3bd4a0	0.18342829
144	0x3b530748	0.0032200385
145	0xbcee9926	-0.029125761
146	0x3dac582a	0.084152535
147	0xbc8ef3d3	-0.017450249
148	0xbd786328	-0.060641438
149	0x3e9289bb	0.28620705
150	0x3eda8e60	0.42686749
151	0xbcfe219f	-0.031021891
152	0xbdc3f061	-0.09567333
153	0xbe9d2b34	-0.30697024
154	0x3d12a750	0.035804093
155	0x3e6d048c	0.23146266
156	0x3e7030a2	0.23456052
157	0x3d624812	0.055244513
158	0xbe06925b	-0.13141768
159	0x3bb02420	0.0053754
160	0x3cd61a5c	0.026135616
161	0x3dd5e5c4	0.10444215
162	0xbc4b4ece	-0.012408925
163	0xbe393c95	-0.18089516
164	0xbeb8350c	-0.35977972
165	0x3e00c626	0.12575588
166	0x3db799c8	0.08964878
167	0x3e15fa9c	0.14646381
168	0x3e513773	0.20431308
169	0xbe2d7c2e	-0.16941902
170	0xbd049ebf	-0.032377955
171	0x3e4cfa73	0.20017414
172	0x3e59b060	0.21258688
173	0x3dba5ed2	0.09100117
174	0xbd074c1c	-0.033031568
175	0xbdcd6dae	-0.10030685
176	0xbe4bf30c	-0.19916934
177	0x3bfc9e96	0.0077093346
178	0xbddd70f7	-0.10812562
179	0x3cdfd1d5	0.027321735
180	0x3e138dff	0.14409636
181	0xbd80fbe5	-0.06298045
182	0xbde4bde7	-0.111690335
183	0xbdc24138	-0.09485096
184	0x3d31156d	0.043233324
185	0xbdd656d5	-0.10465781
186	0xbe0a0e03	-0.13481908
187	0xbdce2df7	-0.10067361
188	0xbccf732f	-0.025323479
189	0x3e548779	0.20754804
190	0xbd931d17	-0.07183283
191	0xbe71f0fc	-0.23627084
192	0x3e70db89	0.23521246
193	0xbda9071f	-0.08253311
194	0xbd904a6b	-0.07045444
195	0x3dbacafb	0.09120747
196	0x3e257fd3	0.16162042
197	0xbd8d7789	-0.06907565
198	0x3d9d4b73	0.076804064
199	0xbd3c3735	-0.045951087
200	0x3df22f16	0.11825387
201	0x3dcb615b	0.099306785
202	0x3e2d06c3	0.1689711
203	0xbd853d9f	-0.06505894
204	0x3df7dd9b	0.12102815
205	0x3d8caf09	0.06869323
206	0x3e39b304	0.18134695
207	0xbd927e35	-0.07152978
208	0xbd935707	-0.071943335
209	0xbccb1df4	-0.024794556
210	0xbe924e42	-0.2857533
211	0x3e10f80d	0.14157124
212	0xbcb85120	-0.02249962
213	0x3d54d5c0	0.05196166
214	0x3a243284	0.0006263631
215	0x3e2c4272	0.16822222
216	0xbdd280f4	-0.10278502
217	0x3d3e4905	0.046456356
218	0xbe409186	-0.18805513
219	0xbe9178a8	-0.28412366
220	0xbe2d4dc7	-0.16924201
221	0x3dc4449b	0.09583398
222	0x3ea8833f	0.32912633
223	0x3d00bc3b	0.03142951
224	0xbd58400a	-0.052795447
225	0xbe87c45b	-0.26516995
226	0x3e093a20	0.13401079
227	0x3d9370d1	0.071992524
228	0xbcb31c8f	-0.021864204
229	0x3e383b16	0.1799129
230	0xbc9e80bb	-0.019348493
231	0xbd225ba9	-0.039638195
232	0xbe48d42b	-0.19612186
233	0xbdb96116	-0.09051721
234	0xbe7060d3	-0.23474436
235	0x3e501de9	0.2032391
236	0xbd16c5ad	-0.036809612
237	0xbe8aef23	-0.27135572
238	0xbeafaec8	-0.34313035
239	0x3ea34aed	0.318931
240	0x3ddb2483	0.107003234
241	0x3e519fec	0.20471162
242	0x3d5f2dae	0.054486923
243	0xbe26ca1e	-0.16288039
244	0xbca1e42c	-0.019762121
245	0x3dedb5f4	0.116069704
246	0x3d0bdbe4	0.03414525
247	0xbdbcff1f	-0.09228348
248	0xbe510544	-0.20412165
249	0xbde99799	-0.11405868
250	0xbe937197	-0.287976
251	0x3e84789b	0.25873265
252	0x3e4b0935	0.19827731
253	0xbd1a623a	-0.037691332
254	0x3e035102	0.12823871
255	0xbe1d6198	-0.1536926

network_body._body_endoder.seq_layers.2.bias f4 [64]
0	0x3a050b86	0.00050752645
1	0xbbe0fd0c	-0.006866103
2	0x3d173a2a	0.036920704
3	0x3d161dfc	0.03664969
4	0x3d0f3a04	0.034967437
5	0xbd370814	-0.04468544
6	0xbcc6ed61	-0.024283113
7	0xbb9c76a3	-0.004774885
8	0xbd0fb3e9	-0.035083685
9	0x3cf9e528	0.030504778
10	0x3cef6688	0.029223695
11	0x3d005128	0.031327397
12	0xbcac7d6f	-0.021055905
13	0x3cad397c	0.021145575
14	0xbb110948	-0.0022130776
15	0xbc2cf64a	-0.010556767
16	0x3ca4392b	0.020046791
17	0xbc669d0c	-0.014075529
18	0xbcb3c7e1	-0.021945896
19	0x3ca4707d	0.02007317
20	0x3ba0cef2	0.0049074823
21	0x3c09ccdc	0.008410659
22	0x3d50b515	0.050953943
23	0x3c41ab0f	0.011820569
24	0x3d033e46	0.03204181
25	0x3ce403b0	0.02783379
26	0xbcdafe79	-0.02673267
27	0x3c0e4194	0.008682627
28	0xbca95255	-0.020669142
29	0x3c9727c4	0.018451579
30	0xbb31d64d	-0.002713579
31	0x3cc90745	0.0245396
32	0x3bd33115	0.00644506
33	0x3ceb63be	0.028734084
34	0xbce678ef	-0.028133838
35	0x3c9bf3ec	0.01903721
36	0x3c08f7c4	0.008359853
37	0x3d254e08	0.04035762
38	0xbc88a41f	-0.016679822
39	0x3d17a37d	0.03702115
40	0x3ccd30af	0.025047628
41	0xbb050982	-0.0020299857
42	0x3a11f68f	0.0005568051
43	0x3cf2e227	0.029648853
44	0x3cae1c8e	0.02125385
45	0xbc1668d2	-0.009180265
46	0x3ce8fc06	0.028440487
47	0x3cf7ee2e	0.03026494
48	0xbb2fe5a7	-0.0026839764
49	0x3cd4af23	0.025962418
50	0x3c2fbc2f	0.010726019
51	0x3b944648	0.0045249797
52	0x3d17c825	0.037056107
53	0x3d065398	0.032794565
54	0x3ae13d90	0.0017184485
55	0xbbf6b88e	-0.007529325
56	0x3b2b7609	0.0026162884
57	0xbd0239c4	-0.03179337
58	0xbd0db300	-0.034594536
59	0xbc0704ff	-0.008240937
60	0xbb748f83	-0.0037316985
61	0x3b191450	0.0023358054
62	0xbc598794	-0.013276953
63	0x3d1deda4	0.03855671

action_model._discrete_distribution.branches.0.weight f4 [2, 64]
0	0xbd9f7a2b	-0.077869736
1	0x3e01bbd3	0.12669306
2	0x3dbac627	0.09119826
3	0xbdd798d1	-0.10527194
4	0xbde0e637	-0.1098141
5	0x3de9ec0e	0.11421977
6	0x3de3c6ec	0.11121926
7	0xbd964647	-0.07337623
8	0xbd6e293f	-0.058144804
9	0xbdcd8870	-0.10035789
10	0x3deef66c	0.11668095
11	0x3d4cf126	0.050034665
12	0xbda151d6	-0.07876937
13	0xbdb49e53	-0.088192604
14	0x3d9cec6c	0.076622814
15	0xbdbda1aa	-0.092593506
16	0x3d73bc61	0.059505824
17	0xbddb7802	-0.10716249
18	0xbdbc953d	-0.092081524
19	0x3dc15f5d	0.09442017
20	0xbe055499	-0.13020553
21	0xbdfa791a	-0.122301295
22	0xbe0882c4	-0.13331133
23	0xbd963810	-0.07334912
24	0xbd8c3421	-0.0684588
25	0xbdaa182b	-0.08305391
26	0xbda36f04	-0.07980159
27	0xbdf71cb8	-0.120660245
28	0xbdce632e	-0.10077511
29	0xbd9d701f	-0.07687401
30	0x3db25529	0.08707649
31	0xbc85e675	-0.016345242
32	0xbdee8c9a	-0.11647911
33	0x3dd13999	0.10216064
34	0x3dc688d3	0.09694066
35	0xbd85863e	-0.06519745
36	0xbd15e55c	-0.036595687
37	0x3dc030a7	0.0938428
38	0xbd958b39	-0.07301945
39	0x3d36e047	0.04464748
40	0xbdbfc86e	-0.09364401
41	0x3dd7f836	0.10545389
42	0x3dd78a22	0.105243936
43	0x3dc79b8b	0.09746464
44	0x3daa21d3	0.08307233
45	0x3d43ec54	0.047832802
46	0xbdee0469	-0.11621935
47	0x3d1745fa	0.03693197
48	0x3dac0538	0.08399433
49	0xbd988989	-0.07448108
50	0xbdb94b63	-0.09047582
51	0xbd9664ae	-0.07343422
52	0x3dce8bee	0.10085283
53	0xbdbe7371	-0.092993625
54	0xbd876cb0	-0.06612527
55	0xbdd1f30c	-0.10251436
56	0xbdb9cdff	-0.09072494
57	0x3db41ec1	0.08794928
58	0xbdeaa3c5	-0.11457018
59	0x3d33c638	0.043890208
60	0xbddc8a6e	-0.10768591
61	0xbd9e3b5a	-0.07726164
62	0x3cf11666	0.029429626
63	0xbda95f28	-0.08270103
64	0x3dd67d01	0.10473061
65	0xbdf48cfc	-0.11940953
66	0xbdced02a	-0.10098298
67	0x3da0264f	0.07819807
68	0x3def2553	0.11677041
69	0xbdee4893	-0.11634936
70	0xbde3d729	-0.11125023
71	0x3da3c4a6	0.07996492
72	0x3d9478bb	0.0724959
73	0x3dd71fa3	0.10504081
74	0xbdfeb628	-0.12437087
75	0xbd91e7c6	-0.071242854
76	0x3d6cf48f	0.057850417
77	0x3d960ffd	0.07327268
78	0xbd9b0ecd	-0.075711824
79	0x3dddabdf	0.108237974
80	0xbd809d9e	-0.06280063
81	0x3def1f39	0.11675877
82	0x3dcbd002	0.09951784
83	0xbdc34393	-0.09534373
84	0x3e08e42d	0.13368292
85	0x3de43e9c	0.11144754
86	0x3df437ef	0.11924731
87	0x3dbb9612	0.09159483
88	0x3d8da4fd	0.06916235
89	0x3db631b0	0.08896196
90	0x3dcafbb9	0.099112935
91	0x3ddb7dc8	0.1071735
92	0x3db1acb5	0.086755194
93	0x3dbfdb82	0.0936804
94	0xbdbaade4	-0.09115198
95	0x3cd50d28	0.02600725
96	0x3df758c2	0.12077476
97	0xbdbfd3f3	-0.09366598
98	0xbdc994fc	-0.0984287
99	0x3da67764	0.08128241
100	0x3d83d60a	0.06437309
101	0xbdf26e6d	-0.11837468
102	0x3d37c506	0.04486563
103	0xbd548935	-0.051888663
104	0x3d91dfeb	0.07122787
105	0xbdcba716	-0.099439785
106	0xbd939a1c	-0.072071284
107	0xbdb33ab7	-0.08751433
108	0xbdd5c7cd	-0.104384996
109	0xbd8456c0	-0.06461859
110	0x3e002068	0.12512362
111	0xbd527efc	-0.051390633
112	0xbdecacbb	-0.11556383
113	0x3da7a8e9	0.08186514
114	0x3ddc313a	0.10751577
115	0x3d897d03	0.06713297
116	0xbdec8bfb	-0.11550137
117	0x3d9635ee	0.07334505
118	0x3d624809	0.05524448
119	0x3debee9d	0.11520121
120	0x3db6ae90	0.08920014
121	0xbd8dc025	-0.06921414
122	0x3e08e81d	0.13369794
123	0xbd5ff492	-0.0546766
124	0x3db664b4	0.08905926
125	0x3dc045f4	0.093883425
126	0xbd291fbc	-0.04129003
127	0x3da939af	0.082629554

action_model._discrete_distribution.branches.0.bias f4 [2]
0	0x3c95f7e8	0.018306687
1	0xbc95f7e2	-0.018306676

98 f4 [1, 256, 64]
0	0x3ded188e	0.11576949
1	0xbcc17b77	-0.023618443
2	0xbe2c7247	-0.16840468
3	0x3d57dc78	0.05270049
4	0xbe3bdc98	-0.18345869
5	0xbe8edbe8	-0.2790215
6	0xbdcb3ecb	-0.09924086
7	0xbe27834c	-0.1635868
8	0xbe6a252e	-0.22865745
9	0xbd890028	-0.06689483
10	0x3e3b84a8	0.18312323
11	0xbd5a95f0	-0.053365648
12	0xbe39b7cb	-0.18136518
13	0xbd5258d8	-0.05135426
14	0xbc9af690	-0.018916398
15	0x3e221fff	0.15832518
16	0xbdfd7e61	-0.123776205
17	0xbd5ecce8	-0.054394633
18	0xbe0e1e0f	-0.13878654
19	0x3e083016	0.13299593
20	0x3d399893	0.04531152
21	0x3db9606f	0.090515964
22	0xbdc88ec6	-0.09792857
23	0xbe1593f2	-0.14607218
24	0xbd997a2f	-0.07494008
25	0xbd41e149	-0.04733399
26	0xbe472973	-0.19449405
27	0xbe368edf	-0.17827938
28	0xbdd1c563	-0.10242727
29	0x3e1b54aa	0.15169016
30	0x3d83d8f7	0.06437867
31	0x3e043a9e	0.12912986
32	0x3e48370c	0.19552249
33	0x3cc42bf8	0.023946747
34	0xbe0d88e9	-0.13821758
35	0x3d524a8c	0.051340625
36	0x3e048764	0.12942272
37	0xbe5b5446	-0.21418867
38	0xbe34f016	-0.1766971
39	0xbddef54f	-0.10886633
40	0x3e37072a	0.17873827
41	0xbdfa6f0f	-0.12228214
42	0xbe042a4b	-0.12906758
43	0x3e2e4a18	0.17020452
44	0x3dc1a372	0.09455003
45	0x3d10c465	0.035343546
46	0xbd608a8e	-0.054819636
47	0xbd63a453	-0.055576634
48	0x3dea8386	0.11450867
49	0x3d0b6d17	0.034039583
50	0x3e39e885	0.18155105
51	0xbe801e28	-0.25023007
52	0x3da166cc	0.07880935
53	0xbd8caf99	-0.0686943
54	0xbe5d9a79	-0.21640958
55	0x3e1b7849	0.15182604
56	0xbe20eeb5	-0.1571606
57	0xbe05aff5	-0.13055404
58	0xbd56118e	-0.052262835
59	0xbdb3daee	-0.08781992
60	0xbda5224c	-0.08063182
61	0xbd2957e4	-0.041343585
62	0xbd873aa8	-0.06602985
63	0x3e1eab00	0.15494919
64	0x3e95035a	0.2910412
65	0xbe679dbd	-0.22618766
66	0xbd979d6b	-0.07403072
67	0xbdcaf7e9	-0.09910566
68	0x3e2f9aeb	0.1714894
69	0x3e273846	0.1633006
70	0x3e067f9e	0.1313462
71	0x3c89cb54	0.016820587
72	0xbe2bb403	-0.16767888
73	0x3e3b1039	0.18267907
74	0xbd547fe1	-0.051879767
75	0x3d6ed1d0	0.05830556
76	0xbd892538	-0.06696552
77	0xbcd8254e	-0.026384976
78	0xbde13a76	-0.10997479
79	0xbda76a20	-0.081745386
80	0x3d8a86b0	0.06763971
81	0x3c7f58a6	0.0155851
82	0xbe3103a4	-0.17286545
83	0x3e3c937b	0.18415634
84	0x3e13c349	0.14429964
85	0xbe7a73b1	-0.24458195
86	0xbc92b21e	-0.017907199
87	0x3d920d5e	0.07131456
88	0x3c02cdff	0.007983684
89	0xbd3cf623	-0.04613317
90	0xbe4818f1	-0.19540764
91	0x3e5fbe57	0.21849953
92	0xbe878649	-0.2646964
93	0xbc567ddf	-0.013091533
94	0x3d8aa9fd	0.06770704
95	0x3e306481	0.17225839
96	0x3ca8a271	0.02058527
97	0xbd32885a	-0.043587066
98	0xbb066372	-0.0020506051
99	0xbcb0f8d9	-0.021603035
100	0xbe7d512b	-0.24737994
101	0xbe155016	-0.14581332
102	0xbdc6cbc2	-0.097068325
103	0xbdd798a5	-0.105271615
104	0x3e87aad7	0.26497528
105	0x3cae73c5	0.021295438
106	0x3e529650	0.20565152
107	0xbd3bbc58	-0.045833915
108	0xbd8dc397	-0.069220714
109	0x3e10169a	0.14071122
110	0xbe727df2	-0.23680857
111	0x3e80fab8	0.25191283
112	0xbe4810eb	-0.19537704
113	0x3e4945f6	0.19655594
114	0xbded61ee	-0.11590944
115	0xbd1a5dd4	-0.037687138
116	0xbde8433b	-0.11340948
117	0x3e057480	0.13032722
118	0x3e74f936	0.23923191
119	0xbe9e77f3	-0.3095089
120	0xbe81fde4	-0.25389016
121	0x3d5a5ec0	0.053313017
122	0xbd3929d1	-0.045205895
123	0x3d97f210	0.07419217
124	0xbd371b1d	-0.04470359
125	0xbda201e7	-0.07910519
126	0xbdf33ed8	-0.11877221
127	0xbcc42fa5	-0.0239485
128	0x3d947e86	0.07250695
129	0x3e05f8ef	0.13083242
130	0xbd3f428a	-0.046694316
131	0x3e14d9c7	0.145362
132	0x3e096913	0.13418989
133	0xbe58da78	-0.21177089
134	0xbdb620ed	-0.08892999
135	0x3e1572f1	0.14594628
136	0xbe4f9014	-0.20269805
137	0x3d10cf85	0.035354156
138	0x3e0b02c0	0.13575268
139	0x3e1a68f2	0.15079096
140	0xbdd78f2d	-0.105253555
141	0xbe122c5b	-0.14274733
142	0xbe53da52	-0.20688751
143	0xbe5b3e83	-0.21410565
144	0x3d132eb4	0.03593321
145	0xbe85f097	-0.26160118
146	0xbe33f309	-0.1757318
147	0xbe8245ab	-0.25443777
148	0xbe6e0a37	-0.23246084
149	0x3ca450b1	0.020058008
150	0x3e271a5b	0.16318648
151	0x3cb8003d	0.022461051
152	0x3e74f4c5	0.23921497
153	0xbdb77de2	-0.08959557
154	0x3debe87c	0.11518952
155	0x3dc84786	0.09779267
156	0xbe7c591e	-0.2464337
157	0xbdf910f2	-0.12161435
158	0x3dde1a78	0.10844892
159	0xbd58b3cf	-0.052905854
160	0xbd431734	-0.04762955
161	0x3e612158	0.21985376
162	0x3e2ea730	0.17055964
163	0x3cbe9d68	0.023268417
164	0x3d954a4d	0.072895624
165	0xbe100fb2	-0.14068487
166	0x3ce59605	0.028025636
167	0x3e869562	0.26285845
168	0xbe059dbd	-0.13048454
169	0x3d0be524	0.034154072
170	0x3d5064da	0.05087743
171	0xbe0267ee	-0.12734959
172	0x3d197ca7	0.037472393
173	0xbd656873	-0.056007814
174	0xbd0fdc89	-0.035122428
175	0x3db0b3bb	0.08628031
176	0xbdb34185	-0.08752731
177	0x3de010b3	0.10940685
178	0x3e553145	0.20819576
179	0x3e1f69bf	0.15567683
180	0xbc40e949	-0.0117743695
181	0x3e346081	0.17614938
182	0xbda30ba4	-0.07961205
183	0x3dbaad31	0.09115065
184	0xbe705fb4	-0.23474008
185	0x3e3bd310	0.18342233
186	0x3e201ede	0.15636775
187	0xbe63390c	-0.2218973
188	0x3d45968e	0.048239283
189	0xbe6aa3f8	-0.22914112
190	0x3deb32ca	0.114842966
191	0x3e22a9e2	0.15885118
192	0xbc44fb6b	-0.012022833
193	0x3dc2c947	0.09511047
194	0x3cb387ff	0.021915434
195	0x3e3511e4	0.17682606
196	0x3d5e2b23	0.054240357
197	0xbe71e87a	-0.23623839
198	0x3e135bef	0.14390539
199	0xbd7d2d5b	-0.061810832
200	0xbe0b6f7f	-0.13616751
201	0x3e2eddbf	0.17076777
202	0x3d6a0c96	0.05714091
203	0xbdce616a	-0.10077174
204	0xbdba125b	-0.09085532
205	0x3dfc0b95	0.123068966
206	0x3e2beb8a	0.1678907
207	0xbe0a68de	-0.13516566
208	0xbe3205f0	-0.17385077
209	0x3e354bf1	0.1770475
210	0xbdd5ee19	-0.10445804
211	0xbe4cd2a9	-0.20002235
212	0xbdc55211	-0.096347935
213	0xbe70e936	-0.23526463
214	0xbd065739	-0.032798026
215	0x3d6a8055	0.057251293
216	0x3dc84dcf	0.09780466
217	0x3e54e229	0.20789398
218	0xbd55e7b7	-0.052222934
219	0x3e42e245	0.19031627
220	0xbdc0a446	-0.09406333
221	0xbe207d51	-0.15672804
222	0xbe1b1b63	-0.15147166
223	0x3e3248cd	0.17410584
224	0xbe44e74f	-0.19228862
225	0xbe01add3	-0.12663965
226	0xbdd0a774	-0.10188189
227	0xbcd1cb89	-0.025609748
228	0xbc958fcc	-0.018257044
229	0x3c287d55	0.010283788
230	0xbd0c9aeb	-0.03432743
231	0xbd7c3884	-0.061577335
232	0x3dba99f3	0.09111395
233	0xbdd49453	-0.10379853
234	0xbe1083f5	-0.14112838
235	0x3e6f0155	0.23340352
236	0x3d7bf176	0.061509572
237	0x3743aa7b	1.1662599e-05
238	0x3e08a829	0.13345398
239	0x3e419a83	0.18906598
240	0x39d8bafa	0.0004133804
241	0x3da89d55	0.08233134
242	0x3e31d880	0.17367744
243	0x3d88b74f	0.06675588
244	0xbd489a33	-0.04897518
245	0xbd1d2906	-0.0383692
246	0xbdedd347	-0.116125636
247	0x3d89c61e	0.06727241
248	0x3decc179	0.115603395
249	0xbe2ec112	-0.17065838
250	0x3d18b1c4	0.037278906
251	0xbe15437d	-0.14576526
252	0x3dd6af31	0.10482634
253	0x3df23240	0.11825991
254	0xbdbc4f58	-0.09194821
255	0x3dff7461	0.124733694

99 f4 [1, 256, 64]
0	0xbe7b2343	-0.2452517
1	0xbe046e31	-0.1293266
2	0x3e50466b	0.20339362
3	0xbe612286	-0.21985826
4	0x3d9818ee	0.0742663
5	0x3e2d0c34	0.16899186
6	0xbd99b0da	-0.07504435
7	0x39e79f44	0.00044178416
8	0xbe7a0e49	-0.24419512
9	0x3dc163ff	0.09442901
10	0xbe383dbb	-0.17992298
11	0x3e571473	0.21003895
12	0xbda5fd1d	-0.08104918
13	0x3dc0e62b	0.09418901
14	0xbe1d5166	-0.15363082
15	0x3d456ab7	0.048197474
16	0x3e5e34ca	0.21699825
17	0xbdf49d67	-0.119440846
18	0x3de5fe87	0.11230188
19	0xbd8709f6	-0.06593697
20	0xbe35e79d	-0.17764135
21	0x3dd207a3	0.10255363
22	0x3e194a7b	0.14969818
23	0xbe76aed3	-0.24090128
24	0xbe5f8aef	-0.21830343
25	0xbe0069bc	-0.12540334
26	0xbdab8268	-0.083744824
27	0x3d0e7a56	0.034784637
28	0xbe11d07e	-0.1423969
29	0xbd9da41b	-0.07697316
30	0xbd8f5dca	-0.07000311
31	0x3d960571	0.073252566
32	0xbc8dc605	-0.017306337
33	0x3d9e20b2	0.0772108
34	0xbda8f215	-0.082492985
35	0xbdb47db1	-0.08813036
36	0x3d0a300c	0.033737227
37	0xbd26afa9	-0.040694866
38	0xbb92a080	-0.0044746995
39	0x3e456cd1	0.19279791
40	0xbe4fbdbb	-0.2028722
41	0x3d932b41	0.071859844
42	0x3dd6c8a6	0.104874894
43	0x3dcd66b0	0.10029352
44	0xbdac19e8	-0.08403379
45	0x3e5eb636	0.21749195
46	0x3b76c103	0.0037651665
47	0x3e038d65	0.12846906
48	0xbe251c45	-0.16124065
49	0xbba5068c	-0.005036181
50	0xbe3071f1	-0.17230965
51	0x3c6ec8c5	0.014574234
52	0x3d7b9941	0.06142545
53	0x3e28cacb	0.1648361
54	0x3ce55c32	0.027998064
55	0x3dfad336	0.122473165
56	0x3b27fb2b	0.0025631886
57	0x3e17e80e	0.14834616
58	0x3daa3fbb	0.08312937
59	0xbdd932b2	-0.106053725
60	0x3d86d572	0.0658368
61	0xbe7c4eab	-0.24639384
62	0x3b647269	0.0034858233
63	0xbcc9808c	-0.024597429
64	0x3cd36503	0.025805002
65	0x3e253759	0.16134395
66	0x3e2cd046	0.16876325
67	0x3e1cbf39	0.1530732
68	0x3d057f53	0.03259213
69	0x3e63fa0f	0.22263359
70	0x3c9051c4	0.017617114
71	0xbe05ea4c	-0.13077658
72	0xbe5015fd	-0.20320888
73	0x3cdb7f0b	0.026793977
74	0x3e162fa3	0.1466661
75	0xbdbbff2e	-0.09179531
76	0xbe4434c1	-0.19160749
77	0x3dd6aac9	0.104817934
78	0xbd83b234	-0.06430474
79	0xbd6bd02a	-0.057571568
80	0x3d0c92f5	0.034319837
81	0xbe125076	-0.14288506
82	0xbc936414	-0.017992057
83	0xbe35fa19	-0.17771186
84	0x3e2f0129	0.17090286
85	0x3daaafe0	0.08334327
86	0xbe046a51	-0.12931181
87	0xbe2c84a9	-0.16847481
88	0x3d2382fd	0.039919842
89	0x3de5f055	0.1122748
90	0xbdfdb462	-0.12387921
91	0xbe44bf20	-0.19213533
92	0xbe6a58cc	-0.22885436
93	0xbe178d37	-0.14799963
94	0x3e69cc15	0.22831757
95	0x3d8133ad	0.063086845
96	0xbe6e0cec	-0.23247117
97	0x3d35d9a7	0.044397023
98	0xbdf47105	-0.11935619
99	0xbd68351e	-0.05669128
100	0xbc9f67ef	-0.01945874
101	0x3e65a3cd	0.22425766
102	0x3e13cf7d	0.14434619
103	0x3e63917b	0.22223465
104	0xbd9158e0	-0.0709703
105	0x3da01d53	0.07818093
106	0x3db83627	0.08994704
107	0x3e1a9e45	0.15099438
108	0x3e039536	0.12849888
109	0x3e386d77	0.18010508
110	0x3daabfef	0.0833739
111	0x3c4ac886	0.01237691
112	0x3c6138d4	0.013746459
113	0xbd0ec556	-0.034856163
114	0x3dc6c561	0.09705616
115	0x3d67e300	0.05661297
116	0xbe05b7a3	-0.13058333
117	0x3dddf00a	0.108367994
118	0xbde0507c	-0.10952851
119	0x3dae5dc2	0.08513977
120	0xbd950c31	-0.07277716
121	0xbe3a3c19	-0.18186988
122	0x3e4e6ece	0.20159456
123	0xbdbedcbe	-0.09319447
124	0xbe281d96	-0.16417536
125	0xbc739429	-0.014866867
126	0x3ddfda17	0.10930269
127	0xbddf4e54	-0.10903612
128	0x3da242c4	0.07922891
129	0x3deb9703	0.115034126
130	0x3e34a9c5	0.17642887
131	0xbe02f1e9	-0.12787594
132	0xbe213970	-0.15744567
133	0xbd48e668	-0.049047858
134	0xbe000ccd	-0.12504883
135	0x3df10e6a	0.117703274
136	0xbd023260	-0.031786323
137	0xbdda093e	-0.10646294
138	0x3e2ffff0	0.17187476
139	0xbe295442	-0.16536048
140	0x3e5bce89	0.21465506
141	0xbcceb7c7	-0.025234116
142	0xbd83e963	-0.06440999
143	0x3e13f2ee	0.14448139
144	0x3df6457c	0.12024972
145	0x3d4b8b4d	0.049693394
146	0xbd3f0301	-0.046633724
147	0x3e203473	0.15645008
148	0x3dcefd24	0.101068765
149	0x3c5a8867	0.013338185
150	0xbd3dedb3	-0.046369266
151	0x3d83b892	0.06431688
152	0xbe169c0d	-0.14707966
153	0xbcb299b8	-0.021801814
154	0x3d44c7b1	0.048042003
155	0x3e41ae8b	0.18914239
156	0xbdea0e96	-0.11428563
157	0xbe3800d4	-0.17969066
158	0x3ccff3bf	0.025384782
159	0xbd593a7b	-0.053034287
160	0xbdebb20d	-0.1150857
161	0xbdb4f6bc	-0.08836123
162	0x3d82e011	0.063903935
163	0xbd182c10	-0.037151396
164	0x3dca649a	0.098824695
165	0x3ce983ca	0.028505225
166	0xbdec26a9	-0.11530811
167	0xbdc17df6	-0.09447853
168	0x3daf82db	0.085698806
169	0x3e1c152b	0.1524245
170	0x3d762a4d	0.060098935
171	0xbd877c0e	-0.066154584
172	0x3c957dd5	0.018248478
173	0x3e2bbed3	0.16772012
174	0x3e83d828	0.25750852
175	0xbe0e4f5f	-0.13897465
176	0xbe485b0a	-0.19565979
177	0x3d1e5b27	0.03866115
178	0x3e724afd	0.23661418
179	0x3e7612de	0.24030635
180	0xbe016b5a	-0.12638608
181	0xbdff1aa8	-0.12456256
182	0xbe06403a	-0.13110438
183	0xbe4b7ac4	-0.1987105
184	0x3e1bf819	0.1523136
185	0x3db9d373	0.09073534
186	0x3db5375d	0.0884845
187	0x3cb1b474	0.021692492
188	0x3dadec11	0.08492292
189	0xbe2a182e	-0.16610786
190	0x3de4ac76	0.11165707
191	0x3da0367e	0.078228936
192	0x3d996ba2	0.074912325
193	0xbce5b501	-0.028040411
194	0x3e177db3	0.14794044
195	0xbe2ab0ce	-0.16669008
196	0xbd200df1	-0.039075796
197	0xbde8b892	-0.11363329
198	0x3e334fcb	0.17510907
199	0x3e507427	0.20356809
200	0xbdf56609	-0.11982352
201	0xbddb6e67	-0.10714417
202	0x3e27c07f	0.16382025
203	0xbd725fb7	-0.059173312
204	0xbd26e315	-0.040743906
205	0xbe30dc48	-0.1727153
206	0x3e59ebf2	0.21281412
207	0x3cb1bb9f	0.02169591
208	0xbc532075	-0.012886156
209	0xbe24b117	-0.1608318
210	0x3cd2b3bb	0.025720468
211	0xbdc47e78	-0.095944345
212	0xbd06204c	-0.032745644
213	0x3e079063	0.13238673
214	0xbc4c4bb9	-0.012469226
215	0xbe047714	-0.1293605
216	0x3d449dd2	0.04800207
217	0xbe42fbef	-0.19041418
218	0x3ca6afaf	0.020347444
219	0x3e50b903	0.20383076
220	0xbe5bc32f	-0.21461175
221	0xbd781d72	-0.060574956
222	0x3da640cb	0.08117827
223	0x3e3a6584	0.18202788
224	0x3cd5d0aa	0.026100475
225	0x3e1cbee6	0.15307197
226	0xbe5bbcce	-0.21458742
227	0xbe11b3e7	-0.14228784
228	0x3d099bb4	0.033595756
229	0x3cf4fb61	0.029905023
230	0x3d8d1ff5	0.06890861
231	0xbd8655ff	-0.06559371
232	0x3b5b2254	0.003343721
233	0x3e559476	0.20857415
234	0x3ca01373	0.019540524
235	0xba156982	-0.0005699621
236	0xbcc2b278	-0.023766741
237	0xbe08908a	-0.13336387
238	0x3e01deb5	0.12682612
239	0x3e3d66f6	0.18496308
240	0x3e112e20	0.14177752
241	0xbd90aa8c	-0.07063779
242	0x3d9c1038	0.07620281
243	0xbddf91a2	-0.10916449
244	0x3db23927	0.08702307
245	0xbe540adc	-0.20707268
246	0xbc7655ec	-0.015035134
247	0x3e357ce1	0.17723419
248	0x3b91af31	0.0044459333
249	0x3d43e165	0.047822375
250	0x3d9a3737	0.07530063
251	0xbddb554e	-0.1070963
252	0x3da36da0	0.07979894
253	0x3dcc237e	0.09967707
254	0xbe434b50	-0.19071698
255	0xbd07de7c	-0.033171162

100 f4 [1, 512]
0	0x3d967d01	0.07348061
1	0x3c92a8ec	0.017902814
2	0x3c672a2f	0.014109178
3	0x3caeb78d	0.021327758
4	0x3d3d12f2	0.046160646
5	0x3d254ad4	0.040354565
6	0x3ced8d4d	0.028998042
7	0x3cf9f6f6	0.030513268
8	0x3c99c39c	0.018770032
9	0x3d12f869	0.035881434
10	0xbc86a095	-0.016433993
11	0x3d46459b	0.048406225
12	0x3c4044e1	0.011735172
13	0x3d424772	0.047431417
14	0x3d376cd8	0.044781536
15	0x3d7d86b9	0.06189606
16	0x3d24a218	0.040193647
17	0x3d57dc92	0.052700587
18	0x3d42594b	0.047448438
19	0x3d3f0ed4	0.046645
20	0x3d8f0bae	0.069846496
21	0x3d3751c8	0.044755727
22	0x3cb53f6b	0.022124967
23	0x3d12b3b4	0.03581591
24	0x3d16a006	0.036773704
25	0x3d06ae23	0.032880913
26	0x3d31ac57	0.043377247
27	0x3cc520ef	0.024063556
28	0x3d0339d6	0.03203758
29	0x3d0a9033	0.033828925
30	0x3d321b00	0.04348278
31	0xbc51f627	-0.012815035
32	0x3dbdfcfc	0.092767686
33	0x3d01c9f1	0.031686727
34	0x3c8725a8	0.016497448
35	0x3d1ecbaa	0.038768448
36	0xbcbddacf	-0.023175625
37	0x3d76e450	0.06027633
38	0x3c19c231	0.009384678
39	0x3d487a65	0.04894485
40	0x3be75e25	0.0070607834
41	0x3d222a8f	0.03959137
42	0x3cda98e9	0.026684241
43	0x3d0ca694	0.03433855
44	0x3ce12e39	0.027487861
45	0xbc22deb7	-0.009940795
46	0x3daf2854	0.08552614
47	0x3c0678cc	0.008207511
48	0x3cec97fe	0.02888107
49	0x3cd1f6c5	0.025630364
50	0x3d306164	0.04306163
51	0x3d22be95	0.039732534
52	0x3dba0c9e	0.09084438
53	0x3d8bea54	0.06831804
54	0xbbc3f7a5	-0.0059804493
55	0x3d5fe718	0.054663748
56	0x3d3b8e77	0.045790162
57	0x3c2581ec	0.010101777
58	0x3ceadf06	0.028670799
59	0x3cc84841	0.024448516
60	0x3cf9bd9f	0.030485926
61	0x3d08ab54	0.033366516
62	0x3d02b7e1	0.03191364
63	0x3c629940	0.013830483
64	0x3d642275	0.055696923
65	0x3db5b503	0.08872416
66	0x3b39c0f9	0.002834378
67	0x3c785bd7	0.015158615
68	0x3db80d42	0.08986904
69	0x3dc05117	0.09390467
70	0x3db45351	0.08804954
71	0x3ca6257f	0.020281551
72	0x3c42832c	0.011872094
73	0x3c591590	0.01324977
74	0x3d839730	0.06425321
75	0x39ecdba6	0.0004517708
76	0xbad09cdf	-0.0015915892
77	0x3c6b0e0b	0.01434661
78	0x3d5b8bb0	0.053600013
79	0x3d69865c	0.0570129
80	0x3d009773	0.031394433
81	0x3d8b9ea3	0.06817367
82	0x3d89c319	0.06726665
83	0x3d3ed349	0.046588216
84	0x3da8e50e	0.08246814
85	0x3da5206d	0.08062825
86	0x3ded7449	0.11594445
87	0x3c4d682b	0.012537043
88	0xbc67bd4f	-0.014144256
89	0x3c146d39	0.009059244
90	0x3d3037dc	0.04302202
91	0x3dc06bc1	0.093955524
92	0x3cd9b63c	0.026576154
93	0xbc048071	-0.008087263
94	0x3ce22a08	0.027607933
95	0x3cb41c72	0.02198622
96	0x3da70579	0.08155341
97	0x3bc2ff8b	0.0059508733
98	0x3d7b6e9e	0.06138479
99	0x3c2e4481	0.01063645
100	0xbcad753f	-0.021174071
101	0x3d803bea	0.06261428
102	0xbd183ef9	-0.03716943
103	0x3cecec4f	0.028921274
104	0xbc55dbc9	-0.013052889
105	0x3d5cddfa	0.05392263
106	0x3cb93e58	0.022612736
107	0x3d1c8afd	0.038218487
108	0x3d3dd80c	0.046348616
109	0x3d027c96	0.031857096
110	0x3da10e74	0.07864085
111	0xbb8b1748	-0.0042447187
112	0x3cc317e0	0.023815095
113	0x3bd3bd40	0.0064617693
114	0x3d999d42	0.07500698
115	0xbb17f3c3	-0.0023186065
116	0x3dc3280e	0.09529124
117	0x3d383a0a	0.044977225
118	0xbc4c3b63	-0.012465331
119	0x3d771606	0.060323738
120	0x3c9cf9fe	0.019162174
121	0x3cdd98ef	0.027050463
122	0x3da61a38	0.081104696
123	0x3d5b9da4	0.053617135
124	0xb9ba32ee	-0.0003551463
125	0x3ade24e1	0.0016948247
126	0x3d049db3	0.032376956
127	0x3c4a4d46	0.012347525
128	0x3f7d5833	0.98962706
129	0x3f7dca93	0.9913723
130	0x3f763d32	0.96187127
131	0x3f8321db	1.0244707
132	0x3f7f5a76	0.9974741
133	0x3f80057b	1.0001673
134	0x3f7b01cc	0.98049617
135	0x3f808b01	1.0042421
136	0x3f7f614b	0.9975783
137	0x3f822e69	1.0170413
138	0x3f7e2252	0.9927112
139	0x3f82a31e	1.020603
140	0x3f81a234	1.0127625
141	0x3f77e808	0.96838427
142	0x3f78817b	0.9707257
143	0x3f77108b	0.9650962
144	0x3f7c4379	0.98540455
145	0x3f77819d	0.9668215
146	0x3f81cf01	1.0141298
147	0x3f7e474a	0.9932753
148	0x3f71b716	0.9441999
149	0x3f825f06	1.0185249
150	0x3f7d7dcd	0.9902008
151	0x3f823f8c	1.0175643
152	0x3f7e3d61	0.99312407
153	0x3f835911	1.0261556
154	0x3f7b3c35	0.98138744
155	0x3f7ecc25	0.9953025
156	0x3f8130be	1.0093
157	0x3f821669	1.0163089
158	0x3f8267ce	1.0187929
159	0x3f81e144	1.0146871
160	0x3f7efef2	0.99607766
161	0x3f7f518d	0.9973381
162	0x3f7b6b32	0.9821044
163	0x3f821e0b	1.0165418
164	0x3f79da2f	0.97598547
165	0x3f7dcf0c	0.99144053
166	0x3f80ebc6	1.0071952
167	0x3f7e2d00	0.99287415
168	0x3f7e7e62	0.99411595
169	0x3f7ee7fd	0.99572736
170	0x3f835d73	1.0262893
171	0x3f81e1f5	1.0147082
172	0x3f817894	1.0114923
173	0x3f78dcb1	0.9721175
174	0x3f7be4fa	0.98396266
175	0x3f812375	1.0088946
176	0x3f80de53	1.0067848
177	0x3f82b3a3	1.0211071
178	0x3f801cb5	1.0008761
179	0x3f80d80a	1.006593
180	0x3f78e520	0.97224617
181	0x3f7abb2b	0.97941846
182	0x3f7efa40	0.996006
183	0x3f80b814	1.0056176
184	0x3f80fff5	1.0078112
185	0x3f81ece1	1.0150415
186	0x3f811cbe	1.0086896
187	0x3f81708f	1.0112475
188	0x3f82ad6d	1.0209175
189	0x3f84abfd	1.0364987
190	0x3f7b6800	0.98205566
191	0x3f82b933	1.0212768
192	0x3c55d84f	0.01305206
193	0x39406881	0.00018349478
194	0x3cdbd10e	0.026833083
195	0xbc7407c3	-0.014894429
196	0xbc85f055	-0.01634995
197	0x3baf5a41	0.0053513353
198	0x3ad441f3	0.0016193971
199	0xbce9c631	-0.028536888
200	0xbc050b86	-0.008120423
201	0xbc9afc56	-0.018919151
202	0xbbf1eb99	-0.0073828218
203	0x3c6ea083	0.014564636
204	0xbcaef720	-0.021358073
205	0xbcce5313	-0.025186097
206	0xba704153	-0.00091650075
207	0x3c44020f	0.011963381
208	0x3c0026e5	0.007821773
209	0xbc420756	-0.011842569
210	0x39a666ec	0.0003173867
211	0xbc0748bf	-0.00825709
212	0xbbfd519e	-0.007730677
213	0x3b9d21fa	0.00479531
214	0xbcccab1c	-0.024983935
215	0xbc90db15	-0.017682591
216	0xbcda3266	-0.02663536
217	0xbc9b4b92	-0.018956933
218	0xbc1e88f3	-0.009676206
219	0x3c1c0f41	0.009525121
220	0xbcea92ff	-0.028634546
221	0xbc73c3da	-0.014878238
222	0x3d0c5b85	0.034266967
223	0x3c517dfe	0.012786387
224	0x3be4bd6e	0.0069805896
225	0x3c459eec	0.012061816
226	0x3bc296e9	0.0059384
227	0xbd240b8f	-0.040050086
228	0x3b50778c	0.0031809537
229	0x3c83abeb	0.016073188
230	0xbc79752a	-0.015225688
231	0x39f62cf9	0.00046954284
232	0xbc803d86	-0.015654337
233	0x3bd91769	0.006625105
234	0x3cd8071f	0.026370583
235	0x3c51c464	0.012803171
236	0x3c944eac	0.01810392
237	0xbc8125b8	-0.015765056
238	0xbc0a0d54	-0.008426029
239	0xbb63a79e	-0.0034737359
240	0x3cfc5c46	0.030805718
241	0xbca95d0b	-0.02067425
242	0x3bae4dea	0.0053193467
243	0xbbc9884b	-0.0061502806
244	0xbc83daf7	-0.016095622
245	0xb94df25e	-0.00019640612
246	0x3b677204	0.0035315761
247	0x3b94b26c	0.004537871
248	0xbcf12d22	-0.029440466
249	0x3d089659	0.033346508
250	0xbc4177ba	-0.01180833
251	0x3c9422c6	0.018082988
252	0xbcb3d759	-0.021953272
253	0xbcd1d177	-0.025612576
254	0xbbdf9e79	-0.0068243113
255	0xbcff4831	-0.031162353
