results/Test6/Jumper/checkpoint.pt (torch, 927964 bytes, 57 tensors)

network_body._body_endoder.seq_layers.0.weight f4 [64, 3]
000000 2a 58 2f bf f9 48 f0 3e c9 b5 0a 3f 75 c0 0d 3f
       -0.684939 0.46930674 0.5418363 0.5537179
000010 19 18 4e bf e3 23 6f bf 2b c7 98 3e 31 d9 16 bf
       -0.8050552 -0.93414134 0.29839453 -0.5892516
000020 de c2 89 3f c0 8e 63 be 3a 5b 48 bd df 29 08 bf
       1.0762594 -0.22222424 -0.048915125 -0.5318889
000030 d0 b5 1a 3f a9 03 a5 3f 3f ef b8 be 51 e7 32 3e
       0.60433674 1.2891742 -0.3612003 0.17471053
000040 5a 81 58 be dd 44 8a be 67 3f b5 be cf 0d b0 be
       -0.21143094 -0.27005664 -0.35399935 -0.34385535
000050 ae 25 c9 3e 59 14 54 3e 4c f6 97 bf bc 38 0e bf
       0.3928656 0.20710887 -1.1872039 -0.5555532
000060 a5 da bf 3e 18 66 10 3f c5 c0 2d be c9 c6 4d 3e
       0.374715 0.5640578 -0.16968067 0.20095362
000070 48 2a 20 bf 39 92 cb bd ec ed b7 be 22 ab 8a 3c
       -0.62564516 -0.09939999 -0.35923707 0.016927306
000080 b2 4d 0e 3f e9 e3 0d 3f eb ef 01 3f d1 ad 84 3e
       0.55587304 0.5542589 0.5075671 0.2591386
000090 bd 7f 21 3e c5 77 5f 3f 8d e3 16 bf d3 15 76 3f
       0.15771385 0.8729213 -0.58940965 0.9612705
0000a0 f3 b0 bf ba b6 05 9e be b9 29 30 be 54 f3 85 be
       -0.0014624879 -0.30863732 -0.17203416 -0.26162207
0000b0 74 3b 50 3f 85 6d 32 be 32 e2 a2 bf 8d cb ec 3e
       0.8134072 -0.17424591 -1.2725279 0.46249047
0000c0 c7 0f 1f be b8 e0 04 be 07 e7 2e bf 81 6b 11 be
       -0.15533362 -0.12976348 -0.6832127 -0.14201166
0000d0 1e 91 55 bf a3 ef 1f 3d 92 a9 1b bd 54 3b a4 3d
       -0.83424556 0.039046895 -0.03800351 0.080191284
0000e0 fa ab b3 be c1 8a 06 3f 2c 6d cb 3d cc 45 42 3f
       -0.35092145 0.5255547 0.09932932 0.7588775
0000f0 75 1b a3 be b1 19 0e 3f 82 84 8c 3f c9 51 e8 3e
       -0.31856886 0.5550795 1.0977938 0.45374897
000100 fa ab f7 be 35 5f 93 be cd 38 27 bd 22 c5 aa be
       -0.48373395 -0.28783575 -0.040825654 -0.33353525
000110 cd 40 e3 be a7 1e e4 be ce 47 c2 3e a3 a3 b5 bd
       -0.44385377 -0.44554636 0.37945408 -0.08869102
000120 7a 5e aa 3c 20 eb 44 be 05 68 87 bf 33 15 41 bf
       0.020797003 -0.19230318 -1.0578619 -0.7542297
000130 1c c0 9b bd f5 8c 49 3f 18 c8 e0 be 0c 85 be bd
       -0.07605001 0.7873071 -0.4390266 -0.093027204
000140 c3 48 97 3e 06 ed f5 3d bb 78 2a be 18 ae 0a 3f
       0.295477 0.12008099 -0.16647618 0.54171896
000150 b6 8a b0 3d 06 0f 43 3f 61 cb a2 be 01 00 75 3e
       0.08620207 0.761948 -0.3179579 0.23925783
000160 ef ae 87 bd 0c a7 61 bf 31 f6 5b bf 0e 37 39 be
       -0.06625163 -0.8814552 -0.85922533 -0.18087408
000170 05 38 a5 3e 7e 5e 5c 3e 46 c5 92 3e 4f 0b 03 bf
       0.32269302 0.21520421 0.28666133 -0.5118913
000180 25 3d 62 3d 04 d8 4e 3e 9f 30 97 bf 8c 49 2f be
       0.055234093 0.20199591 -1.1811713 -0.171179
000190 01 b9 92 3e e6 27 9a 3e 97 ee 02 3f 5c 41 b6 be
       0.28656772 0.30108565 0.5114531 -0.3559674
0001a0 bc 87 61 bf 72 c6 c9 3d a9 52 3b 3e e5 d5 c7 be
       -0.8809774 0.098523036 0.18293251 -0.39030376
0001b0 a2 81 63 bd 5b 75 b7 3e c7 3b f1 3e 14 96 18 3d
       -0.05554355 0.35831723 0.4711592 0.0372525
0001c0 fe 3b 43 bb 09 46 dd 3e 41 a6 ce be 0b 33 70 bf
       -0.0029790397 0.43217495 -0.40361217 -0.93827885
0001d0 e4 66 df 3e 93 93 40 be ef a8 cd bd ab f4 f0 bd
       0.43633187 -0.18806295 -0.10041987 -0.11765417
0001e0 a2 60 cd bd ae 9c 93 3e e9 fa 51 3f 66 4b 02 c0
       -0.10028197 0.28830475 0.82023484 -2.035852
0001f0 dd cb 1d 3f 4d 8a 1a bf e4 84 89 3d d8 c8 89 3e
       0.61639196 -0.6036728 0.067148 0.26911044
000200 cd 68 d4 be 51 39 68 3f 42 23 66 3f 48 96 68 bf
       -0.41486207 0.9071246 0.8989755 -0.9085431
000210 d6 f9 c0 be 2f 72 02 bf f5 a9 50 3f 18 11 db bd
       -0.3769061 -0.5095548 0.81509334 -0.1069662
000220 5a 01 91 bf dd c2 c9 bf 2d bc 83 be af fd fb be
       -1.1328537 -1.5762593 -0.25729504 -0.49216983
000230 fa fd 39 3f b3 6d 53 bd e7 5e 0c 3f 66 12 af 3f
       0.7265316 -0.05161829 0.5483231 1.367749
000240 e8 2f a6 bd 38 b3 19 3f 43 2f d3 3e 24 07 bc bd
       -0.08114606 0.6003909 0.41246995 -0.091810495
000250 61 8c 11 be 78 c4 5e 3c 17 7a fc bd e3 5b 54 3f
       -0.14213707 0.0135966465 -0.12327974 0.8295271
000260 5c cf 78 bf 4e 92 b8 bf d1 24 3d bf 15 a0 07 bf
       -0.97191405 -1.4419649 -0.738843 -0.5297864
000270 b6 02 3b bf 5e 6f 87 3f 0a 6e 82 3f 9a 31 03 be
       -0.7305101 1.0580862 1.0189831 -0.1281189
000280 94 bc 5e 3f a8 ed 79 3f ff fb 0b bf 7f fe e2 3e
       0.870065 0.9762826 -0.5468139 0.4433479
000290 aa ce 1b 3f 5e 92 bc 3e 39 b6 56 be 31 56 56 3f
       0.6086222 0.3683042 -0.2096795 0.8372527
0002a0 0c 02 0e 3f cf 3f 8a 3f 69 e8 00 be ca 76 1b bf
       0.55471873 1.0800723 -0.12588657 -0.6072813
0002b0 ec 6c 65 3f d4 9b cf 3e bc 74 e6 3e e9 f2 96 3e
       0.89619327 0.40548575 0.45010936 0.294822
0002c0 b2 96 91 3f fb a4 b7 be a1 c3 d3 be 39 67 18 3f
       1.1374114 -0.35868058 -0.4136019 0.59532505
0002d0 da 9e 2e 3f e8 81 80 be 8f c7 b6 be ca 5e 40 3f
       0.6821114 -0.2509911 -0.35699126 0.75144637
0002e0 b4 b9 6e bf 7d f6 2f bf 82 86 3f bf 06 86 1d be
       -0.9325211 -0.68735486 -0.7481462 -0.15383157
0002f0 6d 21 59 3d 07 a3 3d 3f 4c 90 b2 3e bd 0a 9a bf
       0.053010393 0.74076885 0.34875715 -1.2034527

network_body._body_endoder.seq_layers.0.bias f4 [64]
000000 93 76 f8 3d dd 99 5c 3d 14 70 40 be 6b 3d 71 3e
       0.12131991 0.053857673 -0.18792754 0.23558585
000010 41 57 02 bf bb c5 9c bc 4f 6f 20 3e 74 f7 8d 3d
       -0.5091439 -0.019137254 0.15667461 0.069319636
000020 ad 78 a6 be 0d ef ee bd 44 c0 88 3d af 93 e7 bd
       -0.32513943 -0.11666689 0.06677297 -0.11307465
000030 e6 e2 4c 3d 65 c4 b2 bd ff fb e6 bc ed 96 4a 3d
       0.050021075 -0.087288655 -0.028196333 0.04946034
000040 45 4b a0 3e c4 9a 43 3e 34 41 38 3e 71 7b b5 bd
       0.31307426 0.19102007 0.17993623 -0.08861435
000050 58 bd 0a 3d 50 21 ba bc fb c5 45 3e e3 e4 52 3d
       0.03387198 -0.022720963 0.19313805 0.051487815
000060 82 7a 35 3e d6 ea c0 3d 30 90 46 3d 21 5e 2e be
       0.17722514 0.094197914 0.04847735 -0.17028095
000070 f4 cd 2c bd f4 ab 7f 3d 9b 31 23 3d 72 02 a5 3c
       -0.0421886 0.062419847 0.03984223 0.020142768
000080 cb 0f 3b 3e 1d 98 83 3c 01 ae 1d 3d 38 87 3a 3d
       0.18267743 0.016063744 0.03849602 0.04553911
000090 99 77 6f bd da cf 48 be 9a 1d 17 3e ab 4a 85 3e
       -0.058463667 -0.19610539 0.14757386 0.2603353
0000a0 1b 8c 9c 3c 4c 6c 9d bd d2 57 7e 3d 0c 64 d5 bd
       0.019109776 -0.076866716 0.06209547 -0.10419473
0000b0 ea e9 df 3b 25 77 c4 3e 5b 3d d4 3c 65 be 0b 3d
       0.0068333047 0.3837215 0.025908163 0.03411712
0000c0 76 6b 39 bb f7 b4 8e 3d 8a 51 d1 3e a3 00 8e be
       -0.0028292811 0.0696811 0.40882522 -0.2773486
0000d0 3e ed 8d 3d 12 47 af 3c 2f 5f 02 3e de ac e6 bd
       0.06930016 0.021396194 0.12731622 -0.112634405
0000e0 c0 e3 bd be be 21 db 3d 1b 93 b5 bd 9d 2f a6 3d
       -0.37087822 0.10699795 -0.08865949 0.0811455
0000f0 a6 6c 05 bd 56 b4 a9 3c e1 93 a8 3e 07 13 52 3d
       -0.03257432 0.020715874 0.32925323 0.051287677

network_body._body_endoder.seq_layers.2.weight f4 [64, 64]
000000 4e 7e 2c 3e 10 26 be be ba 91 3d 3c ff f9 0c be
       0.16845056 -0.37138414 0.011570388 -0.13767241
000010 75 67 e4 3e 4f fe 07 be f2 28 a1 3b f5 0a e1 bd
       0.4461018 -0.13280605 0.004918211 -0.10988418
000020 b9 39 50 3e 19 ca f3 3b 9f 05 b8 3e 20 9f bb 3d
       0.2033452 0.0074398634 0.3594179 0.0916121
000030 1b 3d 47 3e 6c 95 14 3e d2 fa 19 bc b1 a3 ee be
       0.19456904 0.14510125 -0.009398179 -0.46609262
000040 b6 dc ae bd 71 8d 48 be 7f 86 d5 bd d6 7f 61 bc
       -0.08538191 -0.19585206 -0.10426044 -0.013763389
000050 2b 20 a3 3e 9e 08 b5 be fa 73 f8 bd 71 b3 9c 3e
       0.3186048 -0.35358137 -0.12131496 0.30605653
000060 34 38 2f be 77 f8 a6 3e 53 88 96 3d ae 38 da 3d
       -0.17111284 0.3261144 0.073502205 0.10655342
000070 7c 27 c7 3e 9c 2c a4 be 01 ee 0a be bd e4 7d be
       0.38897312 -0.32065284 -0.13567354 -0.24794288
000080 46 6a 80 be 64 bc 6a 3e c8 9f 92 be b2 e3 78 3d
       -0.2508108 0.22923428 -0.28637528 0.060764022
000090 0f 0b 31 3e e0 10 74 ba 2a a8 e2 bc cf 3a c3 bd
       0.17289375 -0.0009310376 -0.027668077 -0.09532701
0000a0 39 cc 73 3e bb 98 32 bd 92 e1 fe bd 75 e3 a4 be
       0.23808374 -0.043602686 -0.12445368 -0.32204786
0000b0 02 c9 05 3d 04 95 85 bd 81 cb 6f 3e a5 86 c3 3e
       0.0326624 -0.06522563 0.23417474 0.38188663
0000c0 58 c8 63 3e b2 32 64 3b 5f d9 5a 3d 90 e2 45 be
       0.22244394 0.0034820256 0.053429957 -0.19324708
0000d0 56 3c 48 3e 7c 7a 58 3e a9 d1 2f 3e 3c 0a 74 3d
       0.19554266 0.21140474 0.17169823 0.059580073
0000e0 ed 76 8a 3d 06 8b 96 3e 73 99 83 3d 1b d7 46 bc
       0.067609645 0.2940294 0.064257525 -0.012136246
0000f0 fa 8f 3f be 55 1a 35 bd 16 ff 9a 3d d7 03 a8 be
       -0.18707266 -0.044214565 0.07568185 -0.3281543
000100 ed d4 6e bd 0d 82 62 be fe d2 4b bd c3 7a 1f 3e
       -0.05830853 -0.22119923 -0.049761765 0.15574174
000110 4f 9e 38 3c 5a b3 e9 3d a8 3f da 3b eb e2 b4 be
       0.011268212 0.11411162 0.0066604204 -0.35329375
000120 f1 1c 7a 3e f3 59 07 be 02 22 51 3d 69 8b 94 3c
       0.24425103 -0.13217907 0.051057823 0.018132882
000130 43 2a ef 3d a5 b4 c3 3d 86 d5 a9 3e 36 80 aa bc
       0.11677983 0.095559396 0.33170718 -0.020813089
000140 6c be 10 be 22 f5 70 3e ff 0d 89 bb 40 ce 93 bd
       -0.1413514 0.23531011 -0.0041825767 -0.072170734
000150 e7 74 a1 3e 1a 60 ab be 5c 7c bb 3c fc 3d 6e bd
       0.31534502 -0.33471757 0.022886448 -0.05816458
000160 75 6a 3f bd 6c 38 7b bc 4d b3 8f 3e 38 fe cf 3d
       -0.046732385 -0.015333276 0.28066483 0.1015591
000170 cc c8 4e 3d ea 00 d4 be dd 9e 8b 3d 4a 03 a9 be
       0.050484464 -0.41406947 0.0681741 -0.33010322
000180 48 39 ee bd ff ae 2a 3e 80 58 96 be ed 64 d0 be
       -0.11632019 0.16668318 -0.29364395 -0.40702
000190 71 17 52 3e 93 cb 3a be 34 0b 2c be 52 e4 f7 bc
       0.20516755 -0.1824172 -0.16801149 -0.030260239
0001a0 09 c7 84 3e f6 59 e4 3d 86 fa 40 bd 40 3f 8d 3c
       0.25933102 0.11149971 -0.047113918 0.017242074
0001b0 9d 8c ca 3e f3 df 7f be 89 ab ed 3e e5 1c 19 3e
       0.39560404 -0.24987774 0.46419933 0.14952429
0001c0 03 25 da 3d 75 42 70 bd 80 53 b0 3e 52 ce 95 bd
       0.10651591 -0.05865713 0.34438705 -0.07314743
0001d0 f1 1a 2f 3e ba bd 9e 3e 11 83 93 3e 2a 3d 05 bb
       0.17100121 0.31004125 0.28810933 -0.0020330646
0001e0 2f a3 6f 3d 34 e3 b2 3e 6b c1 10 bd b0 15 6b 3e
       0.058505233 0.34938967 -0.035340708 0.22957492
0001f0 69 fd 98 bd 01 61 57 3b 40 c0 2c 3e 3b 32 48 bd
       -0.07470209 0.0032864215 0.16870213 -0.04887603
000200 ab cb f9 bc 69 e5 b5 be 67 6e 76 3e bc 6f f8 3d
       -0.030492624 -0.3552659 0.24065553 0.12130687
000210 03 dd e5 3b a2 30 1d bd 40 20 1e 3e 62 34 4d bd
       0.007014872 -0.038376458 0.1544199 -0.050098784
000220 27 a8 cd 3d 54 df bf bc a2 f3 d7 3c 51 d9 f0 3d
       0.10041838 -0.02342192 0.02636129 0.117602
000230 73 cf 40 3e 7e 42 0e 3e af ff 7d 3e 32 e5 a2 bd
       0.18829136 0.13892552 0.24804567 -0.07953872
000240 51 52 80 be d3 70 c5 bc 1a f5 9d bc b7 bf 20 be
       -0.25062802 -0.02410165 -0.019281913 -0.15698133
000250 a6 45 4d 3d 4e 9a a6 3d 10 78 59 be 08 23 b4 bd
       0.05011525 0.081349 -0.21237206 -0.08795744
000260 d8 40 07 3d aa 09 3f 3e 2a 87 68 3e 75 a1 a2 3d
       0.033020824 0.1865603 0.22707811 0.07940952
000270 de 4d 13 3e 83 89 e9 be 6e b7 d2 3d ba 5c 28 be
       0.14385173 -0.45612726 0.10288893 -0.16441622
000280 50 e5 2a 3e 62 65 18 3d 3a ec 8d be 82 59 79 bd
       0.16689038 0.03720606 -0.2771929 -0.060876377
000290 ab 16 bf bd 5a e2 53 be b9 81 43 bc c5 b3 67 bd
       -0.093304954 -0.20691815 -0.011932784 -0.056567926
0002a0 2e 76 87 3d 2d 8c b1 3d a5 d3 57 be 4d ab 4e be
       0.06614338 0.086693145 -0.2107683 -0.20182534
0002b0 1e dc bc 3e 79 e4 f1 bd af b5 0e 3e 30 f2 48 3d
       0.36886686 -0.11811156 0.13936494 0.049059093
0002c0 95 fa 85 3e 85 87 64 bd 6e f5 0d 3d e7 df c7 3a
       0.2616774 -0.055793304 0.034657888 0.0015249223
0002d0 50 77 45 bd 14 d1 04 3e 6d e4 f1 3c a9 83 ff 3d
       -0.04820949 0.12970382 0.029527867 0.12476284
0002e0 63 49 24 be 45 06 48 3d e7 a9 3b 3e 9b c1 bf 3c
       -0.1604362 0.048834104 0.18326531 0.023407748
0002f0 57 b5 41 be 66 7b 23 be 82 35 bb b7 15 7f 63 be
       -0.18916832 -0.15965042 -2.2317054e-05 -0.22216447
000300 b5 5a 8c 3e d0 a3 97 be 38 1d 4c be f1 1d 80 3d
       0.27412954 -0.29617167 -0.19933021 0.06255711
000310 3a 00 85 3d fd 2f ef bd 65 dc 21 3e f1 d7 01 be
       0.06494184 -0.11679075 0.1580673 -0.12680031
000320 27 4d d8 3d 70 bb 64 be b9 e6 7c 3e 12 c5 a9 be
       0.10561591 -0.22337127 0.24697389 -0.33158165
000330 58 51 b6 bd 1c e3 e3 3c 84 3f 01 3f b6 6b 6e be
       -0.08902234 0.027818255 0.5048754 -0.23283276
000340 1e 9d cc bd 40 45 81 be d1 79 0d 3b 51 a3 19 3e
       -0.09990905 -0.25248146 0.00215875 0.15003707
000350 88 0c 8e 3e fe df 76 be 6e cd 56 bd 55 32 2c 3e
       0.27743936 -0.24108884 -0.052442007 0.16816075
000360 09 21 24 bd 7a 7e 66 3e 57 88 b5 bd 59 00 58 3e
       -0.040070567 0.22509184 -0.088638954 0.21093883
000370 b3 3a c5 3e 99 7c 03 bf 3e b0 ab 3c 92 fd 96 be
       0.38521346 -0.51361996 0.020958062 -0.29490334
000380 49 99 39 be 78 7e 44 3e e8 78 cb be 2b 9d b3 be
       -0.1812488 0.19188869 -0.39740682 -0.35080847
000390 b6 2c 0e 3d be 6f ca 3d 66 bc 5d bc 2c 25 a4 3c
       0.03471061 0.098845944 -0.013533687 0.020037256
0003a0 56 1e 07 3f 3c 14 ad bc 9f d1 18 bd 5b 0d 9a be
       0.52780664 -0.021127813 -0.037309285 -0.30088314
0003b0 bc 33 88 3e a1 e8 7d be 1c a1 84 3e 7e 27 46 3e
       0.2660197 -0.24795772 0.25904167 0.19351003
0003c0 07 84 89 3e cb d2 5e be d7 67 cf bd 60 6a ed 3d
       0.2685854 -0.21760099 -0.10127228 0.11592555
0003d0 f3 36 22 3e 7a e8 33 3e 40 aa de 3e e5 97 a3 3e
       0.15841274 0.17569152 0.43489265 0.31951824
0003e0 eb 21 87 be 7f 4a 05 3e 58 48 6a 3e 75 b7 9f 3e
       -0.26393065 0.13016699 0.2287916 0.31194654
0003f0 b8 4e b6 3d db c2 58 be 0f bd d3 3d aa c0 2f be
       0.08901733 -0.21168081 0.103387944 -0.1716334

network_body._body_endoder.seq_layers.2.bias f4 [64]
000000 9f a9 11 3d 86 2e 90 bc 97 8a 3b 3b d1 25 a7 3c
       0.035562154 -0.01760031 0.0028616542 0.020403774
000010 75 ad 25 3d e5 b4 b7 3c 04 51 c3 bb 59 c8 17 bc
       0.040448625 0.022425124 -0.0059605855 -0.009264075
000020 27 59 0b 3d 2a 96 59 3c cc a6 53 bd a4 87 d1 3c
       0.03402057 0.013280431 -0.05167274 0.025577374
000030 ec 4f 18 3d 11 b3 c6 bc d1 07 a1 bd 76 47 27 3d
       0.037185594 -0.024255307 -0.07862819 0.040839635
000040 e2 d4 81 3b 5d ec f0 3c d1 5e f4 39 36 99 41 3d
       0.003962145 0.029409582 0.0004660995 0.047265254
000050 8f 6d 33 3d 14 18 4b 3d 19 81 f0 3c 71 bd 46 3d
       0.043805655 0.04958351 0.029358434 0.04852051
000060 df 5f af 3d ef d0 d5 bc 6e 1b 7a bd 99 b5 85 3c
       0.08563208 -0.026100604 -0.061061315 0.016321944
000070 bb a9 7a 3d f0 07 3e bd b8 c1 62 bc b1 9f 83 bd
       0.061197024 -0.04639429 -0.013840131 -0.06426943
000080 47 0d 3c 3d ca ea 54 3d 28 09 7c 3c ec b9 0b 3d
       0.0459111 0.051981725 0.015383042 0.034112856
000090 a4 72 35 bc 43 74 e7 3c 27 35 3b 3d 21 04 45 3d
       -0.011074696 0.02825368 0.045704987 0.04809964
0000a0 9b 36 b4 3a c8 b2 fc 3c e6 47 3f 3d 13 e6 58 3d
       0.0013749184 0.030846968 0.046699427 0.05295379
0000b0 2a 65 9a 3c d6 eb 41 3d 73 8a 6d 3c fa 5f 96 3c
       0.018847067 0.04734405 0.014498341 0.018356312
0000c0 f6 6e 4a 3c bd c3 2c 3c a3 e5 d8 3c 98 a4 7d bd
       0.012355557 0.0105447145 0.026476687 -0.061924547
0000d0 41 5e 8f bc b2 b1 4b 3c c4 30 77 3d 35 4c 73 bc
       -0.017500998 0.012432503 0.06034924 -0.014849712
0000e0 ad 89 8c 3d 3d 41 28 bc 0b a4 8a 3c 35 70 01 bc
       0.06862197 -0.01026946 0.016923925 -0.007900287
0000f0 28 92 78 3c d9 63 53 bc dd 2d d9 bc 20 ea 05 3d
       0.015171565 -0.0129022235 -0.026511127 0.032693982

network_body.lstm.lstm.weight_ih_l0 f4 [256, 64]
000000 d5 7a e0 3d 88 5a fc 3d f0 3e 21 3e 39 7f 04 3d
       0.10960928 0.12321955 0.15746665 0.03234789
000010 56 3d 93 3c 81 f2 56 bd d3 36 29 3b bd 94 98 3e
       0.017973583 -0.052477363 0.0025820031 0.29800978
000020 d9 2b af bd 47 3b 13 3e ff e2 c1 3d 5d 51 d2 3d
       -0.08553285 0.14378081 0.09467124 0.10269425
000030 ae 7d b5 3d 39 31 80 3e 0c 8a 34 be f7 7f 71 3d
       0.08861862 0.25037554 -0.17630786 0.058959927
000040 cd 92 a3 bd f6 25 66 be 52 79 c7 3d 4f 87 e5 3d
       -0.079869844 -0.22475418 0.09739937 0.11207449
000050 2c 53 16 3e 55 82 98 3d e2 b7 88 be 31 6f ae bb
       0.14680165 0.07446734 -0.2670279 -0.0053233136
000060 2a 24 3b 3d f1 4f bd 3e 4c 96 37 3e eb 19 b4 3d
       0.045688786 0.36975053 0.17928427 0.08794006
000070 7e 37 d6 3d 57 9a 0f 3e 0b c8 ac bd 87 00 a3 3d
       0.10459803 0.1402372 -0.08436593 0.07959085
000080 5f 62 46 3e 5d d2 71 bc 44 9a 09 3d 5f 8a 02 be
       0.19373463 -0.014759627 0.033594385 -0.12748097
000090 fa 76 bf 3d 8e ad 7a 3e cd 8a 14 3e 56 bf 04 be
       0.09348865 0.24480268 0.14506073 -0.12963614
0000a0 f8 b5 4e 3e eb ae 0a be d0 05 f9 3d 9a e9 fd bc
       0.20186603 -0.13543288 0.12159312 -0.030995179
0000b0 73 a4 5c 3d 41 cb c3 3a 13 59 b3 3e 58 be 01 3e
       0.05386777 0.0014937894 0.35028896 0.12670267
0000c0 e1 c3 6b 3e 62 8d be bd 8c b0 58 bc de 33 3d be
       0.2302394 -0.093043104 -0.013225686 -0.18476817
0000d0 72 10 03 3d 62 31 69 bd b4 c7 4e 3d 63 67 b9 3d
       0.031998105 -0.05693186 0.05048342 0.090529226
0000e0 3c 65 48 3e d7 09 16 3b 53 01 27 3d 35 ec 8b 3d
       0.19569868 0.0022894049 0.040772747 0.06832162
0000f0 26 dd 49 be 75 b3 78 bd d9 e0 09 3d ba 78 50 be
       -0.19713268 -0.06071802 0.033661697 -0.20358554
000100 9d cb 3e be 00 c6 e5 bd a7 49 53 3e cc 6c 38 be
       -0.1863236 -0.11219406 0.20633565 -0.18010253
000110 ed 98 88 3e c9 8c 6d 3c d4 ba 9a bd f1 a1 b7 bc
       0.26679173 0.014498898 -0.07555166 -0.022416087
000120 d5 05 71 ba d5 74 62 be 3e c3 6f 3e ff 18 b0 3e
       -0.00091942895 -0.2211488 0.23414323 0.3439407
000130 57 f3 8d 3d 6f d5 87 3d 71 82 0b 3e 84 3c 89 bc
       0.06931179 0.06632506 0.13623978 -0.016752489
000140 49 cd 1f be ad fd 8b bd f9 d2 9e 3e b5 f7 a6 3d
       -0.15605654 -0.06835494 0.31020334 0.08152715
000150 ba 9c d0 3e 49 10 0f 3e 2b 33 69 3e 35 45 8e 3e
       0.40744573 0.13971056 0.22773425 0.27787176
000160 c7 81 59 bd 63 27 4a be 11 8e 85 3e f4 5f 95 bd
       -0.05310228 -0.19741587 0.2608495 -0.07293692
000170 13 09 4b 3e 33 a6 44 3e 92 b8 55 bd 8c 81 1b 3e
       0.1982768 0.19204025 -0.052177973 0.15186137
000180 f9 81 a1 3d 15 a8 5e be 9d e6 da 3d 8e 0c e1 3c
       0.078861184 -0.21743806 0.10688517 0.027471807
000190 6c 86 cf bd cc 2a 9a 3d f3 2c 1d 3e 4a ac 03 3e
       -0.10133061 0.07527694 0.15349178 0.12858692
0001a0 13 06 07 3e 89 67 19 3e 9a f4 3a be 0a 19 79 3e
       0.13185911 0.14980902 -0.1825737 0.24325958
0001b0 a5 cb 17 bb e1 0b 16 be 5a 35 36 3d 5c 58 20 bd
       -0.0023162153 -0.14652969 0.044484474 -0.039146766
0001c0 75 49 41 3e 75 7f cd bc 42 ba a5 bd 31 c4 4e 3d
       0.18875678 -0.02508519 -0.080921665 0.05048007
0001d0 9c 53 2b be 3b 7d 8e be 71 db bc 3d bb ea e0 3d
       -0.16731113 -0.27829918 0.092215426 0.10982271
0001e0 1f 66 90 bd 6f 75 cd 3d 47 d1 8d be 17 9a 79 3c
       -0.07050728 0.10032164 -0.27698728 0.015234492
0001f0 17 09 c5 3d 7e 09 29 bd 9d 43 34 3e e2 11 b3 3c
       0.096208744 -0.041268818 0.17603917 0.021859113
000200 48 57 03 bd b5 e4 97 3d bd 1d 01 bd dd fc 28 3e
       -0.03206566 0.07416669 -0.0315225 0.1650271
000210 9b 91 2c be b4 dd fb bd ab b7 c9 3c 4b e5 21 3d
       -0.16852419 -0.12298146 0.024623713 0.03952531
000220 ac 9f 85 3e 18 18 65 bd 43 84 b6 bb 2b 25 32 be
       0.26098382 -0.05593118 -0.005569966 -0.17396991
000230 50 8f a4 be df f6 0d 3e 77 64 98 bc 13 b3 2e 3e
       -0.3214059 0.13863705 -0.018602593 0.17060499
000240 af 34 9d 3d 29 2b e9 bc c9 04 49 3d 8d c5 20 3d
       0.07676064 -0.028462963 0.04907683 0.0392509
000250 15 86 9a 3d ba 63 97 be 7a d1 8b bc 3c 09 2f 3d
       0.07545105 -0.29568273 -0.01706766 0.042733416
000260 ff 97 0a be aa 1c a1 3d 14 e6 01 3e 3a a0 3a be
       -0.13534544 0.07866795 0.12685424 -0.18225184
000270 58 8a 56 be 7e 3e de bc aa 15 b1 bd b6 ba 82 3d
       -0.20951211 -0.027129408 -0.0864671 0.063832685
000280 80 8c 22 ba 35 6d 60 3c 81 80 10 be 91 4f 41 3e
       -0.00062007457 0.013697912 -0.1411152 0.18878008
000290 8d 98 96 3e a2 33 4a 3e 12 f7 12 3e 9c 1b 04 3e
       0.29413262 0.19746259 0.14352062 0.12901157
0002a0 bf 60 f0 3d 4e f5 90 bd 10 cc 4a be cf 2e f6 bd
       0.11737203 -0.07078038 -0.19804406 -0.12020647
0002b0 5d b5 65 bd 90 53 f1 bc 62 e5 1d 3d 18 5b a8 3d
       -0.056081165 -0.029458791 0.038548835 0.082205
0002c0 c2 ea 12 3c 20 d2 f1 bb 0e 66 7a be b6 2e cb 3b
       0.008967103 -0.007379785 -0.24452993 0.0062006367
0002d0 4f e1 25 3e 5d a0 9b 3d cb 9b 57 be 28 22 97 3d
       0.1619923 0.07598946 -0.21055524 0.07379562
0002e0 29 53 1f 3c b2 22 24 be 4e 5e 9a be 64 40 11 3e
       0.009724417 -0.1602886 -0.30150074 0.1418472
0002f0 03 83 d2 bb ac cd e8 bd eb a9 14 3e c8 6b 1d be
       -0.006424309 -0.11367354 0.14517944 -0.15373147
000300 a1 d7 10 3e c6 6b 8f 3d 11 f8 51 3d 99 a1 94 be
       0.14144756 0.07002978 0.051261965 -0.2902954
000310 8c 88 3c 3e 43 f8 5a 3d 2e 61 d1 3d e9 fc 99 bd
       0.18411463 0.053459417 0.10223614 -0.07518942
000320 94 b9 3f 3e af 9f a7 bd 2d c5 77 3e 1d 54 17 be
       0.18723136 -0.08184754 0.2419631 -0.1477818
000330 81 b5 ff bd 4d 5d 13 3e 59 01 50 3e 04 df 3e be
       -0.12485791 0.1439106 0.20313014 -0.18639761
000340 e9 e8 ab bb ba a2 8b 3e 1f 91 aa 3d de 7a 13 3e
       -0.005246271 0.27272588 0.08328461 0.14402339
000350 7c b4 12 3e fa e5 16 be f4 8d f6 bd f5 21 55 3c
       0.14326662 -0.14736167 -0.12038794 0.013008584
000360 df d2 90 bc 98 2e b4 3d c9 ac 12 be c6 14 f3 bd
       -0.017678676 0.087979496 -0.14323725 -0.118691966
000370 f9 3c 25 be 19 66 ca 3c 6a f7 99 bd 6a 7d 63 3e
       -0.1613654 0.024706887 -0.075178936 0.2221581
000380 98 9c c0 3d 25 c6 81 3c 55 7b 1e 3b 88 0d 32 be
       0.09404868 0.015841553 0.0024182398 -0.17387974
000390 b5 e3 57 bd 2d 06 6d 3c 04 3c d5 3d 19 d0 91 3c
       -0.052707393 0.014466804 0.10411838 0.017799424
0003a0 08 74 51 3e 32 b2 46 be d5 ad 93 bd 4b 92 fe 3d
       0.20454419 -0.19403914 -0.0721089 0.12430247
0003b0 67 b6 e7 3d 54 cd 0d 3e 93 d5 20 3e c5 ac ed 3d
       0.11314087 0.13847858 0.15706472 0.11605219
0003c0 b5 98 9b 3d 54 79 3b 3e dd b4 17 be 09 a8 fa bb
       0.07597486 0.18308002 -0.14815088 -0.007649426
0003d0 64 9b f8 3c 25 57 41 3d 03 34 1e bd c6 a3 64 3e
       0.030347534 0.047202248 -0.03862382 0.223281
0003e0 61 62 46 3d db 7a 3d 3e 21 5e 0c 3c 43 8e e3 bc
       0.048433665 0.18503897 0.008567364 -0.027777797
0003f0 b0 1d 4c 3d c3 05 81 3d e6 1b 73 bd 73 e5 44 be
       0.049833 0.06299927 -0.059352778 -0.19228153

network_body.lstm.lstm.weight_hh_l0 f4 [256, 64]
000000 05 28 ff bc 9d f2 2c 3e f2 28 3c 3e cc 03 00 3d
       -0.031147012 0.16889425 0.18374994 0.03125362
000010 4c 63 3d 3e ca 37 02 3e 53 eb 3d 3e 67 d4 9d 3d
       0.1849491 0.12716594 0.185468 0.07706528
000020 8f 1a 8f be 65 8e 01 be f9 5c 01 3e 7b 54 81 bd
       -0.2794995 -0.12651975 0.12633123 -0.063149415
000030 06 e8 20 be 22 a3 51 3e fd 2c 25 3e 36 8d 17 be
       -0.1571351 0.20472386 0.16130443 -0.14799961
000040 11 e1 c1 bd df 85 1d bf 35 91 63 3d ad 0e 60 3e
       -0.09466756 -0.61532396 0.055558402 0.21880598
000050 a5 77 d4 bd a8 68 e1 bb fa 8f 03 3e d7 da 9d bd
       -0.10374383 -0.006878931 0.12847891 -0.07707756
000060 ca b5 52 3d 88 4a 43 3b 9c ab ad 3d 64 d3 33 3e
       0.0514429 0.0029799063 0.084799975 0.17561108
000070 95 13 2c bd e8 02 5c 3e 3e 18 43 3e bb a6 39 3e
       -0.042010862 0.21485484 0.19052216 0.18130009
000080 27 88 18 3e be 4c 09 be 55 5a 2a bd 37 95 d3 3c
       0.14895688 -0.13408181 -0.041590054 0.025827987
000090 fb 5f 3e be 6e 86 6b 3d 61 e0 74 3d bb b8 45 3d
       -0.18591301 0.05750125 0.059784297 0.048271876
0000a0 fc 24 36 be 00 b5 41 bd e5 fb 77 3d 52 6c 0d 3e
       -0.17787546 -0.047291756 0.06054296 0.13810852
0000b0 62 e2 4a bc 5b 7e 44 3e 88 47 0d be ec 90 53 3b
       -0.012383075 0.19188826 -0.13796818 0.0032282425
0000c0 33 47 bd 3e e4 5e 14 be 23 64 76 3e cd e6 01 3e
       0.36968383 -0.14489323 0.24061637 0.126857
0000d0 32 6e fa bd ac 5d 4f bc 68 32 4c 3e 5a 89 d1 3d
       -0.12228049 -0.01265661 0.19941103 0.10231276
0000e0 49 09 d5 3d 3b 0e 6d be 3e f4 d1 bd f8 f6 15 3d
       0.10402162 -0.2314996 -0.102516636 0.03661248
0000f0 4e 31 8b 3e ba ea 71 3e c5 06 d3 be 41 f9 46 ba
       0.27186054 0.23624697 -0.41216102 -0.00075902423
000100 a1 e7 b3 3e 66 26 ca bd ac 1a 31 bd bb 5e 52 3d
       0.35137656 -0.09870605 -0.043238327 0.051359873
000110 db 10 bd be 00 1f 99 be 01 12 cf bd ce 60 48 3e
       -0.36926922 -0.29906464 -0.10110856 0.19568178
000120 b5 04 26 3d 7f f7 f4 3d d4 dc 6a be 51 63 2b bb
       0.040531833 0.11961269 -0.22935802 -0.0026151726
000130 be 8f 03 be e6 16 54 be c2 55 f7 3d 00 e4 09 bf
       -0.12847802 -0.2071186 0.12076904 -0.53863525
000140 ef 56 bb 3d 66 b4 a4 3d b8 f3 32 3e ef 36 ab 3e
       0.09147441 0.08042221 0.17475784 0.33440349
000150 7d 24 2d 3e e7 3c 23 3e 14 ed 04 3f fd e2 12 be
       0.1690845 0.15941201 0.5192425 -0.14344402
000160 bd c3 79 bd 1a fa de 3d 06 9f ad bc 41 8a 92 be
       -0.060977686 0.10887547 -0.021193992 -0.28621104
000170 94 3d 0a be 90 9a f4 bd 8f b4 48 3b ad 71 eb bd
       -0.13500053 -0.11943543 0.00306252 -0.11496291
000180 10 ca 2e 3e 43 cc 97 3e 6c 93 5c be 5f bf 1b 3e
       0.17069268 0.29648027 -0.21540612 0.15209721
000190 e7 65 84 3e ee 8d 41 3d c4 01 13 bd 1a 7b 5a be
       0.25858995 0.047254495 -0.035890356 -0.21336022
0001a0 96 96 06 3f 93 60 4f 3e d0 c2 3f be 6c 70 6b be
       0.52573526 0.20251684 -0.18726659 -0.22992104
0001b0 4b 95 97 be 5c 99 8b bd 36 26 02 3f 33 92 b7 3e
       -0.2960609 -0.0681636 0.50839555 0.3585373
0001c0 04 3a f8 3d dc ec 31 bd a6 0d 02 bd 00 50 28 bd
       0.121204406 -0.043438777 -0.031751297 -0.04109192
0001d0 70 31 e4 bc 6e 22 0f 3d b1 53 96 3d 77 f0 16 3e
       -0.027855605 0.034944944 0.073401816 0.14740168
0001e0 5d 1d 73 3e 81 d7 0a be 79 07 8c bc 71 14 16 3f
       0.2374167 -0.1355877 -0.017093407 0.5862494
0001f0 3f df fb bd e7 cd 0d be 33 53 85 bd 3c 0d 9f 3e
       -0.1229844 -0.13848077 -0.065100096 0.31064785
000200 39 57 c2 be 65 2b 09 be 33 1b 0e 3e 85 33 f2 3d
       -0.3795717 -0.1339546 0.13877563 0.11826233
000210 d8 d9 d6 3d a7 ee 37 be 70 a5 0e 3e 63 34 bb bd
       0.10490769 -0.17962132 0.13930297 -0.09140851
000220 e0 62 45 3c ec 98 33 3d 7b 94 94 be 1c f4 8c bd
       0.012047499 0.04384701 -0.29019532 -0.06882498
000230 6a ba 01 3e 52 a1 e4 3b 44 fa 6c be 9b 25 6a 3d
       0.12668768 0.0069772387 -0.23142344 0.05716477
000240 a2 f1 ef 3d 70 f7 51 bf 21 f0 9d bd 61 68 86 3c
       0.1171601 -0.82018185 -0.077118166 0.016407194
000250 20 7e d3 bc 7e 1d 30 be 7d ee 64 3e 75 7d 47 bd
       -0.025816977 -0.1719875 0.22356601 -0.04870363
000260 ec dc c6 3d 93 e8 27 bc b2 77 0d bd 30 8b 3e bb
       0.09710106 -0.010248321 -0.03453798 -0.0029074661
000270 a8 68 d0 3d 42 50 7f 3e a8 28 8c bd d0 4a 6c 3e
       0.101762116 0.2493296 -0.06843692 0.23075414
000280 e1 d8 63 be 4c cb 95 3e 1f a4 ea bd d1 4e 0e 3c
       -0.22250701 0.29256666 -0.11457085 0.0086857835
000290 fa 76 4d 3d 5d 19 22 bd 89 94 51 3c 41 e2 79 3c
       0.050162293 -0.03957497 0.012791761 0.015251697
0002a0 35 de d9 bd e2 f2 5b 3e aa ab 70 3e 50 9b db bd
       -0.10638086 0.21479371 0.23502985 -0.10722983
0002b0 bc ce 4a 3d c3 cb 50 bd 60 d6 cd bd 67 2d 8f 3e
       0.049513564 -0.050975572 -0.100506544 0.27964327
0002c0 71 65 3f be 8e bf 23 3c 20 ea 7b 3c 17 cf ca 3d
       -0.1869104 0.009994401 0.015375644 0.099027805
0002d0 47 e3 32 3b 2a 2a 92 3d bf 39 1b be 33 28 1a bb
       0.0027296112 0.071369484 -0.15158747 -0.0023522496
0002e0 02 85 9c bc da 3d 03 be 92 d6 2b 3e 0d 88 f5 3d
       -0.019106392 -0.12816563 0.16781071 0.1198884
0002f0 0e 59 19 be 49 f7 9f 3d 25 63 fa bd b5 f6 17 3e
       -0.14975378 0.07810838 -0.122259416 0.14840205
000300 22 0c c3 bc cb cd 71 bd 6f a3 d6 bc c3 31 ba bd
       -0.023809496 -0.05903415 -0.026200978 -0.090915225
000310 57 09 0a bd 20 1f b9 bc 30 09 5a bd f5 de ca bd
       -0.033700313 -0.02259785 -0.053231418 -0.09905807
000320 fb e7 ae bd e4 c8 52 3e e7 49 d7 bd d3 ae 6c 3e
       -0.085403405 0.20584446 -0.10512143 0.23113565
000330 8c fe c5 bc 97 ae 94 3d e1 63 e7 bd 56 d7 6d 3d
       -0.024169229 0.07259863 -0.11298347 0.05806669
000340 8b f2 97 3d 31 31 3b 3e 95 70 01 be 19 cf 43 bc
       0.07419308 0.18280484 -0.12640603 -0.011951231
000350 1d ff 82 bd 5a dc 25 be 71 8c 42 3d 7d 64 04 3e
       -0.06396315 -0.16197339 0.047497217 0.12928958
000360 f5 cd 8d be ab 90 a1 bd c0 9b d9 bd 29 2b fb bd
       -0.27696195 -0.07888921 -0.1062541 -0.122640915
000370 94 cd 7d 3e ef 26 41 3e 0b 82 83 3d 5a 03 58 3e
       0.24785453 0.18862508 0.06421288 0.21095029
000380 48 76 a5 bd d5 a1 b6 3d 7b 09 ea bd 9b f2 5a 3d
       -0.08079201 0.08917586 -0.114275895 0.053454023
000390 79 9d 64 3e 82 e3 0b 3d f3 0a fd bd c6 1d f1 bd
       0.22325696 0.034152515 -0.12355604 -0.11773257
0003a0 cd be 10 3d 35 b0 d1 bd 2b 4f 18 3e 95 30 63 be
       0.03533821 -0.10238687 0.1487395 -0.22186501
0003b0 5e 2f 0b 3d b8 7a 78 3d 47 1d 68 bd 5c 8a 28 be
       0.03398072 0.06066391 -0.056668546 -0.1645903
0003c0 4c 0d 06 3e 81 8d 37 be 47 3a e3 bd 9b c1 92 3b
       0.1309101 -0.17925073 -0.110951 0.004478646
0003d0 6a 98 68 bd eb ec ea 3d 65 91 96 bd 04 00 47 3d
       -0.05678598 0.1147097 -0.073519506 0.048584
0003e0 b0 30 34 be b7 44 88 3d f6 87 1d 3e 36 0e f1 bd
       -0.17596698 0.06653731 0.15383896 -0.11770289
0003f0 20 c4 83 be 4d ab 30 be d9 db ee bd 5e f3 dd 3d
       -0.2573557 -0.17252846 -0.11663026 0.10837434

network_body.lstm.lstm.bias_ih_l0 f4 [256]
000000 11 94 8f 3d 72 21 ff 3d a4 61 47 3d a4 0f 60 3d
       0.07010663 0.12457551 0.0486771 0.054702416
000010 c7 7d cf 3c 40 a7 4f bd 9c 3f 29 3e 9e e5 63 bd
       0.02532853 -0.05069661 0.16528171 -0.055638902
000020 e6 f4 a1 39 04 1c 3b 3d 64 78 24 3d 70 00 51 3b
       0.00030890777 0.045681015 0.040153876 0.003189113
000030 85 ff 73 3c b7 49 27 be f2 32 e2 bd bb 6a c4 3e
       0.014892464 -0.16336714 -0.11044873 0.3836268
000040 9f da 59 3d dd 3c b8 bc 82 07 bd 3c 54 92 7f bd
       0.05318701 -0.02248996 0.023074869 -0.06239541
000050 21 87 20 3d 4a c8 bf 3d 1d 22 00 3f 89 a1 5e 3d
       0.03919137 0.09364374 0.5005205 0.05435327
000060 f6 45 2e 3c ea e1 00 be 88 d5 ef 3a b5 7a 6a 3d
       0.010636797 -0.1258618 0.001829789 0.05724593
000070 65 03 82 3d d9 b4 19 3d 88 eb 55 3c e8 af 5d 3e
       0.06348304 0.037525985 0.013056643 0.21649134
000080 44 40 85 3c 90 cb 97 3d 0e f2 4b 3c 0c 9f 8f be
       0.016265996 0.07411873 0.012447847 -0.2805103
000090 9b 2a 82 3c 4b 5c ae bc 9a 2b 8a 3d b8 d6 f7 3e
       0.015889456 -0.021284243 0.067465976 0.48406005
0000a0 68 68 c9 3e 1b 50 9f bd 67 aa 25 3c b6 80 86 3d
       0.39337468 -0.07778951 0.010111428 0.065675184
0000b0 42 87 c9 3c ca 16 fc 3c 68 2d bd 3e 3a 41 42 bd
       0.024600629 0.030772585 0.36948705 -0.047425486
0000c0 aa bf 1e bd 26 11 9b 3d f4 4e 06 3e 7c fa 9c 3d
       -0.038757004 0.0757163 0.13116056 0.076649636
0000d0 19 76 d2 3d b7 12 cb bc 30 71 57 bd d1 f4 28 3e
       0.102764316 -0.024789197 -0.05259818 0.1649964
0000e0 17 ca 45 3e 1c 9b 1b 3e 22 c9 80 be 42 e0 e6 3e
       0.19315372 0.15195888 -0.25153452 0.4509297
0000f0 12 ea 2f 3c b6 08 86 3c f0 05 bb 3d e2 19 9c 3d
       0.010736959 0.016361576 0.09131992 0.07622124
000100 0b 85 82 3f bd f8 75 3f 08 3e 8c 3f a2 33 8c 3f
       1.0196851 0.9608267 1.095643 1.0953257
000110 f7 91 7c 3f 1f 33 70 3f 0e cd 88 3f 46 97 8c 3f
       0.98660225 0.93828005 1.0687578 1.0983665
000120 48 0b 86 3f ca f6 81 3f 36 2d 8a 3f c8 50 87 3f
       1.0472193 1.0153439 1.0795047 1.0571527
000130 68 d1 86 3f 59 a7 54 3f 3d 31 60 3f f5 3e 7c 3f
       1.0532656 0.8306785 0.8757513 0.98533565
000140 15 7d 82 3f a5 8c 89 3f 79 0a 87 3f dd 5a 6f 3f
       1.0194422 1.0746046 1.0550071 0.9349802
000150 c9 96 89 3f f1 5b 7d 3f 1f f9 78 3f 07 47 7b 3f
       1.0749141 0.98968416 0.9725513 0.98155254
000160 fe 9b 85 3f 96 db 56 3f 39 bc 85 3f 2f 8f 83 3f
       1.043823 0.8392881 1.0448066 1.0278071
000170 1f 56 88 3f 34 03 89 3f b3 7c 87 3f 3d 5d 7d 3f
       1.0651282 1.0704103 1.058493 0.98970395
000180 86 8a 89 3f d5 59 89 3f 75 07 8a 3f 16 9f 74 3f
       1.0745399 1.073054 1.0783526 0.95555246
000190 25 40 86 3f aa dd 87 3f 95 73 84 3f cf df 79 3f
       1.0488325 1.0614522 1.0347773 0.9760713
0001a0 be 90 7d 3f 24 e5 96 3f 7f 3c 81 3f c1 a8 80 3f
       0.99048984 1.1788678 1.0096587 1.00515
0001b0 d7 79 84 3f 0f 07 88 3f c5 5b 78 3f 83 ce 8c 3f
       1.0349683 1.0627154 0.9701503 1.1000522
0001c0 56 40 98 3f b2 20 7e 3f 98 3f 7e 3f a7 f9 86 3f
       1.1894634 0.9926864 0.99315786 1.0544938
0001d0 a0 03 83 3f 61 dc 89 3f 1e a7 80 3f 51 df 7d 3f
       1.0235481 1.0770379 1.0051 0.9916888
0001e0 7c 17 88 3f 47 d6 8a 3f a9 08 71 3f 57 56 73 3f
       1.0632167 1.0846642 0.9415384 0.9505362
0001f0 b8 67 84 3f f2 1f 82 3f 90 9b 85 3f 72 66 84 3f
       1.0344152 1.0165999 1.0438099 1.0343764
000200 b9 2a 72 bd 2e e1 93 3e 50 bb 20 3e 06 b8 06 3d
       -0.059122775 0.28882736 0.15696454 0.032890342
000210 33 ed e6 3c ac 4b 10 bd 27 6e 75 bd 37 5b 37 bc
       0.028189277 -0.035228416 -0.059919503 -0.011191181
000220 74 63 35 bd 1b 03 37 3d b6 f7 bc 3c 56 ad 82 3c
       -0.0442843 0.044680696 0.023067337 0.015951794
000230 79 97 f6 bb 63 61 2d be 8e ee eb bc 0b 51 5c 3d
       -0.007525381 -0.16931681 -0.028800275 0.053788226
000240 33 5d f0 bc 87 80 4a be 31 a3 82 bd 66 95 0c bd
       -0.029341316 -0.19775592 -0.063787825 -0.034322165
000250 2a 40 2c be 2b 38 55 bd 55 84 54 bd b7 33 80 bd
       -0.16821352 -0.05205552 -0.051884014 -0.06259864
000260 31 71 1b 3b 08 7b 96 bd 5b 8b 19 bd ac 97 07 bb
       0.002371859 -0.07347685 -0.037486415 -0.0020689769
000270 2b b6 64 bc 00 2b d7 bc 47 ad ae 3c b7 81 2d 3c
       -0.013959448 -0.026265621 0.02132286 0.010590008
000280 6e 6f 36 bd bf 04 1b bd 23 9a bc 3c 63 fe 8b bd
       -0.04453986 -0.037846323 0.023022717 -0.0683563
000290 7f 3a 25 bd 44 20 42 3d f7 27 bd bc 3e 1a 84 3d
       -0.04033899 0.047394052 -0.023090346 0.06450318
0002a0 35 04 a4 bc a5 6e eb 3d 26 89 68 bd 06 bb 1e 3b
       -0.020021537 0.11495713 -0.05677142 0.0024220361
0002b0 ef 3a 80 bc 66 ac 37 3d a6 2f 0f 3d 45 1b 3b 3e
       -0.015653102 0.044842146 0.03495755 0.18272121
0002c0 21 5e c8 3c 55 92 d7 3c 96 2b 01 3e 04 eb dd 3c
       0.024458947 0.026314894 0.12614283 0.027089603
0002d0 24 33 21 bd 50 d0 9f bc 0b 17 93 3d 03 d7 1d 3c
       -0.039355412 -0.01950851 0.071821295 0.009633782
0002e0 9e fd 3d bd 20 55 12 be 80 d8 3e 3d 77 77 41 3d
       -0.046384446 -0.14290285 0.04659319 0.04723307
0002f0 34 7f 23 3c 9b cb 05 3c db 16 91 bc 5b 04 19 bd
       0.009979058 0.008166219 -0.017711094 -0.03735767
000300 60 f3 a3 be f7 3a 10 3e 67 55 b9 3e 30 53 be bd
       -0.32021618 0.14084993 0.3619797 -0.092932105
000310 63 09 e9 bb df ef 54 bd 7d b2 39 3e b7 aa 16 be
       -0.0071117147 -0.05198657 0.18134494 -0.1471356
000320 db d1 c1 bd 7b 81 9f 3c ea a1 4d 3e ca 98 15 be
       -0.09463855 0.01947092 0.20081297 -0.14609066
000330 87 47 8f bc 05 e1 5e bd b9 2e 95 bd 1a be bc 3e
       -0.017490162 -0.054413814 -0.07284302 0.36863786
000340 aa f8 7d be d8 8b 81 3e c1 09 c8 3b 01 f6 9b 3d
       -0.24801889 0.25302005 0.0061046784 0.07615281
000350 69 e5 a8 3a 7e 79 6d 3d ce 48 c7 3d dd a7 a8 bc
       0.0012885752 0.057977192 0.09730683 -0.020587856
000360 53 e4 42 3e 1c 74 8d 3d 67 b3 38 bd cb 25 37 3d
       0.19032411 0.06906912 -0.045092966 0.044713777
000370 fc 22 8e bd 18 d4 f6 bd 5d ff 47 bd 05 4a c9 bd
       -0.069402665 -0.120521724 -0.048827518 -0.09828571
000380 fe a3 e6 ba b6 4a c5 3d 19 28 88 bb 78 6e 2c be
       -0.0017596481 0.096333906 -0.0041551706 -0.16839015
000390 27 c3 2e 3e 2f 4c 1c be 8d a6 4e be 33 d9 13 3e
       0.17066632 -0.15263437 -0.20180722 0.14438324
0003a0 00 b0 bc 3e 76 6b 30 3e 09 43 96 bd d9 e0 de 3d
       0.36853027 0.17228493 -0.07337005 0.1088273
0003b0 62 07 d1 3d 68 60 a4 bb da 8b b1 3e f9 1a 8d 3e
       0.10206486 -0.0050163753 0.3467701 0.2755964
0003c0 b8 12 ff 3c 6e af 52 3e ac 77 27 3e 64 7c 76 bd
       0.031136855 0.20574734 0.16354245 -0.060177222
0003d0 ec 3a 9e be 19 85 87 be 17 04 77 3c 51 2b 9c 3c
       -0.3090433 -0.26468733 0.015076659 0.019063624
0003e0 d3 02 6e 3b 41 4d 65 3c f7 77 e0 bd d7 00 43 3e
       0.0036317601 0.01399547 -0.109603815 0.19043289
0003f0 2c 94 ef 3d fb ce 85 3d c7 25 d6 bb d3 fa be 3c
       0.116981834 0.06533619 -0.006535265 0.023312962

network_body.lstm.lstm.bias_hh_l0 f4 [256]
000000 03 94 8f 3d 59 21 ff 3d 92 61 47 3d 9a 0f 60 3d
       0.07010653 0.124575324 0.048677035 0.05470238
000010 9f 7d cf 3c 58 a7 4f bd 99 3f 29 3e 9e e5 63 bd
       0.025328455 -0.0506967 0.16528167 -0.055638902
000020 63 f6 a1 39 00 1c 3b 3d 62 78 24 3d ba 00 51 3b
       0.00030891885 0.045681 0.04015387 0.0031891302
000030 7f ff 73 3c c6 49 27 be fe 32 e2 bd bd 6a c4 3e
       0.014892458 -0.16336736 -0.11044882 0.38362685
000040 9f da 59 3d 01 3d b8 bc 7e 07 bd 3c 8c 92 7f bd
       0.05318701 -0.022490026 0.023074862 -0.062395617
000050 2e 87 20 3d 45 c8 bf 3d 1e 22 00 3f 8d a1 5e 3d
       0.039191417 0.0936437 0.5005206 0.054353286
000060 e6 45 2e 3c ea e1 00 be 6a d5 ef 3a af 7a 6a 3d
       0.010636782 -0.1258618 0.0018297855 0.057245906
000070 64 03 82 3d dc b4 19 3d 63 eb 55 3c ed af 5d 3e
       0.06348303 0.037525997 0.013056609 0.21649142
000080 47 40 85 3c 91 cb 97 3d 12 f2 4b 3c 0c 9f 8f be
       0.016266001 0.07411874 0.012447851 -0.2805103
000090 a1 2a 82 3c 4d 5c ae bc 9b 2b 8a 3d bb d6 f7 3e
       0.015889468 -0.021284247 0.06746598 0.48406014
0000a0 5a 68 c9 3e 1e 50 9f bd 63 aa 25 3c af 80 86 3d
       0.39337426 -0.07778953 0.010111424 0.06567513
0000b0 32 87 c9 3c ca 16 fc 3c 62 2d bd 3e 45 41 42 bd
       0.024600599 0.030772585 0.36948687 -0.047425527
0000c0 a0 bf 1e bd 1d 11 9b 3d f4 4e 06 3e 7a fa 9c 3d
       -0.038756967 0.075716235 0.13116056 0.07664962
0000d0 15 76 d2 3d b5 12 cb bc 5a 71 57 bd cc f4 28 3e
       0.102764286 -0.024789194 -0.052598335 0.16499633
0000e0 15 ca 45 3e 1f 9b 1b 3e 22 c9 80 be 3c e0 e6 3e
       0.1931537 0.15195893 -0.25153452 0.45092952
0000f0 18 ea 2f 3c b8 08 86 3c f2 05 bb 3d e2 19 9c 3d
       0.010736965 0.01636158 0.09131993 0.07622124
000100 09 85 82 3f ba f8 75 3f 08 3e 8c 3f a3 33 8c 3f
       1.0196849 0.9608265 1.095643 1.0953258
000110 f1 91 7c 3f 19 33 70 3f 0e cd 88 3f 44 97 8c 3f
       0.9866019 0.9382797 1.0687578 1.0983663
000120 48 0b 86 3f ca f6 81 3f 36 2d 8a 3f c9 50 87 3f
       1.0472193 1.0153439 1.0795047 1.0571529
000130 68 d1 86 3f 58 a7 54 3f 3f 31 60 3f ee 3e 7c 3f
       1.0532656 0.83067846 0.87575144 0.98533523
000140 16 7d 82 3f a5 8c 89 3f 79 0a 87 3f da 5a 6f 3f
       1.0194423 1.0746046 1.0550071 0.93498003
000150 c9 96 89 3f f2 5b 7d 3f 21 f9 78 3f 08 47 7b 3f
       1.0749141 0.9896842 0.9725514 0.9815526
000160 fe 9b 85 3f 97 db 56 3f 3a bc 85 3f 2f 8f 83 3f
       1.043823 0.8392882 1.0448067 1.0278071
000170 1e 56 88 3f 33 03 89 3f b3 7c 87 3f 37 5d 7d 3f
       1.0651281 1.0704101 1.058493 0.9897036
000180 86 8a 89 3f d4 59 89 3f 75 07 8a 3f 18 9f 74 3f
       1.0745399 1.0730538 1.0783526 0.9555526
000190 25 40 86 3f aa dd 87 3f 95 73 84 3f ce df 79 3f
       1.0488325 1.0614522 1.0347773 0.97607124
0001a0 bb 90 7d 3f 26 e5 96 3f 81 3c 81 3f c1 a8 80 3f
       0.99048966 1.178868 1.0096589 1.00515
0001b0 d8 79 84 3f 0f 07 88 3f c4 5b 78 3f 84 ce 8c 3f
       1.0349684 1.0627154 0.97015023 1.1000524
0001c0 52 40 98 3f b1 20 7e 3f 98 3f 7e 3f a7 f9 86 3f
       1.1894629 0.99268633 0.99315786 1.0544938
0001d0 a2 03 83 3f 61 dc 89 3f 1b a7 80 3f 4d df 7d 3f
       1.0235484 1.0770379 1.0050997 0.99168855
0001e0 7d 17 88 3f 47 d6 8a 3f a9 08 71 3f 56 56 73 3f
       1.0632168 1.0846642 0.9415384 0.95053613
0001f0 b8 67 84 3f f1 1f 82 3f 8e 9b 85 3f 73 66 84 3f
       1.0344152 1.0165998 1.0438097 1.0343765
000200 d0 2a 72 bd 35 e1 93 3e 52 bb 20 3e 04 b8 06 3d
       -0.05912286 0.28882757 0.15696457 0.032890335
000210 29 ed e6 3c b7 4b 10 bd 27 6e 75 bd 43 5b 37 bc
       0.028189259 -0.035228457 -0.059919503 -0.011191192
000220 78 63 35 bd 20 03 37 3d b4 f7 bc 3c 67 ad 82 3c
       -0.044284314 0.044680715 0.023067333 0.015951825
000230 6d 97 f6 bb 68 61 2d be 8c ee eb bc f4 50 5c 3d
       -0.0075253756 -0.16931689 -0.028800271 0.05378814
000240 31 5d f0 bc 8b 80 4a be 2f a3 82 bd 54 95 0c bd
       -0.029341312 -0.19775598 -0.06378781 -0.034322098
000250 28 40 2c be 2f 38 55 bd 4b 84 54 bd b9 33 80 bd
       -0.16821349 -0.052055534 -0.051883977 -0.06259865
000260 2b 71 1b 3b 12 7b 96 bd 5b 8b 19 bd 9c 97 07 bb
       0.0023718576 -0.073476925 -0.037486415 -0.0020689731
000270 23 b6 64 bc ff 2a d7 bc 48 ad ae 3c de 81 2d 3c
       -0.01395944 -0.02626562 0.021322861 0.010590045
000280 70 6f 36 bd c0 04 1b bd 21 9a bc 3c 60 fe 8b bd
       -0.04453987 -0.037846327 0.023022713 -0.068356276
000290 7e 3a 25 bd 40 20 42 3d f7 27 bd bc 3c 1a 84 3d
       -0.040338986 0.047394037 -0.023090346 0.06450316
0002a0 34 04 a4 bc a6 6e eb 3d 28 89 68 bd 2e bb 1e 3b
       -0.020021535 0.11495714 -0.056771427 0.0024220455
0002b0 fd 3a 80 bc 68 ac 37 3d 95 2f 0f 3d 4b 1b 3b 3e
       -0.015653128 0.044842154 0.034957487 0.1827213
0002c0 3d 5e c8 3c 3e 92 d7 3c 96 2b 01 3e 10 eb dd 3c
       0.024458999 0.02631485 0.12614283 0.027089626
0002d0 19 33 21 bd 4e d0 9f bc 0b 17 93 3d 31 d7 1d 3c
       -0.03935537 -0.019508507 0.071821295 0.009633825
0002e0 a2 fd 3d bd 20 55 12 be 57 d8 3e 3d 77 77 41 3d
       -0.04638446 -0.14290285 0.046593037 0.04723307
0002f0 18 7f 23 3c a3 cb 05 3c d9 16 91 bc 5a 04 19 bd
       0.009979032 0.008166227 -0.01771109 -0.037357666
000300 6b f3 a3 be f7 3a 10 3e 65 55 b9 3e 1e 53 be bd
       -0.3202165 0.14084993 0.36197963 -0.09293197
000310 f7 09 e9 bb ed ef 54 bd 8f b2 39 3e c9 aa 16 be
       -0.0071117836 -0.051986624 0.18134521 -0.14713587
000320 e6 d1 c1 bd 6d 81 9f 3c ec a1 4d 3e cb 98 15 be
       -0.09463863 0.019470895 0.200813 -0.14609067
000330 5d 47 8f bc 0b e1 5e bd c4 2e 95 bd 1d be bc 3e
       -0.017490083 -0.054413836 -0.072843105 0.36863795
000340 aa f8 7d be d9 8b 81 3e 5b 09 c8 3b fb f5 9b 3d
       -0.24801889 0.25302008 0.006104631 0.076152764
000350 d5 df a8 3a 8e 79 6d 3d ec 48 c7 3d 07 a8 a8 bc
       0.001288409 0.05797725 0.097307056 -0.020587934
000360 55 e4 42 3e 0c 74 8d 3d 6c b3 38 bd c6 25 37 3d
       0.19032414 0.069069 -0.045092985 0.044713758
000370 f4 22 8e bd 0c d4 f6 bd 81 ff 47 bd 0a 4a c9 bd
       -0.069402605 -0.120521635 -0.048827652 -0.09828575
000380 2a a5 e6 ba b6 4a c5 3d 53 28 88 bb 7f 6e 2c be
       -0.001759683 0.096333906 -0.0041551976 -0.16839026
000390 29 c3 2e 3e 1f 4c 1c be 97 a6 4e be 2e d9 13 3e
       0.17066635 -0.15263413 -0.20180736 0.14438316
0003a0 fa af bc 3e 75 6b 30 3e f7 42 96 bd d8 e0 de 3d
       0.3685301 0.17228492 -0.07336991 0.10882729
0003b0 64 07 d1 3d a6 60 a4 bb d0 8b b1 3e fa 1a 8d 3e
       0.10206488 -0.005016404 0.3467698 0.27559644
0003c0 ca 12 ff 3c 5c af 52 3e d6 77 27 3e 3d 7c 76 bd
       0.031136889 0.20574707 0.16354308 -0.060177077
0003d0 e8 3a 9e be 19 85 87 be 21 04 77 3c 2b 2b 9c 3c
       -0.30904317 -0.26468733 0.015076668 0.019063553
0003e0 dd 02 6e 3b 59 4d 65 3c f8 77 e0 bd c5 00 43 3e
       0.0036317625 0.013995492 -0.10960382 0.19043262
0003f0 52 94 ef 3d d6 ce 85 3d f5 24 d6 bb b3 fa be 3c
       0.11698212 0.065335914 -0.0065351673 0.023312902

action_model._discrete_distribution.branches.0.weight f4 [2, 64]
000000 cc f5 fc 3d 4d 0f b9 be bf 5c 85 be 71 50 18 3e
       0.123515695 -0.36144486 -0.26047322 0.14874436
000010 af cb fb 3e 22 f3 6f 3e 53 29 a9 3e 94 e4 35 be
       0.49178836 0.23432592 0.3303934 -0.17762977
000020 84 18 9c be 2b 81 b2 3e 80 f6 08 be 50 90 56 3e
       -0.30487454 0.34864172 -0.13375282 0.20953488
000030 0b 5e 96 be 53 2b a9 be 8c bc 8d be 59 15 07 3f
       -0.29368624 -0.33040866 -0.27682912 0.5276695
000040 aa ba 39 be 2f 05 fa 3d 11 84 b8 be d5 bf 10 be
       -0.18137613 0.1220802 -0.3603826 -0.14135678
000050 e9 27 89 be 84 4b d7 be 61 b1 fd be 7e c6 aa be
       -0.26788262 -0.420498 -0.49549392 -0.33354563
000060 bf 56 80 bd e5 39 8a 3e d5 f1 a3 be fa 2b b1 3e
       -0.062665455 0.26997295 -0.3202044 0.34603864
000070 77 9f 2d 3c 35 61 ee 3d da 5e 86 3e 07 9a f4 3d
       0.010597101 0.116396345 0.2624424 0.11943441
000080 c9 56 bf be 3d 5c db 3d dc 81 88 3e 89 7b ad 3e
       -0.373709 0.107109524 0.26661575 0.33883312
000090 c1 f9 c4 3d af ac 8d bd 56 d2 a0 be 2f 06 e2 3e
       0.09617949 -0.069177024 -0.31410474 0.44145343
0000a0 8d ec d1 be 4c a4 b0 be aa 3a 6e 3d 42 9e 2b 3e
       -0.41000786 -0.3450035 0.058161415 0.1675959
0000b0 6f 85 d8 3e 7c 2f a5 3e 9e 80 e3 be dd be b5 be
       0.42289302 0.3226279 -0.44434065 -0.3549718
0000c0 61 b4 95 3e 95 fe 47 3e 7a 0e 53 be 6c 31 c6 3d
       0.2923918 0.19530709 -0.20610991 0.09677395
0000d0 fd dc 5e 3e e8 3c 39 be 88 54 b8 3e dd 8b 81 3e
       0.21763988 -0.1808964 0.36001992 0.2530202
0000e0 45 0f 8c be a7 8d 16 be 65 d4 93 3e 3b d9 2c bf
       -0.273554 -0.14702474 0.28872982 -0.6751897
0000f0 60 9f 39 be 59 cc a4 3e d5 be eb bd 7d 7e 5c be
       -0.18127203 0.32187155 -0.11511008 -0.21532626
000100 69 78 d5 bd 20 e8 b8 3e 4d cf 98 3e 0a 7d 20 be
       -0.10423357 0.36114597 0.29845658 -0.15672699
000110 d6 c0 f8 be a6 71 7a be dc 26 ac be 5e db 31 3e
       -0.48584622 -0.24457416 -0.33623397 0.17368838
000120 50 54 97 3e 56 9f b9 be e5 24 e6 3d 01 02 63 be
       0.29556513 -0.36254376 0.11237506 -0.22168733
000130 9a 41 88 3e 1d 57 a4 3e bf ef 88 3e c5 42 0a bf
       0.2661255 0.32097712 0.26745412 -0.5400813
000140 0e b3 3b 3e c6 c3 ff bd 29 1d b4 3e 9d 44 0f 3e
       0.18330023 -0.12488513 0.35178497 0.13991018
000150 5f 25 6c 3e e7 ec ce 3e 3e 65 fe 3e 96 bd b5 3e
       0.23061131 0.40415117 0.49686617 0.35496205
000160 21 4a c7 3d 36 b8 93 be 7d 27 bd 3e 05 67 b1 be
       0.09730936 -0.2885148 0.3694419 -0.3464891
000170 1c b2 e9 bc 64 b1 0d be b0 4e 8b be 7a f3 ce bd
       -0.028527312 -0.138372 -0.2720847 -0.10105033
000180 af a2 c2 3e f4 14 ee bd 34 ba 8d be 96 b3 a5 be
       0.38014743 -0.1162509 -0.27681124 -0.32363576
000190 a4 98 d3 bd ad a6 94 3d d8 29 a0 3e 9d 44 d6 be
       -0.10331848 0.072583534 0.31281924 -0.41849223
0001a0 6b 2c d0 3e 68 83 b0 3e 23 1e 8b bd 69 c2 34 be
       0.40658888 0.34475255 -0.067928575 -0.17652287
0001b0 e2 bc e1 be 1a 53 94 be b5 35 f2 3e 65 88 b9 3e
       -0.4408942 -0.2896965 0.473066 0.36236873
0001c0 71 0f 94 be b7 9e 4a be 13 f3 54 3e 07 5c ca bd
       -0.2891803 -0.19787107 0.2079585 -0.09880834
0001d0 3e 67 59 be 89 95 43 3e a1 83 b4 be 20 bd 80 be
       -0.2123079 0.19100012 -0.35256675 -0.2514429
0001e0 9f 02 9d 3e 65 46 04 3e 66 8c a6 be 34 3e 25 3f
       0.30666062 0.12917478 -0.3252899 0.6454804
0001f0 aa 5a 42 3e a1 bd a0 be 71 50 f4 3d 65 3a 73 3e
       0.18979898 -0.31394675 0.119294055 0.23752744

action_model._discrete_distribution.branches.0.bias f4 [2]
000000 f9 5d 3d bd 16 78 3d 3d
       -0.046232197 0.0462571
