results/Test6/Jumper/Jumper-9999984.pt (torch, 927964 bytes, 57 tensors)

network_body._body_endoder.seq_layers.0.weight f4 [64, 3]
-0.6918217 0.4782376 0.5498526 0.5596287 -0.7803068 -0.92895633 0.30276766 -0.5327775
1.084489 -0.23017603 -0.07923476 -0.543893 0.6271875 1.3048967 -0.34582257 0.1853657
-0.2490985 -0.26408646 -0.37268287 -0.3317165 0.39432892 0.21159062 -1.1714549 -0.5508188
0.3769907 0.55723023 -0.16475312 0.21506827 -0.6513301 -0.08180348 -0.36485612 0.046194524
0.5520581 0.5600751 0.49381846 0.2503559 0.14116873 0.88038975 -0.5862411 0.9699923
-0.019431507 -0.303677 -0.17240411 -0.24725743 0.82068336 -0.17785554 -1.2849932 0.4611282
-0.16607009 -0.14403471 -0.70470893 -0.17163867 -0.837436 0.016163478 -0.041518584 0.07449399
-0.3576897 0.52463406 0.11202403 0.76598287 -0.32032177 0.55237985 1.0987073 0.4575082
-0.49109948 -0.285746 -0.04492212 -0.40123653 -0.4497731 -0.4534232 0.4111655 -0.09349622
0.023884967 -0.21887363 -1.0570912 -0.7572056 -0.026552482 0.7894973 -0.44225034 -0.07038702
0.30524307 0.12022822 -0.15056372 0.5577336 0.09216951 0.7746696 -0.3139116 0.24394906
-0.083320946 -0.87838155 -0.86628926 -0.24044466 0.31071535 0.2196955 0.2619458 -0.5106559
0.05584363 0.18950066 -1.1830175 -0.16316026 0.29647624 0.31608516 0.5161287 -0.3722826
-0.87784207 0.10118577 0.1817829 -0.39465544 -0.05059542 0.38521346 0.48136437 0.047366638
0.027558591 0.4593778 -0.42421257 -0.96899873 0.41418272 -0.206138 -0.129418 -0.14737035
-0.102328144 0.3161561 0.8238032 -2.0271344 0.5956181 -0.61113083 0.069846824 0.25306714
-0.41574165 0.9177591 0.89235795 -0.8995517 -0.37813738 -0.5061982 0.8183503 -0.12372208
-1.113854 -1.587463 -0.25984913 -0.45744333 0.7263612 -0.054740842 0.57215977 1.3692986
-0.08371544 0.63132507 0.4162786 -0.09621473 -0.09662948 0.03888499 -0.1450924 0.8314164
-0.97492695 -1.426032 -0.7242603 -0.51552165 -0.7402826 1.0608538 1.0233359 -0.12928385
0.8870687 0.9827852 -0.5481972 0.4519287 0.62107265 0.37015796 -0.19046766 0.8408544
0.5737391 1.112067 -0.088700205 -0.60952634 0.90729755 0.41286984 0.45346814 0.3040595
1.140623 -0.36143604 -0.3952846 0.60207695 0.68863 -0.27981353 -0.35330826 0.75744534
-0.8846278 -0.6830228 -0.76095736 -0.15206482 0.037992954 0.7470043 0.30563566 -1.1989449
00000000: 3a1b 31bf 8fdb f43e 24c3 0c3f d443 0f3f
00000010: 30c2 47bf 15d0 6dbf 5d04 9b3e 1b64 08bf
00000020: 89d0 8a3f 44b3 6bbe d545 a2bd 923c 0bbf
00000030: 5c8f 203f db06 a73f a80f b1be 82d0 3d3e
00000040: ad13 7fbe 5736 87be 4ad0 bebe bfd6 a9be
00000050: 7be5 c93e 36ab 583e 3cf2 95bf 7602 0dbf
00000060: ed04 c13e a4a6 0e3f 0bb5 28be db3a 5c3e
00000070: 92bd 26bf 9588 a7bd 6cce babe 7836 3d3d
00000080: ae53 0d3f 1561 0f3f c6d5 fc3e a62e 803e
00000090: 898e 103e 3961 613f e613 16bf 6a51 783f
000000a0: d32e 9fbc 8d7b 9bbe b48a 30be 0d31 7dbe
000000b0: 4e18 523f c31f 36be a87a a4bf ff18 ec3e
000000c0: 470e 2abe d67d 13be ce67 34bf 0cc2 2fbe
000000d0: 3562 56bf 4569 843c 640f 2abd 4e90 983d
000000e0: 1b23 b7be 6b4e 063f db6c e53d 7417 443f
000000f0: 3701 a4be c468 0d3f 71a2 8c3f 843e ea3e
00000100: 6471 fbbe 4d4d 92be 4200 38bd e06e cdbe
00000110: a948 e6be 1627 e8be 4984 d23e f27a bfbd
00000120: 68aa c33c 6920 60be c44e 87bf 3ad8 41bf
00000130: 9784 d9bc 7f1c 4a3f a36e e2be 1227 90bd
00000140: d248 9c3e 373a f63d 602d 1abe a1c7 0e3f
00000150: 5ec3 bc3d bf50 463f 05b9 a0be c8cd 793e
00000160: 2ca4 aabd 9ddd 60bf 22c5 5dbf 2037 76be
00000170: 1516 9f3e dbf7 603e c31d 863e 58ba 02bf
00000180: 4abc 643d 760c 423e 1e6d 97bf 7c13 27be
00000190: bccb 973e ead5 a13e 0321 043f d39b bebe
000001a0: 42ba 60bf 7c3a cf3d 4c25 3a3e 4710 cabe
000001b0: 253d 4fbd b33a c53e 6475 f63e 8503 423d
000001c0: 8ec2 e13c 9133 eb3e 6432 d9be 4d10 78bf
000001d0: c20f d43e d715 53be 2786 04be 41e8 16be
000001e0: 6b91 d1bd 36df a13e c4e4 523f 92bc 01c0
000001f0: 6e7a 183f 1273 1cbf da0b 8f3d 0492 813e
00000200: 17dc d4be 43f2 6a3f 9271 643f 0549 66bf
00000210: 399b c1be 3596 01bf 687f 513f 0062 fdbd
00000220: c592 8ebf fd31 cbbf f20a 85be 0336 eabe
00000230: cff2 393f ef37 60bd 1079 123f 2d45 af3f
00000240: 0073 abbd 859e 213f 7822 d53e 3a0c c5bd
00000250: ade5 c5bd de45 1f3d 1a93 14be b5d7 543f
00000260: d094 79bf 3788 b6bf 1f69 39bf 3af9 03bf
00000270: 2983 3dbf 0fca 873f acfc 823f fc62 04be
00000280: ef16 633f d097 7b3f a756 0cbf 3363 e73e
00000290: 9efe 1e3f 5885 bd3e f409 43be 3c42 573f
000002a0: 91e0 123f 3658 8e3f 74a8 b5bd eb09 1cbf
000002b0: a744 683f ad63 d33e fa2c e83e b0ad 9b3e
000002c0: efff 913f 250e b9be be62 cabe b721 1a3f
000002d0: 0e4a 303f b843 8fbe d2e4 b4be f0e7 413f
000002e0: f876 62bf 95da 2ebf 1ace 42bf e1b6 1bbe
000002f0: 809e 1b3d ac3b 3f3f 477c 9c3e 0777 99bf

network_body._body_endoder.seq_layers.0.bias f4 [64]
0.12388785 0.060076915 -0.18143107 0.22588573 -0.4835211 -0.009347508 0.1503812 0.07438144
-0.31259033 -0.102587216 0.060981747 -0.11452511 0.06119674 -0.07994182 -0.024295868 0.04550349
0.29717773 0.1630869 0.18729743 -0.08656007 0.033287592 -0.019974353 0.18731363 0.044783175
0.17968206 0.09305758 0.05312588 -0.16088942 -0.032974783 0.066623345 0.030653521 0.023544177
0.18231778 0.031937618 0.043121044 0.044122905 -0.050297152 -0.17296246 0.1249273 0.23729186
0.020037072 -0.07732578 0.06348749 -0.0929301 0.008074614 0.3681676 0.024190603 0.03335825
-0.0016120111 0.07650114 0.40051752 -0.26183444 0.07050436 0.024516447 0.1365363 -0.110024594
-0.34026626 0.11264742 -0.08529317 0.08271765 -0.02710375 0.026826216 0.31552094 0.05743495
00000000: eab8 fd3d 3613 763d 11c9 39be 974e 673e
00000010: 1490 f7be 4a26 19bc 87fd 193e 4c55 983d
00000020: d70b a0be 3f19 d2bd ffc7 793d 248c eabd
00000030: 6fa9 7a3d 89b8 a3bd 2108 c7bc de61 3a3d
00000040: ae27 983e 4100 273e e6ca 3f3e 6846 b1bd
00000050: 9258 083d 41a1 a3bc 25cf 3f3e 906e 373d
00000060: 93fe 373e f994 be3d 869a 593d 32c0 24be
00000070: 9110 07bd d271 883d 181d fb3c b8df c03c
00000080: 83b1 3a3e 05d1 023d b19f 303d 38ba 343d
00000090: 6304 4ebd 121d 31be e2d9 ff3d a3fc 723e
000000a0: c924 a43c fb5c 9ebd bb05 823d 2352 bebd
000000b0: 634b 043c 7780 bc3e 5f2b c63c a9a2 083d
000000c0: 1e4a d3ba a1ac 9c3d a210 cd3e 2a0f 86be
000000d0: 9764 903d b7d6 c83c 2cd0 0b3e 9354 e1bd
000000e0: 6137 aebe b1b3 e63d 2fae aebd df67 a93d
000000f0: af08 debc a7c2 db3c f68b a13e e940 6b3d

network_body._body_endoder.seq_layers.2.weight f4 [64, 64]
0.15104009 -0.3586735 0.003921896 -0.12589823 0.43104526 -0.12679935 0.0031613412 -0.10623812
0.16297291 0.016287602 0.349003 0.07803059 0.17857489 0.15342723 -0.01847374 -0.4476837
-0.07553774 -0.18186678 -0.093454264 -0.026392018 0.30307883 -0.33770034 -0.11420457 0.28961477
-0.16024949 0.30653065 0.057427295 0.09559827 0.36747855 -0.31097382 -0.14522073 -0.25513956
-0.23981208 0.21264204 -0.27337515 0.06756333 0.16038606 -0.006609481 -0.005735687 -0.10648996
0.2261034 -0.042489026 -0.11067007 -0.3186577 0.03812744 -0.05315413 0.22240955 0.3694587
0.20724417 0.009456101 0.04472685 -0.17820817 0.17871241 0.19617961 0.15574677 0.048197262
0.05277738 0.28018618 0.05126195 -0.0025367774 -0.17544177 -0.032385062 0.06260223 -0.3174392
-0.06350483 -0.22993265 -0.04358078 0.14588983 0.0043285885 0.11601848 0.012471222 -0.34773487
0.25192124 -0.12265131 0.03157949 0.027828347 0.11799354 0.095563404 0.33570185 -0.016894512
-0.1492103 0.23889877 -0.010327794 -0.06339671 0.31941923 -0.35300037 0.009517018 -0.039068848
-0.05355733 -0.014871647 0.2993057 0.11096709 0.040899374 -0.42946717 0.07007016 -0.35186076
-0.12371787 0.14773685 -0.29951432 -0.43444946 0.21157515 -0.17125332 -0.17761052 -0.028149113
0.2611737 0.10505006 -0.059714407 0.021233203 0.40744588 -0.25806642 0.47277007 0.15132003
0.11489328 -0.09225846 0.3597485 -0.083051145 0.14505696 0.31273353 0.2670357 0.006244856
0.06735979 0.33784094 -0.027120264 0.24332348 -0.081738286 -0.007639235 0.17765935 -0.061571
-0.019760745 -0.37916616 0.24255519 0.115213096 0.0004521853 -0.06151101 0.18324997 -0.06872756
0.10277047 -0.036844004 0.050246395 0.12130273 0.18861163 0.12861888 0.25176674 -0.072479114
-0.25450188 -0.03247115 -0.0272305 -0.15372714 0.053609252 0.06385917 -0.21608646 -0.07522056
0.02836237 0.19855252 0.24461831 0.0833361 0.13895267 -0.44962454 0.1128374 -0.1857763
0.16296442 0.049729552 -0.30116177 -0.0701325 -0.084571235 -0.20512699 -0.008053393 -0.025542628
0.07394567 0.09133194 -0.22380358 -0.21499506 0.377469 -0.121533096 0.13909091 0.05617948
0.27051795 -0.09113349 0.037897456 -0.00038801756 -0.032093614 0.13671927 0.047685716 0.12779157
-0.1525091 0.060350522 0.18836544 0.033907704 -0.20326659 -0.17653053 0.011941305 -0.24315347
0.28236258 -0.3070967 -0.20762941 0.06544686 0.07047204 -0.1345126 0.18073481 -0.12935027
0.1144699 -0.23032354 0.24632616 -0.33302826 -0.07774256 0.020787068 0.5006184 -0.2359767
-0.09512628 -0.24662475 0.0046881433 0.14562505 0.2810874 -0.2549336 -0.053663496 0.1818327
-0.03456157 0.24094136 -0.07457174 0.20496732 0.3867913 -0.515166 0.028347632 -0.31975776
-0.17471412 0.18250416 -0.41014177 -0.3684864 0.042843685 0.102239236 -0.018524429 0.049425583
0.5326911 -0.016871994 -0.052672915 -0.3018701 0.27959174 -0.24014643 0.2615711 0.19682705
0.27414474 -0.24436918 -0.0852868 0.116245486 0.15760984 0.18264182 0.43513727 0.31369215
-0.25324816 0.1353284 0.22602491 0.3261415 0.080287956 -0.21942468 0.11371996 -0.17746869
00000000: 41aa 1a3e 0ea4 b7be 4083 803b 77eb 00be
00000010: f7b1 dc3e b0d7 01be 812e 4f3b 5f93 d9bd
00000020: 5fe2 263e 946d 853c 85b0 b23e 81ce 9f3d
00000030: 56dc 363e 071c 1d3e 3e56 97bc cc36 e5be
00000040: 88b3 9abd 493b 3abe f364 bfbd 1334 d8bc
00000050: 262d 9b3e 0fe7 acbe 16e4 e9bd 6348 943e
00000060: 7118 24be 96f1 9c3e e238 6b3d 07c9 c33d
00000070: 2626 bc3e f637 9fbe beb4 14be a7a1 82be
00000080: 4c91 75be d6be 593e d4f7 8bbe a55e 8a3d
00000090: 3e3c 243e 5894 d8bb 6ef2 bbbb 6817 dabd
000000a0: a687 673e f908 2ebd fda6 e2bd 1a27 a3be
000000b0: 852b 1c3d 25b8 59bd 54bf 633e b129 bd3e
000000c0: d137 543e c3ed 1a3c 8033 373d 347c 36be
000000d0: 6300 373e 4fe3 483e 157c 1f3e 7e6a 453d
000000e0: 182d 583d 9074 8f3e 0df8 513d 1040 26bb
000000f0: 02a7 33be 33a6 04bd 9935 803d 6487 a2be
00000100: d20e 82bd 7773 6bbe c381 32bd 2564 153e
00000110: d5d6 8d3b 199b ed3d 1954 4c3c 4e0a b2be
00000120: d2fb 803e 9c30 fbbd 7f59 013d 46f8 e33c
00000130: 99a6 f13d bfb6 c33d 1de1 ab3e 5c66 8abc
00000140: 96ca 18be e1a1 743e e835 29bc 22d6 81bd
00000150: eb8a a33e 77bc b4be 44ed 1b3c a806 20bd
00000160: ee5e 5bbd 35a8 73bc 993e 993e b742 e33d
00000170: 1a86 273d 1fe3 dbbe f280 8f3d 1827 b4be
00000180: cb5f fdbd 5448 173e f159 99be 2970 debe
00000190: 28a7 583e 085d 2fbe 88df 35be f898 e6bc
000001a0: 8fb8 853e 7c24 d73d 1897 74bd 41f1 ad3c
000001b0: bf9c d03e 4821 84be eb0e f23e a3f3 1a3e
000001c0: 2b4d eb3d 01f2 bcbd f530 b83e b816 aabd
000001d0: d089 143e 9c1e a03e e7b8 883e a6a1 cc3b
000001e0: eef3 893d 7df9 ac3e 512b debc ca29 793e
000001f0: 6766 a7bd 8c52 fabb 55ec 353e df31 7cbd
00000200: 49e1 a1bc 1122 c2be 6360 783e d8f4 eb3d
00000210: 4913 ed39 f8f2 7bbd e1a5 3b3e 09c1 8cbd
00000220: 5379 d23d bde9 16bd 2acf 4d3d 916d f83d
00000230: 6823 413e abb4 033e 92e7 803e ee6f 94bd
00000240: 124e 82be 7800 05bd 7f12 dfbc a66a 1dbe
00000250: 6095 5b3d 99c8 823d c545 5dbe 3d0d 9abd
00000260: 3358 e83c 5a51 4b3e 397d 7a3e 1eac aa3d
00000270: 9c49 0e3e 3035 e6be 4b17 e73d 243c 3ebe
00000280: 25e0 263e 37b1 4b3d e031 9abe a1a1 8fbd
00000290: af33 adbd cf0c 52be 61f2 03bc c63e d1bc
000002a0: d470 973d 3d0c bb3d c42c 65be aa27 5cbe
000002b0: 9e43 c13e 58e6 f8bd d96d 0e3e 741c 663d
000002c0: 5481 8a3e 32a4 babd 5d3a 1b3d d66e cbb9
000002d0: 9874 03bd 2300 0c3e 1952 433d cbdb 023e
000002e0: 582b 1cbe 1c32 773d dfe2 403e cee2 0a3d
000002f0: 1e25 50be 6bc4 34be 77a5 433c 39fd 78be
00000300: d491 903e c73b 9dbe ce9c 54be 0109 863d
00000310: a553 903d acbd 09be 8c12 393e 6674 04be
00000320: 326f ea3d efd9 6bbe ed3c 7c3e ae82 aabe
00000330: 7e37 9fbd a449 aa3c 8728 003f e0a3 71be
00000340: 91d1 c2bd 338b 7cbe ff9e 993b bc1e 153e
00000350: b0ea 8f3e a886 82be 41ce 5bbd 5a32 3a3e
00000360: 6f90 0dbd 55b9 763e 12b9 98bd f4e2 513e
00000370: 8209 c63e ebe1 03bf 4b39 e83c 4ab7 a3be
00000380: 42e8 32be 5fe2 3a3e 1afe d1be 40aa bcbe
00000390: dc7c 2f3d ce62 d13d 8bc0 97bc 7b72 4a3d
000003a0: 725e 083f 2337 8abc 8ebf 57bd b88e 9abe
000003b0: a626 8f3e f2e8 75be a6ec 853e 088d 493e
000003c0: b35c 8c3e ea3b 7abe d9aa aebd 1d12 ee3d
000003d0: 7964 213e 7506 3b3e 50ca de3e 429c a03e
000003e0: bea9 81be 8793 0a3e 1373 673e 05fc a63e
000003f0: 036e a43d ddb0 60be 03e6 e83d 5aba 35be

network_body._body_endoder.seq_layers.2.bias f4 [64]
0.021166109 -0.008020026 0.004635888 0.019185912 0.04495225 0.028986925 -0.006813626 -0.015033066
0.038358614 0.022947678 -0.04860671 0.037698492 0.03297628 -0.024117334 -0.07134983 0.02475852
0.0054566218 0.03728349 0.017074656 0.036225397 0.041772597 0.045658138 0.036065686 0.05159089
0.07753846 -0.020620042 -0.06772029 0.021426711 0.051942203 -0.051903702 -0.0140049085 -0.0636175
0.05526451 0.04983223 0.012144418 0.029623525 -0.0053202477 0.02415506 0.05196571 0.03969785
0.013999704 0.029067032 0.053340554 0.06025743 0.018619439 0.058267064 0.0059962333 0.020151597
-0.0018330247 0.024014823 0.036862083 -0.06624295 -0.024384413 0.0155195575 0.060974576 -0.014991346
0.07110295 -0.009963934 0.00995934 -0.016859429 0.019868663 -0.01926101 -0.025666758 0.035446983
00000000: 8c64 ad3c 6d66 03bc a6e8 973b c62b 9d3c
00000010: da1f 383d fd75 ed3c d644 dfbb 404d 76bc
00000020: ec1d 1d3d c5fc bb3c d417 47bd bc69 1a3d
00000030: 2312 073d b791 c5bc dc1f 92bd 61d2 ca3c
00000040: 76cd b23b 93b6 183d 26e0 8b3c 1561 143d
00000050: be19 2b3d 0704 3b3d 9db9 133d f850 533d
00000060: 7ccc 9e3d 5deb a8bc efb0 8abd 1287 af3c
00000070: 59c1 543d fa98 54bd d874 65bc e449 82bd
00000080: 0a5d 623d e11c 4c3d 62f9 463c 09ad f23c
00000090: 7955 aebb d5e0 c53c ffd9 543d 369a 223d
000000a0: 045f 653c fc1d ee3c a07b 5a3d 7fd0 763d
000000b0: cb87 983c 72a9 6e3d 0d7c c43b f614 a53c
000000c0: 1a42 f0ba bcba c43c b2fc 163d 62aa 87bd
000000d0: d2c1 c7bc be45 7e3c 7ac0 793d 439e 75bc
000000e0: 6c9e 913d c53f 23bc 802c 233c c91c 8abc
000000f0: 9bc3 a23c 44c9 9dbc 1843 d2bc db30 113d

network_body.lstm.lstm.weight_ih_l0 f4 [256, 64]
0.17338422 0.18472111 0.19976352 0.09561836 -0.051028974 0.0011680665 0.008428095 0.34769762
-0.013766295 0.20568487 0.10800029 0.028676055 0.022543242 0.29313082 -0.120345086 0.11168283
-0.00983217 -0.2986867 0.16702056 0.17289045 0.18735336 0.00025789964 -0.34141123 -0.080899976
-0.0254371 0.39207745 0.17671901 0.03357557 0.021409031 0.20926782 -0.03576948 0.12162397
0.18829127 -0.08705938 -0.047368936 -0.06308179 0.14890286 0.30435684 0.20853482 -0.08198114
0.26453605 -0.21475728 0.04967924 -0.1077586 -0.019657232 -0.06683307 0.3939731 0.14480332
0.25457332 -0.030907484 -0.034664694 -0.12566333 0.012095806 0.011197007 -0.02931297 0.15593882
0.26149943 -0.045934655 -0.02627843 0.12553926 -0.26885048 0.0016544657 0.10338525 -0.28406948
-0.20166992 -0.112765215 0.21676627 -0.18505187 0.2684087 0.021945005 -0.062891595 -0.0011366775
-0.03690806 -0.2234935 0.23947051 0.34299538 0.083046876 0.050041083 0.13897686 -0.00551288
-0.18345153 -0.058627576 0.28543037 0.07768031 0.39241898 0.173274 0.2341796 0.2916622
-0.043991204 -0.189426 0.24826263 -0.0742754 0.21673067 0.15956509 -0.052770723 0.1566558
0.07579473 -0.18968616 0.13546592 0.021140756 -0.10256157 0.067828216 0.14610858 0.13932398
0.12624563 0.19059125 -0.17240565 0.2667574 0.02752478 -0.1395433 0.028061569 -0.042662825
0.21195583 -0.03082765 -0.093520306 0.053347025 -0.1127128 -0.29566693 0.12277129 0.08870823
-0.0907451 0.10689034 -0.25183812 0.021512246 0.10266574 -0.052009713 0.16458085 0.053319495
-0.029507454 0.07103 -0.036923084 0.16697903 -0.15908402 -0.11832312 0.027071536 0.042493023
0.25480685 -0.059656106 -0.01702314 -0.16077517 -0.30684102 0.13713488 -0.023534572 0.17868309
0.07593124 -0.020999061 0.04454334 0.0403864 0.07325016 -0.29498985 -0.00406553 0.051326122
-0.11951037 0.0740056 0.11274002 -0.17229044 -0.19772395 -0.023974624 -0.0878404 0.052949578
-0.008903954 0.021411732 -0.14406303 0.19113581 0.2944387 0.19390497 0.13806388 0.12572697
0.11375056 -0.07359914 -0.18890813 -0.10904917 -0.059425067 -0.025643874 0.032556895 0.07076202
0.007772784 -0.0036166776 -0.23094977 0.0049449867 0.16718572 0.074756764 -0.20563136 0.070535205
0.0036406955 -0.14780729 -0.28330615 0.14163037 0.0027958397 -0.11277507 0.14997724 -0.14503889
0.14145294 0.07003419 0.051263712 -0.2902895 0.18411446 0.05346276 0.10223591 -0.07518917
0.18723445 -0.08184152 0.24196322 -0.14778195 -0.1248582 0.1439108 0.20313154 -0.18639529
-0.005240938 0.27272588 0.08329004 0.14402826 0.14327088 -0.14736184 -0.120388165 0.013008475
-0.017679011 0.08798055 -0.14323688 -0.118692294 -0.16136548 0.024706872 -0.07517836 0.22215945
0.0940498 0.015841307 0.0024180636 -0.17387417 -0.052704636 0.014471223 0.1041212 0.017802978
0.20454617 -0.19403929 -0.07210917 0.12430226 0.113140695 0.13847832 0.15706472 0.11605219
0.07597689 0.18308398 -0.14815103 -0.0076472512 0.0303472 0.047207903 -0.038623985 0.22328241
0.048438467 0.18503872 0.00856705 -0.027776286 0.04983269 0.06299989 -0.059349306 -0.19228162
00000000: a28b 313e 8827 3d3e cf8e 4c3e 8fd3 c33d
00000010: c203 51bd cf19 993a fe15 0a3c 6c05 b23e
00000020: 078c 61bc 0e9f 523e 422f dd3d 0cea ea3c
00000030: 9bac b83c 3e15 963e 7c77 f6bd f8b9 e43d
00000040: 1c17 21bc 77ed 98be 7007 2b3e 320a 313e
00000050: 8fd9 3f3e b436 8739 74cd aebe e3ae a5bd
00000060: 7761 d0bc 60be c83e d4f5 343e 8986 093d
00000070: fe61 af3c 4e4a 563e 0583 12bd fd15 f93d
00000080: 6dcf 403e 304c b2bd ee05 42bd 0731 81bd
00000090: fe79 183e a9d4 9b3e 278a 553e bae5 a7bd
000000a0: 4571 873e 55e9 5bbe 757c 4b3d 8ab0 dcbd
000000b0: 3408 a1bc c7df 88bd d8b6 c93e 5247 143e
000000c0: 6f57 823e b131 fdbc 91fc 0dbd e3ad 00be
000000d0: 7d2d 463c a773 373c c121 f0bc 6dae 1f3e
000000e0: 41e3 853e fa25 3cbd dd45 d7bc 5d8d 003e
000000f0: c5a6 89be a8da d83a a5bb d33d 8e71 91be
00000100: 8f82 4ebe 73f1 e6bd faf7 5d3e 3d7e 3dbe
00000110: dd6c 893e 03c6 b33c 4fcd 80bd 91fc 94ba
00000120: e82c 17bd 7bdb 64be c237 753e 179d af3e
00000130: 7b14 aa3d e1f7 4c3d f34f 0e3e 64a5 b4bb
00000140: b8da 3bbe 7823 70bd ee23 923e db16 9f3d
00000150: 24eb c83e bd6e 313e c7cc 6f3e bf54 953e
00000160: 1f30 34bd e4f8 41be 8f38 7e3e b31d 98bd
00000170: a5ee 5d3e 0865 233e 1d26 58bd 616a 203e
00000180: 443a 9b3d 173d 42be 94b7 0a3e 612f ad3c
00000190: cd0b d2bd 85e9 8a3d 7d9d 153e f2aa 0e3e
000001a0: 8946 013e 5a2a 433e 1b8b 30be 6d94 883e
000001b0: a67b e13c 70e4 0ebe 60e1 e53c 37bf 2ebd
000001c0: f30a 593e 458a fcbc 9387 bfbd 6982 5a3d
000001d0: f8d5 e6bd a861 97be 846f fb3d a9ac b53d
000001e0: 91d8 b9bd 53e9 da3d edf0 80be 733a b03c
000001f0: 6a42 d23d 2308 55bd e287 283e 8b65 5a3d
00000200: 9eb9 f1bc 2d78 913d a93c 17bd 8dfc 2a3e
00000210: ece6 22be 6453 f2bd 20c5 dd3c 2a0d 2e3d
00000220: 0b76 823e f659 74bd 1d74 8bbc 3fa2 24be
00000230: 441a 9dbe 166d 0c3e 93cb c0bc b3f8 363e
00000240: d781 9b3d 3906 acbc 1473 363d 366c 253d
00000250: 2e04 963d e908 97be 2338 85bb 573b 523d
00000260: dac1 f4bd 3f90 973d 3de4 e63d e86c 30be
00000270: 2678 4abe 6e66 c4bc abe5 b3bd a8e1 583d
00000280: e4e1 11bc a867 af3c 4285 13be 1bb9 433e
00000290: abc0 963e 068f 463e 9e60 0d3e 92be 003e
000002a0: 0ef6 e83d 25bb 96bd 2271 41be 2c55 dfbd
000002b0: b367 73bd 1a13 d2bc 615a 053d aeeb 903d
000002c0: d7b2 fe3b c805 6dbb 197e 6cbe 8e09 a23b
000002d0: bc32 2b3e 131a 993d 0791 52be c374 903d
000002e0: bc98 6e3b cb5a 17be 810d 91be 8d07 113e
000002f0: 683a 373b 9ef6 e6bd a293 193e 1385 14be
00000300: 0ad9 103e 166e 8f3d e6f9 513d d3a0 94be
00000310: 8088 3c3e c4fb 5a3d 1061 d13d c8fc 99bd
00000320: 63ba 3f3e 879c a7bd 35c5 773e 2754 17be
00000330: a8b5 ffbd 5a5d 133e b701 503e 68de 3ebe
00000340: 2dbc abbb baa2 8b3e f893 aa3d 257c 133e
00000350: 9ab5 123e 06e6 16be 128e f6bd 8021 553c
00000360: 93d3 90bc 262f b43d b0ac 12be f214 f3bd
00000370: fe3c 25be 1166 ca3c 1df7 99bd c47d 633e
00000380: 2e9d c03d a1c5 813c 6078 1e3b 120c 32be
00000390: d1e0 57bd b518 6d3c 7f3d d53d 8dd7 913c
000003a0: 8d74 513e 3cb2 46be f9ad 93bd 2f92 fe3d
000003b0: 4fb6 e73d 43cd 0d3e 93d5 203e c5ac ed3d
000003c0: c699 9b3d 5e7a 3b3e e7b4 17be cb95 fabb
000003d0: b19a f83c 135d 413d 2f34 1ebd 25a4 643e
000003e0: 6a67 463d ca7a 3d3e d05c 0c3c 188b e3bc
000003f0: 5d1d 4c3d 1606 813d 4218 73bd 79e5 44be

network_body.lstm.lstm.weight_hh_l0 f4 [256, 64]
-0.07512737 0.079624645 0.084419005 0.12013551 0.14329146 0.075298436 0.12040444 0.13663623
-0.21733066 -0.19238694 0.053107634 -0.14414014 -0.088655084 0.2538927 0.18716015 -0.09135977
-0.040292393 -0.52408653 0.11799956 0.12506577 -0.042349283 0.055439662 0.13480964 -0.014268893
-0.02176848 -0.011182572 0.14749044 0.11288313 0.04263139 0.29097247 0.12911025 0.07990385
0.21138968 -0.05979539 -0.10733544 0.03089815 -0.11270046 -0.017387146 0.12272267 -0.01782518
-0.17798713 -0.13600358 0.14332022 0.06743099 -0.076219134 0.12939753 -0.1442399 -0.09624916
0.2863289 -0.045763943 0.16355538 0.21083479 -0.09859516 0.04916648 0.14265266 0.039098058
0.16929054 -0.1499147 -0.10642624 0.05243043 0.1988084 0.17753462 -0.32725018 0.06253081
0.34741482 -0.120442614 -0.030465435 0.066105366 -0.33645883 -0.30785194 -0.0902908 0.1906131
0.023310797 0.12481293 -0.22728345 0.040065255 -0.13156945 -0.20440017 0.12722765 -0.49198526
0.09473137 0.065825984 0.16750789 0.32688856 0.16315174 0.15283346 0.5075513 -0.14780875
-0.058916647 0.10349112 -0.028469412 -0.27920508 -0.12464128 -0.130997 0.025335897 -0.07307487
0.16743682 0.298742 -0.21341185 0.15328571 0.2565199 0.04807635 -0.06516137 -0.20304705
0.5175523 0.20603031 -0.19472754 -0.22769828 -0.29633212 -0.04571177 0.49695358 0.36873785
0.12994748 -0.05135557 -0.036602598 -0.065436974 -0.014299027 0.037348274 0.08629449 0.15075824
0.23137954 -0.15074344 -0.02509005 0.56110114 -0.121394075 -0.111313134 -0.045528177 0.31385875
-0.3779701 -0.12136218 0.14309123 0.110968 0.099562064 -0.18603149 0.13660035 -0.089367546
0.014965682 0.040264074 -0.29307362 -0.06701475 0.12998638 0.006557604 -0.21444961 0.053877436
0.11586947 -0.75417626 -0.07287413 0.02116565 -0.023965562 -0.168718 0.22758812 -0.045292504
0.094244674 -0.015555209 -0.031221194 -0.005956931 0.09808961 0.25285253 -0.07381439 0.23213258
-0.21949725 0.29578242 -0.11813478 0.004077239 0.053005386 -0.037656676 0.013722838 0.011273263
-0.10308666 0.22017258 0.2318646 -0.11032827 0.046248756 -0.055055097 -0.09721776 0.28380784
-0.18098375 0.003912574 0.018979035 0.096861824 -0.015408764 0.06970805 -0.15535758 -0.0052757775
-0.014430365 -0.11366591 0.18576208 0.12397168 -0.15268587 0.07242424 -0.122433476 0.15223299
-0.023809496 -0.05903415 -0.026200978 -0.090915225 -0.033700313 -0.02259785 -0.053231418 -0.09905807
-0.085403405 0.20584446 -0.10512143 0.23113565 -0.024169229 0.07259863 -0.11298347 0.05806669
0.07419308 0.18280484 -0.12640603 -0.011951231 -0.06396315 -0.16197339 0.047497217 0.12928958
-0.27696195 -0.07888921 -0.1062541 -0.122640915 0.24785453 0.18862508 0.06421288 0.21095029
-0.08079201 0.08917586 -0.114275895 0.053454023 0.22325696 0.034152515 -0.12355604 -0.11773257
0.03533821 -0.10238687 0.1487395 -0.22186501 0.03398072 0.06066391 -0.056668546 -0.1645903
0.1309101 -0.17925073 -0.110951 0.0044786455 -0.05678598 0.1147097 -0.073519506 0.048584
-0.17596698 0.06653731 0.15383896 -0.11770289 -0.2573557 -0.17252846 -0.11663026 0.10837434
00000000: 61dc 99bd 3f12 a33d dfe3 ac3d 9b09 f63d
00000010: ffba 123e 1136 9a3d 9a96 f63d 5eea 0b3e
00000020: ee8b 5ebe 1501 45be 6487 593d 7999 13be
00000030: cc90 b5bd 39fe 813e e9a6 3f3e d51a bbbd
00000040: a309 25bd 892a 06bf c1a9 f13d 3e11 003e
00000050: 7176 2dbd b314 633d 8a0b 0a3e 13c8 69bc
00000060: d053 b2bc 1b37 37bc bc07 173e 452f e73d
00000070: 419e 2e3d 58fa 943e 7a35 043e a1a4 a33d
00000080: 8976 583e 03ec 74bd afd2 dbbd 1e1e fd3c
00000090: 80cf e6bd 7d6f 8ebc 0656 fb3d 1d06 92bc
000000a0: 4242 36be 8644 0bbe 89c2 123e 4219 8a3d
000000b0: c718 9cbd c980 043e a0b3 13be 481e c5bd
000000c0: b499 923e f972 3bbd 107b 273e 13e5 573e
000000d0: 42ec c9bd ca62 493d 8a13 123e 4925 203d
000000e0: 805a 2d3e 3d83 19be 00f6 d9bd 4ac1 563d
000000f0: 6e94 4b3e a3cb 353e 568d a7be 2710 803d
00000100: 5be0 b13e 9eaa f6bd a692 f9bc 4062 873d
00000110: 5544 acbe c59e 9dbe 62ea b8bd 1530 433e
00000120: 49f6 be3c ec9d ff3d febc 68be 771b 243d
00000130: 24ba 06be 474e 51be f747 023e 7ee5 fbbe
00000140: 8502 c23d c6cf 863d 3087 2b3e f05d a73e
00000150: 4011 273e 6080 1c3e e2ee 013f 2d5b 17be
00000160: 9552 71bd 27f3 d33d af38 e9bc f8f3 8ebe
00000170: ed43 ffbd 1424 06be 3a8d cf3c 47a8 95bd
00000180: 8f74 2b3e b6f4 983e a388 5abe eef6 1c3e
00000190: 9456 833e b5eb 443d 5373 85bd 91eb 4fbe
000001a0: 4f7e 043f 9cf9 523e a866 47be bd29 69be
000001b0: d8b8 97be 443c 3bbd b370 fe3e 35cb bc3e
000001c0: f410 053e 385a 52bd 9bec 15bd d203 86bd
000001d0: 7746 6abc 81fa 183d 2abb b03d 5e60 1a3e
000001e0: c2ee 6c3e 7d5c 1abe a689 cdbc 53a4 0f3f
000001f0: 759d f8bd 24f8 e3bd c17b 3abd 18b2 a03e
00000200: 4c85 c1be bc8c f8bd 8286 123e 3143 e33d
00000210: 32e7 cb3d 0a7f 3ebe f6e0 0b3e 5506 b7bd
00000220: 9f32 753c f1eb 243d bf0d 96be 073f 89bd
00000230: 261b 053e 2be1 d63b ae98 5bbe 96ae 5c3d
00000240: f94c ed3d b211 41bf 083f 95bd 9663 ad3c
00000250: 6d53 c4bc 69c4 2cbe dc0c 693e a284 39bd
00000260: 5a03 c13d 46db 7ebc 97c3 ffbc 5c32 c3bb
00000270: 35e3 c83d e375 813e 002c 97bd 2ab4 6d3e
00000280: e3c3 60be cb70 973e a6f0 f1bd 5c9a 853b
00000290: 2d1c 593d e33d 1abd c1d5 603c 7eb3 383c
000002a0: 191f d3bd ec74 613e ea6d 6d3e caf3 e1bd
000002b0: 566f 3d3d 7481 61bd 1b1a c7bd 434f 913e
000002c0: ce53 39be 0d35 803b ec79 9b3c 7e5f c63d
000002d0: 0a75 7cbc 18c3 8e3d 0f16 1fbe 6ee0 acbb
000002e0: 566d 6cbc acc9 e8bd 6a38 3e3e dde4 fd3d
000002f0: af59 1cbe 2953 943d 67be fabd f7e2 1b3e
00000300: 220c c3bc cbcd 71bd 6fa3 d6bc c331 babd
00000310: 5709 0abd 201f b9bc 3009 5abd f5de cabd
00000320: fbe7 aebd e4c8 523e e749 d7bd d3ae 6c3e
00000330: 8cfe c5bc 97ae 943d e163 e7bd 56d7 6d3d
00000340: 8bf2 973d 3131 3b3e 9570 01be 19cf 43bc
00000350: 1dff 82bd 5adc 25be 718c 423d 7d64 043e
00000360: f5cd 8dbe ab90 a1bd c09b d9bd 292b fbbd
00000370: 94cd 7d3e ef26 413e 0b82 833d 5a03 583e
00000380: 4876 a5bd d5a1 b63d 7b09 eabd 9bf2 5a3d
00000390: 799d 643e 82e3 0b3d f30a fdbd c61d f1bd
000003a0: cdbe 103d 35b0 d1bd 2b4f 183e 9530 63be
000003b0: 5e2f 0b3d b87a 783d 471d 68bd 5c8a 28be
000003c0: 4c0d 063e 818d 37be 473a e3bd 9ac1 923b
000003d0: 6a98 68bd ebec ea3d 6591 96bd 0400 473d
000003e0: b030 34be b744 883d f687 1d3e 360e f1bd
000003f0: 20c4 83be 4dab 30be d9db eebd 5ef3 dd3d

network_body.lstm.lstm.bias_ih_l0 f4 [256]
-0.0031175853 0.12664998 0.045798317 0.054703575 0.02842398 -0.058688857 0.16528171 -0.055541366
0.0003087222 0.0457108 0.040153876 0.0031835465 0.01257333 -0.14013235 -0.115920335 0.37268925
0.053185914 -0.029388854 0.021035781 -0.08022067 0.03608188 0.09358736 0.45437825 0.05437827
0.0058084386 -0.12273517 0.0018289452 0.057245582 0.06348431 0.036964655 0.013055535 0.19507751
0.016235525 0.07411789 0.012441477 -0.29981104 0.015889507 -0.021145541 0.067186296 0.48478875
0.39570707 -0.071094714 0.018426837 0.0656779 -0.028333532 0.030721568 0.32416135 -0.047732122
-0.03053798 0.0777389 0.13117187 0.076675326 0.095487446 -0.02570564 -0.049620543 0.16278958
0.19313319 0.1290303 -0.25058198 0.43314072 0.010735905 0.016361957 0.09132427 0.07622078
0.95152813 0.9694721 1.0997956 1.0953257 0.9790404 0.96071666 1.0687578 1.0983665
1.0472193 1.0153439 1.0795047 1.0571566 1.0532613 0.8560729 0.9474011 0.9826263
1.0194422 1.08515 1.0550071 0.94373786 1.0749378 0.98966193 0.9670528 0.98185486
1.0449542 0.8453303 1.0448036 1.0278071 1.0651224 1.070411 1.0584925 1.035303
1.0745362 1.0730523 1.0783308 0.9276799 1.0488268 1.0614221 1.0347773 0.963804
0.986305 1.16901 1.0592158 1.0050411 1.0640998 1.0627154 0.96533513 1.1064272
1.1943398 0.99274284 0.9931552 1.0544938 0.99662215 1.0770379 1.0043979 0.9916888
1.0632167 1.0772477 0.95755064 0.94315547 1.0344063 1.0166193 1.0438099 1.0343604
0.014426385 0.28428444 0.13083588 0.032890342 0.025684351 -0.032752685 -0.059919503 -0.01120722
-0.044270415 0.044681046 0.023067337 0.015953202 -0.007501116 -0.16084571 0.007199524 0.048505682
-0.029341267 -0.170204 -0.063779585 -0.03248271 -0.16821131 -0.05205552 -0.046982314 -0.06261162
0.0044217687 -0.015017132 -0.03748636 -0.0020689769 -0.013821025 -0.026266646 0.021322804 0.027071357
-0.044534605 -0.037643302 0.021767123 -0.06377649 -0.040339317 0.047421273 -0.023090346 0.048467543
-0.016118191 0.10493206 -0.029528216 0.0024296714 0.038111214 0.04467524 0.042140678 0.15630534
0.021111073 0.035221048 0.12614487 0.027080065 -0.022511926 -0.019508341 0.06891024 0.009632968
-0.04527466 -0.114436895 0.029190613 0.054467645 0.009976862 0.008175688 -0.017769374 -0.03735752
-0.35295492 0.13774161 0.36089563 -0.08988494 0.0019774588 0.00120777 0.18273729 -0.13573813
-0.08253915 0.0087941745 0.22692561 -0.14499119 -0.038916383 -0.044436388 0.0048612044 0.3641581
-0.22014868 0.29762724 0.0032091157 0.057219967 -0.0004810191 0.05028513 0.12884092 -0.020516178
0.18782207 0.08388048 -0.025396844 0.03748143 -0.06478303 -0.11298287 -0.038430635 -0.09996232
0.0034507695 0.14157224 -0.014708721 -0.16436341 0.18165772 -0.17155701 -0.16754614 0.13011833
0.36003214 0.17430145 -0.070033416 0.09725357 0.09010058 -0.00798551 0.29436326 0.30487937
0.021933302 0.18911512 0.19149533 -0.08894174 -0.26682255 -0.24833654 0.0070887287 0.013323322
0.002979879 -0.0058804504 -0.059883337 0.20659631 0.1574368 0.06550389 -0.004860187 0.017875802
00000000: 6750 4cbb 88b0 013e 0497 3b3d db10 603d
00000010: 68d9 e83c ba63 70bd 9c3f 293e 587f 63bd
00000020: fedb a139 3f3b 3b3d 6478 243d 0ca3 503b
00000030: 5e00 4e3c db7e 0fbe a467 edbd 20d1 be3e
00000040: 79d9 593d e5c0 f0bc 3b53 ac3c bc4a a4bd
00000050: 98ca 133d bbaa bf3d 44a4 e83e c0bb 5e3d
00000060: b754 be3b 945c fbbd 38b9 ef3a 587a 6a3d
00000070: 1004 823d 4068 173d e2e6 553c 66c2 473e
00000080: 5d00 853c 1fcb 973d 56d7 4b3c d580 99be
00000090: b62a 823c 6a39 adbc f898 893d 3b36 f83e
000000a0: 1e9a ca3e 1b9a 91bd e1f3 963c 2382 863d
000000b0: b91b e8bc ccab fb3c 7af8 a53e c282 43bd
000000c0: c92a fabc 9335 9f3d eb51 063e f407 9d3d
000000d0: ec8e c33d a294 d2bc e93e 4bbd 50b2 263e
000000e0: b5c4 453e 8520 043e 484c 80be 9fc4 dd3e
000000f0: a6e5 2f3c 8309 863c 3808 bb3d a419 9c3d
00000100: 5997 733f 532f 783f 1ac6 8c3f a233 8c3f
00000110: 64a2 7a3f 87f1 753f 0ecd 883f 4697 8c3f
00000120: 480b 863f caf6 813f 362d 8a3f e850 873f
00000130: 44d1 863f 9827 5b3f e188 723f 668d 7b3f
00000140: 157d 823f 32e6 8a3f 790a 873f ce98 713f
00000150: 9097 893f 7c5a 7d3f c690 773f d75a 7b3f
00000160: 0fc1 853f 9167 583f 20bc 853f 2f8f 833f
00000170: ee55 883f 3a03 893f af7c 873f cf84 843f
00000180: 678a 893f c759 893f be06 8a3f 6e7c 6d3f
00000190: f53f 863f aedc 873f 9573 843f dcbb 763f
000001a0: 7c7e 7c3f 1fa2 953f 6294 873f 30a5 803f
000001b0: 6c34 883f 0f07 883f 3420 773f 689f 8d3f
000001c0: 20e0 983f 6524 7e3f 6b3f 7e3f a7f9 863f
000001d0: a122 7f3f 61dc 893f 1c90 803f 51df 7d3f
000001e0: 7c17 883f 41e3 893f 0a22 753f a372 713f
000001f0: 6d67 843f 9520 823f 909b 853f ec65 843f
00000200: a55c 6c3c bb8d 913e d7f9 053e 06b8 063d
00000210: fd67 d23c ae27 06bd 276e 75bd 7d9e 37bc
00000220: e554 35bd 7903 373d b6f7 bc3c 4ab0 823c
00000230: eccb f5bb bdb4 24be fce9 eb3b e5ad 463d
00000240: 195d f0bc f549 2ebe df9e 82bd 970c 05bd
00000250: 963f 2cbe 2b38 55bd 8770 40bd 853a 80bd
00000260: 7ce4 903b 6b0a 76bc 4c8b 19bd ac97 07bb
00000270: 9571 62bc 262d d7bc 29ad ae3c c0c4 dd3c
00000280: eb69 36bd dd2f 1abd f750 b23c 409d 82bd
00000290: d73a 25bd cf3c 423d f727 bdbc e785 463d
000002a0: 4c0a 84bc 9fe6 d63d 28e5 f1bc 1f3b 1f3b
000002b0: 811a 1c3d 62fd 363d b49b 2c3d 820e 203e
000002c0: 21f1 ac3c f243 103d 1f2c 013e 03d7 dd3c
000002d0: ee6a b8bc f5cf 9fbc d020 8d3d 99d3 1d3c
000002e0: ec71 39bd e45d eabd 2721 ef3c 7719 5f3d
000002f0: fe75 233c 52f3 053c 1491 91bc 3304 19bd
00000300: 82b6 b4be 230c 0d3e 50c7 b83e 9815 b8bd
00000310: 4198 013b 094e 9e3a 7c1f 3b3e f0fe 0abe
00000320: 490a a9bd 7115 103c 305f 683e 9278 14be
00000330: c966 1fbd ee02 36bd bd4a 9f3b ee72 ba3e
00000340: a86e 61be 9962 983e 0750 523b 7c5f 6a3d
00000350: 4a31 fcb9 c8f7 4d3d e0ee 033e 8b11 a8bc
00000360: 6e54 403e 87c9 ab3d 0b0d d0bc 2186 193d
00000370: f7ac 84bd 9063 e7bd 7169 1dbd 0bb9 ccbd
00000380: 4e26 623b 50f8 103e d9fc 70bc e24e 28be
00000390: 7b04 3a3e a4ac 2fbe 3791 2bbe bd3d 053e
000003a0: 2256 b83e 147c 323e ae6d 8fbd e12c c73d
000003b0: a786 b83d a8d5 02bc c8b6 963e 2619 9c3e
000003c0: 78ad b33c 65a7 413e 5a17 443e 1627 b6bd
000003d0: f79c 88be ef4b 7ebe 9148 e83b 104a 5a3c
000003e0: 134a 433b cbb0 c0bb 3b48 75bd fc8d 533e
000003f0: 1d37 213e e726 863d 3442 9fbb 4670 923c

network_body.lstm.lstm.bias_hh_l0 f4 [256]
-0.0031176687 0.12664972 0.045798276 0.054703537 0.028423877 -0.0586889 0.16528167 -0.055541366
0.0003087333 0.045710783 0.04015387 0.0031835637 0.012573325 -0.14013249 -0.11592039 0.3726893
0.053185914 -0.029388914 0.021035774 -0.080220856 0.03608193 0.093587324 0.45437828 0.054378286
0.0058084237 -0.12273517 0.0018289417 0.05724556 0.0634843 0.036964666 0.013055501 0.1950775
0.01623553 0.0741179 0.0124414805 -0.29981107 0.015889518 -0.021145545 0.0671863 0.4847888
0.3957069 -0.071094766 0.018426819 0.06567785 -0.028333578 0.030721568 0.3241611 -0.04773218
-0.030537954 0.07773887 0.13117187 0.07667531 0.095487416 -0.025705636 -0.04962071 0.16278952
0.19313316 0.12903029 -0.25058198 0.43314052 0.01073591 0.016361961 0.091324285 0.07622078
0.9515279 0.9694719 1.0997955 1.0953258 0.9790401 0.9607164 1.0687578 1.0983663
1.0472193 1.0153439 1.0795047 1.0571567 1.0532613 0.8560729 0.94740117 0.982626
1.0194423 1.08515 1.0550071 0.94373775 1.0749378 0.989662 0.96705306 0.9818549
1.0449542 0.84533024 1.0448037 1.0278071 1.0651222 1.0704108 1.0584925 1.0353028
1.0745362 1.0730522 1.0783308 0.92767996 1.0488268 1.0614221 1.0347773 0.963804
0.9863049 1.1690103 1.0592157 1.0050411 1.0640998 1.0627154 0.96533513 1.1064274
1.1943394 0.9927428 0.9931552 1.0544938 0.9966224 1.0770379 1.0043976 0.99168855
1.0632168 1.0772477 0.95755064 0.94315535 1.0344063 1.0166192 1.0438097 1.0343605
0.014426299 0.28428462 0.1308359 0.032890335 0.025684318 -0.032752708 -0.059919503 -0.011207231
-0.04427043 0.044681065 0.023067333 0.015953233 -0.0075011104 -0.16084576 0.007199516 0.0485056
-0.029341264 -0.17020404 -0.06377957 -0.03248265 -0.16821128 -0.052055534 -0.046982303 -0.06261163
0.0044217673 -0.015017183 -0.03748636 -0.0020689731 -0.013821017 -0.026266644 0.021322805 0.027071394
-0.044534612 -0.037643306 0.021767119 -0.06377647 -0.040339313 0.047421258 -0.023090346 0.04846753
-0.016118186 0.10493203 -0.029528221 0.0024296807 0.03811117 0.044675246 0.042140603 0.15630536
0.02111112 0.035221 0.12614487 0.027080087 -0.0225119 -0.019508338 0.068910204 0.009633011
-0.045274675 -0.11443686 0.029190486 0.054467637 0.009976836 0.008175695 -0.01776937 -0.037357517
-0.35295525 0.13774158 0.3608956 -0.089884765 0.0019773808 0.0012077471 0.18273759 -0.13573836
-0.082539186 0.008794152 0.22692567 -0.1449912 -0.03891631 -0.044436395 0.0048611374 0.36415824
-0.2201487 0.29762724 0.0032090943 0.05721993 -0.00048117602 0.050285183 0.12884107 -0.020516237
0.18782204 0.083880335 -0.025396839 0.037481397 -0.06478298 -0.11298281 -0.038430724 -0.09996234
0.0034507497 0.14157222 -0.014708747 -0.16436349 0.1816577 -0.17155685 -0.16754624 0.13011824
0.36003205 0.17430139 -0.070033334 0.09725358 0.09010062 -0.007985527 0.294363 0.30487937
0.02193334 0.18911475 0.19149594 -0.08894167 -0.2668225 -0.24833645 0.0070887418 0.01332324
0.0029798825 -0.0058804248 -0.059883334 0.20659615 0.15743707 0.06550364 -0.0048600635 0.017875742
00000000: cd51 4cbb 77b0 013e f996 3b3d d110 603d
00000010: 31d9 e83c c663 70bd 993f 293e 587f 63bd
00000020: 7bdd a139 3b3b 3b3d 6278 243d 56a3 503b
00000030: 5900 4e3c e47e 0fbe ab67 edbd 22d1 be3e
00000040: 79d9 593d 05c1 f0bc 3753 ac3c d54a a4bd
00000050: a5ca 133d b6aa bf3d 45a4 e83e c4bb 5e3d
00000060: 9754 be3b 945c fbbd 1ab9 ef3a 527a 6a3d
00000070: 0f04 823d 4368 173d bde6 553c 65c2 473e
00000080: 6000 853c 20cb 973d 5ad7 4b3c d680 99be
00000090: bc2a 823c 6c39 adbc f998 893d 3d36 f83e
000000a0: 189a ca3e 229a 91bd d7f3 963c 1c82 863d
000000b0: d21b e8bc ccab fb3c 72f8 a53e d282 43bd
000000c0: bb2a fabc 8f35 9f3d eb51 063e f207 9d3d
000000d0: e88e c33d a094 d2bc 163f 4bbd 4cb2 263e
000000e0: b3c4 453e 8420 043e 484c 80be 98c4 dd3e
000000f0: ace5 2f3c 8509 863c 3a08 bb3d a419 9c3d
00000100: 5597 733f 4f2f 783f 19c6 8c3f a333 8c3f
00000110: 5fa2 7a3f 83f1 753f 0ecd 883f 4497 8c3f
00000120: 480b 863f caf6 813f 362d 8a3f e950 873f
00000130: 44d1 863f 9827 5b3f e288 723f 618d 7b3f
00000140: 167d 823f 32e6 8a3f 790a 873f cc98 713f
00000150: 9097 893f 7d5a 7d3f ca90 773f d85a 7b3f
00000160: 0fc1 853f 9067 583f 21bc 853f 2f8f 833f
00000170: ed55 883f 3903 893f af7c 873f cd84 843f
00000180: 678a 893f c659 893f be06 8a3f 6f7c 6d3f
00000190: f53f 863f aedc 873f 9573 843f dcbb 763f
000001a0: 7a7e 7c3f 21a2 953f 6194 873f 30a5 803f
000001b0: 6c34 883f 0f07 883f 3420 773f 6a9f 8d3f
000001c0: 1de0 983f 6424 7e3f 6b3f 7e3f a7f9 863f
000001d0: a522 7f3f 61dc 893f 1a90 803f 4ddf 7d3f
000001e0: 7d17 883f 41e3 893f 0a22 753f a172 713f
000001f0: 6d67 843f 9420 823f 8e9b 853f ed65 843f
00000200: 495c 6c3c c18d 913e d9f9 053e 04b8 063d
00000210: eb67 d23c b427 06bd 276e 75bd 899e 37bc
00000220: e954 35bd 7e03 373d b4f7 bc3c 5bb0 823c
00000230: e0cb f5bb c0b4 24be ebe9 eb3b cfad 463d
00000240: 175d f0bc f849 2ebe dd9e 82bd 870c 05bd
00000250: 943f 2cbe 2f38 55bd 8470 40bd 873a 80bd
00000260: 79e4 903b a10a 76bc 4c8b 19bd 9c97 07bb
00000270: 8c71 62bc 252d d7bc 2aad ae3c d4c4 dd3c
00000280: ed69 36bd de2f 1abd f550 b23c 3d9d 82bd
00000290: d63a 25bd cb3c 423d f727 bdbc e485 463d
000002a0: 490a 84bc 9be6 d63d 2be5 f1bc 473b 1f3b
000002b0: 751a 1c3d 64fd 363d a09b 2c3d 830e 203e
000002c0: 3af1 ac3c e543 103d 1f2c 013e 0fd7 dd3c
000002d0: e06a b8bc f3cf 9fbc cb20 8d3d c7d3 1d3c
000002e0: f071 39bd df5d eabd e320 ef3c 7519 5f3d
000002f0: e275 233c 5af3 053c 1291 91bc 3204 19bd
00000300: 8db6 b4be 210c 0d3e 4fc7 b83e 8115 b8bd
00000310: f296 013b 454d 9e3a 901f 3b3e fffe 0abe
00000320: 4e0a a9bd 5915 103c 345f 683e 9378 14be
00000330: b566 1fbd f002 36bd 2d4a 9f3b f372 ba3e
00000340: a96e 61be 9962 983e ab4f 523b 725f 6a3d
00000350: 5a46 fcb9 d6f7 4d3d eaee 033e ab11 a8bc
00000360: 6c54 403e 74c9 ab3d 080d d0bc 1886 193d
00000370: f0ac 84bd 8863 e7bd 8969 1dbd 0eb9 ccbd
00000380: f925 623b 4ff8 103e f5fc 70bc e74e 28be
00000390: 7a04 3a3e 99ac 2fbe 3e91 2bbe b73d 053e
000003a0: 1f56 b83e 107c 323e a36d 8fbd e32c c73d
000003b0: ad86 b83d bad5 02bc bfb6 963e 2619 9c3e
000003c0: 8cad b33c 4ca7 413e 8317 443e 0d27 b6bd
000003d0: f59c 88be e94b 7ebe ad48 e83b b849 5a3c
000003e0: 224a 433b 94b0 c0bb 3a48 75bd f18d 533e
000003f0: 2f37 213e c626 863d 2b41 9fbb 2670 923c

action_model._discrete_distribution.branches.0.weight f4 [2, 64]
0.09034212 -0.3608239 -0.27606216 0.15544014 0.46026677 0.26106164 0.3136936 -0.15578505
-0.2970718 0.33147955 -0.15052627 0.20710865 -0.2793495 -0.3269802 -0.30354074 0.53678626
-0.17830853 0.13876459 -0.34230575 -0.15269278 -0.24500902 -0.40304744 -0.43338063 -0.32027027
-0.0794415 0.28991517 -0.3028629 0.32941872 0.022952603 0.1292229 0.25057185 0.12496548
-0.35918215 0.12302513 0.2545834 0.318482 0.11295206 -0.061021145 -0.2965305 0.4253828
-0.36830103 -0.3598381 0.072064936 0.15444165 0.41393661 0.30781823 -0.41842064 -0.369116
0.27756763 0.21107547 -0.22378944 0.08789733 0.2441254 -0.18094094 0.341761 0.23692305
-0.25763318 -0.13016199 0.2752458 -0.62107015 -0.19803196 0.30742306 -0.10861399 -0.20699027
-0.07884163 0.360525 0.3140469 -0.16342238 -0.4544068 -0.27167022 -0.31953475 0.15184994
0.28786403 -0.34538865 0.12914608 -0.2193049 0.25179332 0.3194322 0.2941725 -0.5492023
0.18190616 -0.14157188 0.33371517 0.1512461 0.20774545 0.38670844 0.43476027 0.34169072
0.1140825 -0.30874684 0.3521049 -0.329877 -0.040878534 -0.15118554 -0.26028264 -0.10659248
0.36562368 -0.132164 -0.264786 -0.3028089 -0.12008834 0.064011574 0.29532295 -0.40242216
0.36488867 0.35958713 -0.081824556 -0.16337274 -0.43194115 -0.27491322 0.44715288 0.37651506
-0.2743561 -0.21363954 0.2256333 -0.08989887 -0.2385043 0.19173954 -0.33431575 -0.23534928
0.2907469 0.1123105 -0.30432436 0.591362 0.20655583 -0.29952773 0.11280342 0.22920167
00000000: 4a05 b93d e9bd b8be 0558 8dbe b32b 1f3e
00000010: 16a8 eb3e dfa9 853e 739c a03e 1e86 1fbe
00000020: cc19 98be b0b7 a93e 8f23 1abe 4a14 543e
00000030: e606 8fbe f369 a7be b169 9bbe d36a 093f
00000040: 8396 36be 4e18 0e3e b342 afbe 7f5b 1cbe
00000050: a5e3 7abe 3c5c cebe 11e4 ddbe 77fa a3be
00000060: 3ab2 a2bd c36f 943e d910 9bbe 92a9 a83e
00000070: 1907 bc3c 0253 043e f44a 803e e7ed ff3d
00000080: b9e6 b7be 99f4 fb3d c158 823e 1310 a33e
00000090: 6953 e73d 4ff1 79bd d8d2 97be c6cb d93e
000000a0: f491 bcbe b33c b8be c896 933d f425 1e3e
000000b0: 80ef d33e 5a9a 9d3e 3b3b d6be c6fc bcbe
000000c0: 581d 8e3e 2b24 583e 0f29 65be 8403 b43d
000000d0: 02fc 793e 9548 39be 4cfb ae3e f59b 723e
000000e0: 7fe8 83be 2f49 05be 04ed 8c3e 74fe 1ebf
000000f0: e4c8 4abe 8e66 9d3e 0371 debd 42f5 53be
00000100: b877 a1bd bc96 b83e c1ca a03e 3258 27be
00000110: 02a8 e8be 5c18 8bbe 0f9a a3be 8d7e 1b3e
00000120: ea62 933e c8d6 b0be df3e 043e 7791 60be
00000130: 0eeb 803e 9e8c a33e c79d 963e 8698 0cbf
00000140: 9c45 3a3e 38f8 10be b7dc aa3e 42e0 1a3e
00000150: 39bb 543e a6fe c53e e698 de3e 16f2 ae3e
00000160: 16a4 e93d 1114 9ebe 1847 b43e a3e5 a8be
00000170: 4070 27bd 62d0 1abe c443 85be 284d dabd
00000180: 0733 bb3e 0056 07be 0892 87be c509 9bbe
00000190: e0f0 f5bd 8018 833d 9234 973e 470a cebe
000001a0: b0d2 ba3e ce1b b83e a293 a7bd 2f4b 27be
000001b0: 6427 ddbe 6dc1 8cbe 39f1 e43e 95c6 c03e
000001c0: 6778 8cbe 53c4 5abe 6a0c 673e e61c b8bd
000001d0: 793a 74be 5f57 443e 6f2b abbe 67ff 70be
000001e0: c7dc 943e 0c03 e63d 67d0 9bbe 8063 173f
000001f0: 5f83 533e b35b 99be 7b05 e73d d8b3 6a3e

action_model._discrete_distribution.branches.0.bias f4 [2]
-0.06300563 0.06302719
00000000: 1909 81bd 6614 813d

exp_avg f4 [64, 3]
-1.43661855e-05 2.0213556e-06 -5.671532e-06 3.363567e-05 2.7020133e-07 2.177177e-05 -1.2749388e-05 1.2237338e-06
-5.771965e-06 7.2650214e-06 -2.9707095e-07 3.1738366e-06 -3.5612402e-06 6.4019747e-07 -8.9991335e-07 9.335006e-06
-6.324591e-07 4.907743e-06 -7.3935503e-06 1.0043361e-06 -3.1321429e-06 2.1887969e-05 2.3484525e-07 1.3316376e-05
-2.1251699e-06 4.814338e-07 -1.9373346e-07 1.0775995e-05 -1.1893805e-07 4.94697e-06 -1.4176516e-05 2.2877543e-06
-5.234717e-06 -7.663707e-06 -7.6487345e-07 -5.259174e-06 -3.3546166e-06 -2.0525482e-07 -1.7413744e-06 2.708481e-05
-1.1489643e-06 1.2403051e-05 -3.5432888e-05 2.55239e-06 -1.6988279e-05 -1.5121561e-05 -1.2476346e-07 -1.0206257e-05
2.4792648e-06 -3.2380183e-07 9.3470413e-07 4.9731284e-06 9.926341e-08 2.2199883e-06 9.517304e-07 -2.8394376e-07
1.13372884e-07 -9.260079e-06 1.2200319e-06 -4.912084e-06 -3.5038058e-05 -1.0893166e-06 -2.2976834e-05 2.4645447e-05
-1.2348701e-07 1.29477885e-05 9.1253e-06 -4.6871114e-07 4.3819364e-06 -6.5829877e-06 6.627483e-07 -3.151473e-06
1.3797428e-05 -1.995286e-07 8.053006e-06 -8.807235e-06 1.4881729e-06 -3.92075e-06 -1.3129562e-05 1.6086896e-06
-5.384127e-06 -8.91484e-06 1.8256012e-06 -2.6403739e-06 -3.4805705e-06 1.9614427e-08 2.9418777e-08 3.6573867e-05
-4.659992e-07 2.6252608e-05 -2.715116e-06 -7.688558e-07 -2.48377e-06 1.8229512e-05 -8.5607246e-07 1.0738774e-05
1.13395745e-05 -2.4501878e-07 7.658997e-06 -2.6312919e-06 -5.593097e-07 -1.486581e-06 2.7769414e-05 -5.231379e-08
1.81262e-05 1.3805384e-05 -6.666932e-07 7.197756e-06 -1.7004553e-05 7.0857396e-07 -8.171256e-06 -1.2067615e-05
2.4065507e-06 -2.9355144e-06 -1.6023348e-06 -4.6451126e-07 -2.3773105e-06 -1.5188192e-06 -7.236447e-07 -1.3520302e-06
-2.2820597e-05 3.7411578e-06 -1.1122237e-05 1.1170446e-06 -4.5447276e-08 7.8138055e-07 2.0139156e-05 -8.567149e-07
1.2086406e-05 1.2191694e-05 -1.4631592e-06 6.209762e-06 -2.2844622e-05 1.5711638e-06 -1.1899531e-05 4.078789e-06
1.3734764e-07 2.2150432e-06 -4.570462e-05 1.7872684e-06 -2.5533258e-05 -4.6110563e-05 5.0886606e-06 -2.1507405e-05
-2.4368419e-05 1.2658459e-06 -1.2765379e-05 -1.3325752e-06 4.6276614e-07 5.2554142e-08 -3.121132e-07 9.28347e-08
-1.5362689e-07 5.975666e-07 5.6385876e-08 5.0589506e-07 -1.0148766e-05 5.4394155e-07 -5.513724e-06 -3.651448e-05
4.003067e-06 -1.7084309e-05 -1.8601088e-05 2.306024e-06 -7.3415868e-06 -1.4067959e-05 -4.5303895e-07 -8.35585e-06
-5.8217397e-06 9.313242e-07 -1.7782569e-06 -1.105376e-05 3.4761777e-06 -2.4949309e-06 -2.3703233e-05 4.2105114e-07
-1.3689618e-05 -1.8264946e-05 3.6229462e-06 -7.028964e-06 2.2343254e-05 -4.986701e-07 1.1828612e-05 2.8850605e-05
1.8647243e-07 1.8425844e-05 -1.5593894e-06 7.628657e-07 -2.8286323e-07 2.8665385e-05 -3.5464353e-07 1.8374982e-05
00000000: 4c06 71b7 a0a6 0736 174e beb6 0714 0d38
00000010: 3010 9134 85a2 b637 34e6 55b7 2c3f a435
00000020: cdac c1b6 0fc6 f336 1f7d 9fb4 19fe 5436
00000030: a4fd 6eb6 09da 2b35 9391 71b5 8c9d 1c37
00000040: 42c6 29b5 31ad a436 1d16 f8b6 bacc 8635
00000050: ce31 52b6 0e9c b737 c529 7c34 6669 5f37
00000060: 249e 0eb6 e13b 0135 0c05 50b4 8cca 3437
00000070: e26a ffb3 26fe a536 acd7 6db7 5287 1936
00000080: e0a5 afb6 5f93 00b7 b451 4db5 f677 b0b6
00000090: e01f 61b6 0464 5cb4 2bb9 e9b5 3034 e337
000000a0: 1d36 9ab5 b316 5037 c69d 14b8 ba49 2b36
000000b0: 0d82 8eb7 9cb2 7db7 b8f6 05b4 8a3b 2bb7
000000c0: 7261 2636 fcd6 adb4 61e8 7a35 d9de a636
000000d0: a32a d533 1cfb 1436 6a7a 7f35 ef70 98b4
000000e0: 6777 f333 bd5b 1bb7 fabf a335 7bd2 a4b6
000000f0: d4f5 12b8 a234 92b5 60be c0b7 b2bd ce37
00000100: da97 04b4 543a 5937 dd18 1937 2ba3 fbb4
00000110: 8c08 9336 6fe3 dcb6 b7e7 3135 e57d 53b6
00000120: 817b 6737 013e 56b4 661b 0737 c9c2 13b7
00000130: 3bbd c735 fc8e 83b6 0a47 5cb7 27ea d735
00000140: 4ca9 b4b6 f290 15b7 2e07 f535 4731 31b6
00000150: bf93 69b6 957c a832 93b4 fc32 e466 1938
00000160: 712e fab4 0c39 dc37 5635 36b6 5e63 4eb5
00000170: d8ae 26b6 94eb 9837 dacc 65b5 af2a 3437
00000180: 1a3f 3e37 208b 83b4 247f 0037 4095 30b6
00000190: 7823 16b5 8986 c7b5 5df2 e837 9faf 60b3
000001a0: b80d 9837 ac9d 6737 cff6 32b5 4184 f136
000001b0: 00a5 8eb7 d534 3e35 4717 09b7 0376 4ab7
000001c0: 3a80 2136 c1ff 44b6 ce0f d7b5 f161 f9b4
000001d0: e289 1fb6 3bda cbb5 7c40 42b5 6777 b5b5
000001e0: dc6e bfb7 9a10 7b36 a599 3ab7 5ced 9535
000001f0: cf31 43b3 10c0 5135 82f0 a837 00f9 65b5
00000200: b8c6 4a37 ed8a 4c37 c461 c4b5 735d d036
00000210: 74a2 bfb7 c7e0 d235 19a4 47b7 88dc 8836
00000220: d579 1334 27a6 1436 f6b2 3fb8 13e2 ef35
00000230: 4130 d6b7 d766 41b8 43bf aa36 cd6a b4b7
00000240: c86a ccb7 22e6 a935 e32a 56b7 efda b2b5
00000250: 1872 f834 e4b7 6133 8390 a7b4 6b5c c733
00000260: a3f4 24b4 7768 2035 ed2c 7233 d8cc 0735
00000270: 9e44 2ab7 6103 1235 8702 b9b6 2027 19b8
00000280: 1552 8636 4650 8fb7 8809 9cb7 31c1 1a36
00000290: c057 f6b6 6c05 6cb7 3339 f3b4 1a30 0cb7
000002a0: 5d58 c3b6 1d00 7a35 71ac eeb5 8a73 39b7
000002b0: 4748 6936 966e 27b6 4ed6 c6b7 d40c e234
000002c0: 76ac 65b7 ac37 99b7 be21 7336 57da ebb6
000002d0: c66d bb37 59dc 05b5 8073 4637 3404 f237
000002e0: 2739 4834 3391 9a37 364c d1b5 bbc7 4c35
000002f0: 6ddc 97b4 7276 f037 d665 beb4 f923 9a37
