results/Test6/Jumper/Jumper-10499964.onnx (onnx, 154598 bytes, 9 tensors)

network_body._body_endoder.seq_layers.0.weight f4 [64, 3]
00000000: 5918 32bf d3fe f63e 5938 0c3f d6aa 103f
00000010: d753 47bf 46ce 6cbf 466d 973e 2821 0bbf
00000020: f82a 8a3f 432e 5abe 3c5c a6bd 178d 08bf
00000030: a53f 213f 4df9 a63f 1f2a acbe 827a 3e3e
00000040: 9454 7ebe 377a 87be 573c bfbe b190 a7be
00000050: 82e6 c93e 45d5 5c3e 80a6 95bf 4667 0cbf
00000060: 40c2 bf3e 4eef 0d3f 8cdd 2abe f461 523e
00000070: ec10 28bf c2ab bbbd fbd9 babe bbb0 4c3d
00000080: 512d 0e3f 9792 0c3f 70f2 003f 0885 793e
00000090: 760a 0f3e 220c 5f3f 55ff 15bf 93d5 783f
000000a0: ed3e 9bbc a0e2 9abe 8a07 36be 4bbd 7abe
000000b0: f384 513f 8130 41be d7ec a4bf 2db0 e63e
000000c0: dc9e 2abe 7694 0cbe 0d11 35bf 7d1c 31be
000000d0: 459c 59bf fd36 0d3c 1be8 0dbd 1fe7 8a3d
000000e0: beaf b0be 9057 053f 5179 f23d dce3 433f
000000f0: 4118 a8be 4f4f 123f 4207 8c3f 90e7 ea3e
00000100: 525f 00bf 4db6 92be 89cb 29bd 4c82 cdbe
00000110: 6235 e5be 621e ebbe 8e74 d43e 825c c7bd
00000120: 9be5 fa3c 1b50 60be 90af 86bf 8b8e 42bf
00000130: 7a4c d3bc 5dfc 493f c046 e5be 5f4b 98bd
00000140: cd71 9a3e 3a8a f23d 2b80 19be 4620 0f3f
00000150: 8c8e e13d a6ce 473f b741 91be 7cef 803e
00000160: dc9c afbd c556 5fbf 3008 5fbf ec0a 64be
00000170: 7cd0 9e3e 53d9 653e 5546 833e c620 02bf
00000180: 8df3 813d 97a4 3f3e 3cbb 96bf d31d 22be
00000190: a39e 983e 498c a53e 0f43 053f cfef c0be
000001a0: e60f 60bf 57b0 d93d 0da7 313e b620 c9be
000001b0: 8451 6cbd 1b2a c73e 7771 f43e 37b7 0b3d
000001c0: 197c ec3c a607 e73e e632 dbbe 4f6f 77bf
000001d0: 4396 d03e b910 54be 44d6 08be 914f 17be
000001e0: f522 ddbd 3aaf a43e 1a43 523f e08d 01c0
000001f0: 813e 1d3f 37b4 1abf fb9f a13d 0167 803e
00000200: 1762 d1be b398 6a3f efd7 633f 64db 66bf
00000210: cbfd c3be 6911 00bf 9e1f 513f 6dc5 e4bd
00000220: 0692 8cbf 5bf6 c9bf b193 88be 06e6 e7be
00000230: 66fc 383f 4b46 77bd c047 133f cbfd ae3f
00000240: 4675 b9bd e70e 223f 8a13 d33e a9a5 8ebd
00000250: 5557 07be 1af2 413d 4696 edbd b378 573f
00000260: 7444 72bf 22be b5bf e708 38bf 7f55 03bf
00000270: 7a0c 3ebf 452e 893f 9139 833f 1442 0bbe
00000280: 9bfe 623f cfc0 7a3f de7c 0cbf 867a eb3e
00000290: 806b 1f3f ec5f b93e ecc9 30be e74b 563f
000002a0: c8cb 0f3f cfdb 8e3f e61d cbbd bd2f 1cbf
000002b0: 19e1 683f 35a4 d53e a559 e43e 3dbb 9d3e
000002c0: 3f78 913f 74b2 b9be d9cd c7be 2350 1a3f
000002d0: 671b 313f 99d8 8cbe fa61 b4be c110 433f
000002e0: d599 62bf 1ff4 2dbf ac9c 42bf afd4 18be
000002f0: fdf4 323d f457 403f 5a7a 9c3e ea1d 99bf
-0.695684 0.4824129 0.5477348 0.56510675 -0.77862304 -0.9250225 0.29575557 -0.5434747
1.0794363 -0.2130671 -0.08123061 -0.53340286 0.6298774 1.304483 -0.33625886 0.1860142
-0.24836951 -0.2646043 -0.37350723 -0.32727578 0.39433676 0.21565731 -1.1691437 -0.5484508
0.37452888 0.55443275 -0.16686076 0.20545179 -0.6565082 -0.091636196 -0.3649443 0.04997323
0.555379 0.5491118 0.5036993 0.24367154 0.13968834 0.8712789 -0.5859273 0.9720089
-0.018950904 -0.30251026 -0.17776313 -0.24486272 0.8184349 -0.18866159 -1.2884778 0.45056286
-0.16662163 -0.13728508 -0.7072914 -0.17296024 -0.85004073 0.008619067 -0.03464518 0.06782364
-0.3450908 0.52086735 0.118395455 0.7651956 -0.32831004 0.57152265 1.0939715 0.45879793
-0.5014545 -0.2865471 -0.041453872 -0.4013847 -0.4476729 -0.45921618 0.41495174 -0.09734441
0.030627063 -0.21905558 -1.0522327 -0.75998753 -0.025793303 0.789007 -0.4478054 -0.07436251
0.30164948 0.11842771 -0.14990298 0.5590862 0.11013517 0.78049695 -0.2837045 0.25182712
-0.085748404 -0.87241775 -0.8712187 -0.22269791 0.31018436 0.22446184 0.25639597 -0.5083126
0.06345282 0.1871513 -1.1775889 -0.1583169 0.2980853 0.32333592 0.5205545 -0.3768296
-0.8752426 0.10629337 0.17348881 -0.3928277 -0.057694927 0.3889931 0.47742817 0.034110274
0.028867768 0.45123023 -0.4281227 -0.9665422 0.4073964 -0.20709504 -0.13362986 -0.14776446
-0.10797683 0.32164937 0.8213364 -2.0242844 0.614235 -0.60431236 0.07891842 0.25078586
-0.4089515 0.9163925 0.89001364 -0.90178514 -0.38279566 -0.50026566 0.8168887 -0.111704685
-1.0982063 -1.5778307 -0.2667518 -0.4529268 0.7226013 -0.06036977 0.57531357 1.3671201
-0.09055571 0.6330399 0.41225845 -0.06965191 -0.13216908 0.047350027 -0.11600928 0.8416855
-0.946357 -1.4198649 -0.71888584 -0.5130233 -0.7423779 1.0717245 1.0251943 -0.13599426
0.8866975 0.9795045 -0.5487803 0.45991915 0.62273407 0.36205995 -0.17264527 0.8370957
0.5617032 1.116083 -0.09917812 -0.6101034 0.9096847 0.41726843 0.44599643 0.30806914
1.1364821 -0.3626896 -0.39024237 0.6027853 0.6918244 -0.27509 -0.35231 0.7619744
-0.8851598 -0.67950624 -0.7602031 -0.14924882 0.04369067 0.75134206 0.30562097 -1.1962254

network_body._body_endoder.seq_layers.0.bias f4 [64]
00000000: 13b6 f53d 054a 863d 13b0 41be 1224 763e
00000010: fb0c f6be fa67 1fbc 108c 193e aab1 a03d
00000020: ff9a a1be f882 e6bd 1c4d 803d e18e 00be
00000030: de4c 733d 2198 a0bd e514 f2bc dbe6 0d3d
00000040: b2a8 973e c8a8 213e 8213 483e 0d01 b6bd
00000050: 0af0 d13c b90d 9abc 8497 433e 091b 213d
00000060: c2dc 3e3e eeec b93d c6d8 413d d051 24be
00000070: 47c8 45bc ab80 983d 3eb3 da3c 93aa e53c
00000080: 3662 423e 4273 1d3d e8b0 423d 51f4 473d
00000090: 8949 6abd f752 3abe 5c45 f73d b04d 713e
000000a0: 07ac 713c e034 95bd c424 943d 41d3 c1bd
000000b0: 40ce 613b a1b9 c23e dee6 8f3c b239 e73c
000000c0: e306 0fbc ea99 c93d 3f47 dc3e f502 83be
000000d0: 2675 8e3d 65cd 963c a44b 0b3e 0aa0 efbd
000000e0: 5d6c b4be fc2b e93d 70e2 bdbd 2b33 a73d
000000f0: 03a3 c3bc b383 003d 7a38 a33e 7dc4 7c3d
0.119976185 0.06557087 -0.18914823 0.24037197 -0.48056778 -0.00972938 0.14994836 0.07846387
-0.31563565 -0.11255449 0.062647074 -0.12554504 0.05939948 -0.07841516 -0.029550979 0.03464399
0.29620892 0.15787041 0.19538692 -0.08886919 0.025627155 -0.018805372 0.19100767 0.039332423
0.186389 0.09078394 0.047325872 -0.16046834 -0.012071676 0.074464165 0.026696797 0.028035438
0.18982777 0.038439997 0.047531992 0.048816983 -0.057199035 -0.18195711 0.12073776 0.23564792
0.014750487 -0.07285476 0.07233575 -0.094641216 0.003445521 0.3803225 0.01756614 0.028225753
-0.008729669 0.0984381 0.43023106 -0.25588194 0.06955938 0.018408487 0.13603073 -0.11700447
-0.35238925 0.113853425 -0.09271705 0.081640564 -0.023881441 0.0313756 0.31879026 0.061710823

network_body._body_endoder.seq_layers.2.weight f4 [64, 64]
00000000: 9197 233e 6903 babe ba7a beba 1755 f9bd
00000010: eeb0 dc3e 8a5c 0abe 028e c13b 14bf e9bd
00000020: 6097 383e 8c91 223c a8a6 b93e 13c0 973d
00000030: 85ec 383e 3fef 173e bfce a9bc 66c6 e8be
00000040: 4ae0 92bd 902a 39be 79ba b3bd c6f3 fcbc
00000050: b3d1 9d3e 21f2 afbe be5d eabd 6f9c 973e
00000060: 3093 20be 80b3 a13e bc1c 823d 3d9f b83d
00000070: 2c02 c03e 79cc a0be c14b 0fbe 4446 81be
00000080: b7a0 71be d646 5e3e dc86 8ebe 9117 8b3d
00000090: 4645 273e d50d 02bc b27c fdbb 5fef d8bd
000000a0: 2941 683e 4d3c 1bbd 6397 e2bd c3ed a4be
000000b0: 4066 183d a25e 47bd cb23 643e 703e bd3e
000000c0: f0a1 583e 00e0 74bc 1bd8 2c3d 4e1d 33be
000000d0: 17fb 423e 55d1 4c3e 3fdc 2c3e 1b30 313d
000000e0: a73e 583d 4f80 933e 4aab 433d 65bb 60bb
000000f0: ba16 39be 26b1 19bd 29dc 8b3d cd85 a4be
00000100: 08b2 49bd b5b8 6dbe 88ce 11bd 669a 0a3e
00000110: cc91 663c b9df d63d 29df 9e3c dc03 babe
00000120: a2b8 823e 990e 0dbe 1778 663d e718 183d
00000130: 92b9 013e f543 cd3d b744 b43e 4308 01bd
00000140: 58b0 26be 94af 693e 2f95 cabc 77eb 5cbd
00000150: 99e3 a83e e31b b4be 2236 863b 2ed5 26bd
00000160: e337 8abd b8f0 c0bb 39d0 983e 14a7 f63d
00000170: 4194 713d 942a ddbe 8ca4 853d a2d6 b7be
00000180: 35f4 0bbe e07a 2c3e a057 9bbe 8d0e dbbe
00000190: 6e35 643e fbe0 23be 9f67 40be c63f 1fbd
000001a0: 51f0 8e3e 0290 ca3d 062b 86bd 6d75 cc3c
000001b0: 5e76 d63e 625c 89be d34c f73e 97bc 2d3e
000001c0: 51f8 f93d fb55 aabd 40c0 b73e c16d bcbd
000001d0: f55e 333e 7dac a73e d872 963e 589e 763c
000001e0: 9e77 a53d e711 b73e 9220 78bc a503 823e
000001f0: 82b4 a0bd f8fc adbb db83 323e decc 7fbd
00000200: 6157 6cbc 2297 c0be 09a0 753e b825 f63d
00000210: b1e8 23bc b437 82bd 358a 3a3e e534 9dbd
00000220: 21b3 d23d 2dc3 0fbd 0840 383d 3c29 ef3d
00000230: f930 3f3e 4296 033e 8e2a 7c3e f434 9cbd
00000240: eb57 7fbe a143 8ebc 5366 f7bc 977a 21be
00000250: 46ee 3a3d e7ab 853d 8622 57be 85cd 98bd
00000260: 8e01 083d cd89 523e 8dc0 783e 3523 a23d
00000270: 37de 0f3e 5f32 e6be db56 e83d c5d2 3fbe
00000280: 5310 2b3e 5625 253d 2a2c 99be 5f78 7dbd
00000290: b440 bfbd 860f 57be 522e 04bc 56d4 c8bc
000002a0: 0634 873d 394a be3d c966 5cbe f77c 5bbe
000002b0: 2439 c63e c79c f2bd ecbe 0b3e e7c2 473d
000002c0: 828d 853e c972 d1bd debf 303d e9fe 4f3b
000002d0: 93d2 27bd f517 043e c88d 293d 207e fe3d
000002e0: e121 22be 91f4 793d 1d8e 3b3e 6b5b 353d
000002f0: 643c 4fbe 4df5 32be bce8 3f3c a1d1 76be
00000300: b205 9b3e 308e a1be 1810 4ebe 5f84 743d
00000310: 5bab a43d 1926 1bbe 60c0 423e 8b42 21be
00000320: f079 f63d ac34 7ebe 94b9 8c3e df87 a9be
00000330: 1463 8dbd 5907 af3c 2c8b 033f 3970 7fbe
00000340: ef56 d6bd 0b21 86be 9bc4 c7bb dd75 193e
00000350: b41a 963e a6c8 82be dce8 88bd 7c7b 383e
00000360: c5cb 37bd 1858 813e f115 98bd cd47 593e
00000370: 49b6 cd3e cd55 08bf 9e7e df3c a943 a6be
00000380: 28ab 3dbe b820 543e 9ae9 d6be a34e bebe
00000390: c625 4c3d 3f68 ef3d cf2a 92bc 5cb6 2c3d
000003a0: d8cf 093f 8fd2 8fbc e741 4fbd e7b5 9cbe
000003b0: ff2b 953e 98b0 7ebe 6ba3 8b3e 794d 4f3e
000003c0: 3025 923e 57cf 81be 31b8 a3bd ec0c ed3d
000003d0: c0d1 393e 9558 413e 56a3 eb3e e84b a33e
000003e0: 4200 82be bc28 213e 229e 6c3e 756f ae3e
000003f0: 4337 a43d d917 63be f056 e53d 2144 3ebe
0.15975787 -0.36330727 -0.0014532425 -0.12174433 0.43103737 -0.13511863 0.005906821 -0.114133984
0.18026495 0.009922396 0.3625996 0.07409682 0.18058975 0.14837359 -0.020728467 -0.45463866
-0.07171686 -0.18082643 -0.08775801 -0.030877959 0.3082405 -0.34364417 -0.11443661 0.29611537
-0.15681148 0.3158226 0.06353137 0.09014747 0.37501657 -0.31406 -0.13993742 -0.2524892
-0.23596464 0.2170671 -0.27837265 0.06791604 0.1633502 -0.007937868 -0.007735812 -0.105925314
0.22681107 -0.037899304 -0.11064031 -0.32212648 0.03720689 -0.048674233 0.22279279 0.369617
0.21155524 -0.014945984 0.04219828 -0.17491648 0.19041096 0.20001729 0.16880892 0.043258768
0.052794125 0.2880883 0.047770776 -0.0034291383 -0.18075076 -0.037522458 0.068291016 -0.32133332
-0.04924205 -0.23214991 -0.035597354 0.13535461 0.014072847 0.104918905 0.01939352 -0.3633107
0.2553149 -0.137751 0.05626687 0.037133124 0.12668446 0.100227274 0.35208675 -0.03150202
-0.16278207 0.22820884 -0.02472934 -0.053935494 0.32986143 -0.35177526 0.0040958086 -0.040730648
-0.06748941 -0.005888071 0.2984636 0.120435864 0.058979277 -0.43196547 0.065255255 -0.3590594
-0.13667376 0.16843748 -0.3034029 -0.4278454 0.22286007 -0.16003792 -0.18789528 -0.03887918
0.27917722 0.098907486 -0.06551175 0.024958337 0.41887182 -0.26828295 0.483008 0.16966473
0.12205566 -0.08317181 0.35888863 -0.092006214 0.17516692 0.32748786 0.29384494 0.0150524005
0.08079456 0.35755846 -0.015144484 0.25393406 -0.07846929 -0.0053096972 0.17433111 -0.062451236
-0.01442513 -0.37615305 0.2398683 0.12018913 -0.010004208 -0.06358281 0.18216784 -0.076761045
0.102880724 -0.035098244 0.04498294 0.11677787 0.18671025 0.12850288 0.24625608 -0.076272875
-0.24935882 -0.017366232 -0.03020016 -0.1576942 0.04563739 0.065269284 -0.21009263 -0.07461075
0.033204608 0.2056038 0.24292202 0.079168715 0.14049612 -0.44960305 0.11344691 -0.18732746
0.16705446 0.04031881 -0.29916507 -0.061882373 -0.09338513 -0.21002015 -0.008067684 -0.024515312
0.066017196 0.092915006 -0.21523584 -0.21434389 0.3871547 -0.11846309 0.1364705 0.048769858
0.26084524 -0.10226972 0.04315173 0.0031737632 -0.040972304 0.12899764 0.04139498 0.124264
-0.15833236 0.061024252 0.1831593 0.044276636 -0.20237881 -0.17476387 0.011713203 -0.24103405
0.30277783 -0.31553793 -0.20123327 0.05969655 0.08040496 -0.15151252 0.19018698 -0.1574804
0.120349765 -0.2482478 0.27485335 -0.33111474 -0.06903663 0.021365808 0.51384234 -0.24945153
-0.104658 -0.26197085 -0.0060964352 0.14986368 0.29317248 -0.25543708 -0.066850394 0.18015856
-0.044872064 0.25262523 -0.0742606 0.21218796 0.40178135 -0.5325592 0.027282055 -0.32473496
-0.18522322 0.20715606 -0.419751 -0.3716937 0.04984071 0.11689805 -0.017842678 0.0421661
0.5383277 -0.017556457 -0.05059996 -0.3060753 0.2913513 -0.24872053 0.27273116 0.20244397
0.28543997 -0.253535 -0.07994116 0.1157473 0.1814642 0.18881448 0.46023053 0.3189385
-0.25390822 0.15738195 0.23107198 0.3406941 0.08018353 -0.22177066 0.11198223 -0.18580677

network_body._body_endoder.seq_layers.2.bias f4 [64]
00000000: e2b1 8f3c 27ea 403a c035 933a 5e3c a53c
00000010: 9bb1 5a3d c850 f93c 0d0e 55bc 4ab8 80bc
00000020: 803b ba3c 6e0a c03c afea 5bbd 41c1 493d
00000030: 30bb 1d3d e64b 0bbd fc64 8cbd 711d c93c
00000040: 12ef dd3a e585 373d 18db 5d3c 5aa0 043d
00000050: ad52 4b3d 770d 693d adf9 163d 9450 653d
00000060: 1dab b63d dd92 b4bc d523 95bd 816d f83c
00000070: eaf2 853d 6c16 4ebd ba97 9dbc dcd5 5cbd
00000080: d2a9 6b3d c70a 643d f0d0 bd3c 4e5a d93c
00000090: 3052 593a 32da bd3c f5a8 5c3d 3cc7 183d
000000a0: 5796 503c b20b 493d 648d 813d 4df8 903d
000000b0: c329 a53c cd6e 8f3d 7e61 50bb 38cd 933c
000000c0: 2aed aab9 81aa f43c dc84 303d 8cff 7dbd
000000d0: 5418 b2bc 7685 d03c b0e3 9e3d c438 7fbc
000000e0: 1a27 893d 1879 a63b 317c 2b3c 4089 61bc
000000f0: f712 ee3c db01 bdbc d150 06bd a733 3d3d
0.017540876 0.000735911 0.0011231229 0.020170387 0.053392034 0.030434027 -0.013003838 -0.015712876
0.02273345 0.023442473 -0.05369061 0.049256567 0.038508594 -0.03400793 -0.06855199 0.024550172
0.001693221 0.044805426 0.013541006 0.032379486 0.049639393 0.056897607 0.036859203 0.05598505
0.08919356 -0.022042686 -0.07282225 0.030325653 0.06540473 -0.050314352 -0.019237388 -0.05391489
0.057535 0.05567434 0.023170918 0.026532318 0.000829014 0.023175333 0.053872067 0.03729938
0.012731156 0.04908342 0.06325796 0.070786096 0.020161515 0.070035554 -0.003179639 0.018042192
-0.00032601628 0.029866459 0.043095455 -0.062011287 -0.021740116 0.025454264 0.07758272 -0.015577499
0.06696911 0.0050803535 0.010466621 -0.013765633 0.029061778 -0.023072174 -0.032791916 0.046191838

action_model._discrete_distribution.branches.0.weight f4 [2, 64]
00000000: 3355 ce3d 161c c0be 94fa 8bbe 6cf1 263e
00000010: 31c7 f73e a106 813e 6623 a23e 47b6 27be
00000020: 0226 99be ed7b ad3e 0db9 16be d9e0 4e3e
00000030: cfae 90be be18 a8be f703 92be 5ddf 093f
00000040: 94b4 34be c9bc 0a3e 018e b3be 7e51 1cbe
00000050: 07f3 81be 9dd6 d2be 0fec f0be ee20 a6be
00000060: 10dc 9bbd 9ba5 913e 155e 9ebe d7ee ac3e
00000070: a046 b53c f344 043e 4ea4 813e 8ec8 0b3e
00000080: 259c b9be 6e36 f63d 9cce 843e 54e3 ab3e
00000090: e27e e03d 71b4 91bd 5ecd 9bbe 825e db3e
000000a0: b748 cdbe 7138 b7be 8cb6 923d ba1d 213e
000000b0: 3291 d53e c6f0 a13e d3da e4be d81a bcbe
000000c0: d888 8f3e e055 553e 710a 64be a525 c93d
000000d0: 817d 723e b12d 34be 7db3 b33e 7c1f 763e
000000e0: 6d63 87be 56f9 08be 3a4d 8e3e 8718 2abf
000000f0: 7653 47be 6070 a03e e467 d8bd 740b 57be
00000100: 6a9d aabd e8f4 bf3e 346d 9f3e ed1d 2fbe
00000110: 78c0 f4be a260 86be fd20 a5be aaad 233e
00000120: 6868 943e 849a b4be b6d4 003e 6957 5bbe
00000130: 9492 823e fdbe a33e 8138 8d3e e20c 0dbf
00000140: 3776 373e 6f9c 0dbe 8d27 af3e 44d6 1a3e
00000150: b0bc 5d3e 8678 ca3e 83a0 f13e 4218 b13e
00000160: c1ce e23d 8e32 9bbe 0b94 b73e 6c2a adbe
00000170: b612 24bd 28c4 1abe a398 86be 33ed f1bd
00000180: 40e8 bc3e 2b77 04be 6107 8abe 06df a3be
00000190: 181d efbd fb76 983d 122a 9b3e f79c cfbe
000001a0: ef88 cb3e 8c17 b73e 34b6 a6bd 5842 2abe
000001b0: e1c8 debe 0516 91be 5090 f33e 80e4 bf3e
000001c0: e9e3 8dbe 06f6 57be 84ee 653e c94b cdbd
000001d0: 29e1 6cbe 99d5 3e3e 29e3 afbe 8782 74be
000001e0: 3d57 983e 0564 ed3d c952 9fbe 897d 223f
000001f0: 660e 503e ae63 9cbe c2fa e03d 93c8 6d3e
0.10074844 -0.37521428 -0.27339613 0.16303033 0.48394158 0.2520037 0.31667632 -0.16378127
-0.2991181 0.3388361 -0.14719029 0.2020296 -0.28258368 -0.32831377 -0.2851865 0.5385645
-0.1764701 0.13548578 -0.35069278 -0.15265462 -0.25380728 -0.41179362 -0.47055098 -0.32446998
-0.07610333 0.2844666 -0.30931154 0.3377597 0.022128403 0.12916927 0.25320667 0.13650724
-0.3625194 0.120221004 0.2593888 0.33571875 0.10961701 -0.071144946 -0.3043012 0.4284554
-0.4009454 -0.3578525 0.07163724 0.15733996 0.41712338 0.31629008 -0.446982 -0.3673923
0.2803409 0.2083354 -0.22269608 0.09821633 0.23680688 -0.17595555 0.35097876 0.24035448
-0.26443043 -0.13376364 0.27793294 -0.66443676 -0.19465432 0.31335735 -0.105666906 -0.21000463
-0.083308056 0.37491536 0.31138003 -0.1710126 -0.47803092 -0.262456 -0.3225173 0.15984216
0.28985906 -0.35274136 0.12581143 -0.21420063 0.25502455 0.3198165 0.27582172 -0.5509778
0.17916189 -0.13829206 0.34209862 0.15120798 0.2165401 0.39545077 0.47192773 0.3458882
0.110745914 -0.30312008 0.35855135 -0.33821428 -0.040056907 -0.1511389 -0.26288328 -0.1181282
0.36895943 -0.12936084 -0.26958755 -0.3200609 -0.11675471 0.07444569 0.30305535 -0.40549442
0.3975291 0.35760152 -0.08140221 -0.1662687 -0.43512633 -0.28337112 0.4757104 0.3747902
-0.27712944 -0.21089944 0.22454268 -0.100242205 -0.23132767 0.18636169 -0.34352997 -0.23877917
0.29754058 0.11591343 -0.31117848 0.634728 0.20317993 -0.305448 0.10985328 0.23221044

action_model._discrete_distribution.branches.0.bias f4 [2]
00000000: c768 74bd 2a81 743d
-0.059670236 0.059693493

98 f4 [1, 256, 64]
00000000: 78bc 203e 6a1e 2c3e 9063 343e d154 9b3d
00000010: 6f72 b6bc 6071 9fbc 51fd b43c bf2a ac3e
00000020: 1f54 13bd e314 3f3e 4c2d b83d e85c 6d3d
00000030: 1c45 363d 8744 8f3e f0fa 0dbe 0b0c b83d
00000040: 375e 02bd 7089 8abe 65f8 103e ba41 1b3e
00000050: 16f0 293e d86a d13c acf6 a0be a49d 61bd
00000060: e757 113b 90af bc3e b7f5 283e 0216 7b3d
00000070: c81e 5a3d b128 3c3e 5607 6ebd 51bf cf3d
00000080: e612 2e3e f5f0 7bbd def8 85bc 91c6 b1bd
00000090: 75c0 043e 6709 933e e288 403e 1299 d7bd
000000a0: 3e0a 783e d031 3cbe 45e0 9f3d 2e65 9fbd
000000b0: ac00 c63b bb1b 24bd 0c37 c23e 67d0 123e
000000c0: 39b4 6a3e be6a 6abd 0737 08bc d759 1bbe
000000d0: e87c d03c d3ba 02bc 72ec ce3a 8375 0b3e
000000e0: 31ea 773e b0a5 82bc 7e82 adbb ab9b d63d
000000f0: a0a8 74be 8e79 a9bc c528 ac3d 1b3b 81be
00000100: 5039 55be 2e48 f3bd 5952 5b3e 3ba9 41be
00000110: 6124 883e d7ed ab3c 4c55 a1bd 216c c4bc
00000120: edff 3fbd eb31 6cbe 63ce 723e af74 ad3e
00000130: a430 ac3d a9ae 463d 8a53 043e 4afa d1bb
00000140: 92da 42be 15c6 6fbd cb85 943e 8ea9 963d
00000150: c5ec c73e a34b 323e d5bc 6c3e b742 953e
00000160: e97a 36bd 0264 46be 9f81 7e3e b2b3 9dbd
00000170: d9be 5a3e dfaf 283e 4c13 74bd a379 1b3e
00000180: 9c5f ae3d 6adc 43be b53d 0a3e 3bc8 8a3c
00000190: 8b30 d4bd b5e5 793d 7b64 133e 5c75 0b3e
000001a0: 5da2 fd3d b09e 423e e5c4 33be fd0f 873e
000001b0: 70c1 013d 9653 0dbe d6bb 1d3d 432c 34bd
000001c0: c37b 5b3e fea5 e6bc 82ec c3bd 020b 533d
000001d0: 710d 09be 194b 99be f80c f83d b374 a83d
000001e0: 3f9f c3bd 4858 cb3d 5e24 86be 4fc7 233c
000001f0: 7bb7 cc3d 0120 67bd f2b7 193e b96c 4e3d
00000200: dc4e c1bc c864 973d 74e0 12bd 7fa9 2d3e
00000210: 0242 27be 9b95 efbd 0284 b63c 725f 393d
00000220: af25 843e ee09 64bd dc26 73bc b584 2bbe
00000230: 2486 a0be 6f1f 0a3e a8b2 c2bc d0ea 333e
00000240: fc37 a03d ff29 afbc 4ea8 443d 48a2 313d
00000250: 82d9 903d e20b 97be ab7d 49bc 7202 4d3d
00000260: c536 01be 32dd 913d 222b f23d 19bb 36be
00000270: d679 50be e174 d2bc 1352 babd cc58 793d
00000280: cd33 40bb 0680 aa3c a068 0ebe ec98 443e
00000290: 78da 963e a77c 4a3e bd14 0c3e 204b 023e
000002a0: 0646 e13d df0b 93bd 6aa1 45be 1d77 eabd
000002b0: 4983 77bd 9d96 cabc 7bc9 0f3d 32ce 953d
000002c0: add5 c53b 6c26 d9bb ae5b 74be d443 983b
000002d0: 6922 293e 8312 a23d ada0 52be a94d 913d
000002e0: 3308 0b3c f16f 21be 8ea8 95be 9c6c 103e
000002f0: ce2e 54bb f012 e9bd 5a26 1c3e 0632 1abe
00000300: 76d7 103e 7e6b 8f3d d3f7 513d ada1 94be
00000310: 8c88 3c3e d8f7 5a3d 2e61 d13d ebfc 99bd
00000320: 7db9 3f3e 12a0 a7bd 2dc5 773e 1d54 17be
00000330: 81b5 ffbd 4d5d 133e 5001 503e 16df 3ebe
00000340: f1ed abbb baa2 8b3e c790 aa3d b87a 133e
00000350: 5db4 123e fae5 16be f48d f6bd fd21 553c
00000360: ced2 90bc 8c2e b43d c9ac 12be c514 f3bd
00000370: f93c 25be 1966 ca3c 6ff7 99bd 5f7d 633e
00000380: 8a9c c03d 30c6 813c af7b 1e3b b50d 32be
00000390: 17e4 57bd 2904 6d3c d43b d53d 47cf 913c
000003a0: fd73 513e 32b2 46be d5ad 93bd 4b92 fe3d
000003b0: 67b6 e73d 54cd 0d3e 93d5 203e c5ac ed3d
000003c0: 8f98 9b3d 3779 3b3e ddb4 17be a4aa fabb
000003d0: 769b f83c 7856 413d 0234 1ebd bca3 643e
000003e0: ce61 463d db7a 3d3e 465e 0c3c c48e e3bc
000003f0: b61d 4c3d b905 813d 5a1c 73bd 73e5 44be
0.15696895 0.16808477 0.17616105 0.07584537 -0.022271363 -0.019463241 0.022093447 0.33626363
-0.035968896 0.18660311 0.08993015 0.05794993 0.0444995 0.2798197 -0.13865256 0.08986672
-0.03182813 -0.27057981 0.14157255 0.15161791 0.16595492 0.025563642 -0.31438196 -0.05508198
0.0022177638 0.36852694 0.16499983 0.061300285 0.05325201 0.18374898 -0.058112465 0.101439126
0.16999397 -0.06150909 -0.01635402 -0.08680452 0.12964042 0.2871811 0.18802217 -0.10527243
0.24222657 -0.18378377 0.07806448 -0.0778297 0.0060425606 -0.04006551 0.37932622 0.14337312
0.22920312 -0.057230704 -0.008313901 -0.1517099 0.025450185 -0.007979113 0.0015787019 0.13619046
0.2421043 -0.015948147 -0.005295097 0.1047891 -0.2389245 -0.020687845 0.08406214 -0.25240406
-0.20822644 -0.118790016 0.21418132 -0.18912213 0.26590255 0.020987434 -0.07877597 -0.023977341
-0.04687493 -0.23065917 0.23711543 0.33878085 0.08407715 0.048506413 0.12922493 -0.0064080106
-0.1902869 -0.058538515 0.29008326 0.07356559 0.39047828 0.17411666 0.23118909 0.29152462
-0.04455081 -0.19374087 0.24854134 -0.0770029 0.21361865 0.1647334 -0.059588715 0.1518312
0.0851433 -0.1912705 0.13500102 0.01694118 -0.10360821 0.06101008 0.14393799 0.13618988
0.12384484 0.19005847 -0.17555578 0.26379386 0.031678617 -0.13801417 0.038509212 -0.043987524
0.2143393 -0.028155323 -0.09566595 0.05152417 -0.13384034 -0.29940107 0.121118486 0.082253836
-0.09551858 0.09928948 -0.2619962 0.009996249 0.099959336 -0.056427006 0.15011576 0.050396655
-0.023597173 0.073922694 -0.035858586 0.16959189 -0.16333774 -0.11698457 0.022279743 0.04525704
0.2581 -0.055673532 -0.014840808 -0.16749842 -0.3135234 0.13488553 -0.02376683 0.17570043
0.07823178 -0.02138233 0.04801207 0.043367654 0.07072736 -0.29501253 -0.012298028 0.05005116
-0.12618549 0.07122268 0.11824633 -0.1784481 -0.20358977 -0.025690498 -0.09097686 0.0608757
-0.002932775 0.020813 -0.13907099 0.1919896 0.29463553 0.19774114 0.13679786 0.1272397
0.10999684 -0.071799986 -0.19299856 -0.114485 -0.060427938 -0.024730021 0.035104256 0.07314719
0.006037435 -0.0066268947 -0.23863098 0.0046467576 0.16517033 0.07913687 -0.20569105 0.070948906
0.008485842 -0.15765359 -0.2923016 0.14103931 -0.003237653 -0.11380565 0.15249005 -0.15058145
0.14144692 0.070029244 0.051261734 -0.290296 0.18411463 0.05345902 0.10223614 -0.075189434
0.18723102 -0.08184828 0.2419631 -0.1477818 -0.12485791 0.1439106 0.20313 -0.18639788
-0.0052468707 0.27272588 0.08328395 0.14402282 0.14326616 -0.14736167 -0.12038794 0.013008592
-0.017678645 0.087979406 -0.14323725 -0.11869196 -0.1613654 0.024706887 -0.07517897 0.22215794
0.094048575 0.015841573 0.0024182608 -0.17388041 -0.052707758 0.014466324 0.10411802 0.017799033
0.20454402 -0.19403914 -0.0721089 0.12430247 0.11314087 0.13847858 0.15706472 0.11605219
0.075974576 0.18307959 -0.14815088 -0.0076497365 0.030347567 0.047201604 -0.038623817 0.22328085
0.048433118 0.18503897 0.008567398 -0.027778037 0.049833022 0.0629992 -0.05935321 -0.19228153

99 f4 [1, 256, 64]
00000000: 43a2 a0bd 50d7 c13d c8a9 fe3d 6d0e d43d
00000010: bad9 163e a498 9a3d c8a9 0e3e 7283 fe3d
00000020: 70d5 63be ae4b 38be a97f 913d 874b 0abe
00000030: 4d5c d4bd 9d3c 833e 9e21 373e 7c2f edbd
00000040: aa0d 1cbd a0ac 0ebf 3293 d53d e5d7 1e3e
00000050: 79c1 60bd aa55 323d f7ae 073e d665 f6bc
00000060: 2a02 7bbb 1ec6 53bc e825 083e 2fe6 fe3d
00000070: 2a94 ab3c 85c5 8d3e 41f0 0c3e f440 c63d
00000080: 2b75 473e 9fe9 9fbd 0500 c2bd 5fc1 fc3c
00000090: 8cc8 05be b2f1 88bc e7a1 ee3d e295 e83a
000000a0: 4f9c 36be 0fff d8bd e08a ff3d 8e39 ab3d
000000b0: d6cd 73bd a86c 0c3e 241d 14be b39e 69bd
000000c0: 4a70 a73e aae5 afbd 4172 3c3e f4fe 4c3e
000000d0: d8d7 bcbd 297a 4d3d 25da 1d3e 780b 643d
000000e0: 98dd 1d3e 6c92 33be 7a42 e4bd 304b 4d3d
000000f0: c3fb 5d3e 9216 3f3e bcbc b3be 1ff5 523d
00000100: b608 b53e 7826 c1bd 40ce d1bc c5cb 323d
00000110: 7c7d a8be 354c 9abe 7953 a7bd 965c 343e
00000120: 597d 933c 4a7c 0e3e 14ad 57be 9724 313d
00000130: b531 17be 1dc6 57be 705b 0e3e 855d 06bf
00000140: 89fc b43d 97e2 7d3d 4752 1e3e 1abf b23e
00000150: 1782 153e fb9e 0f3e f108 003f 641a 27be
00000160: 180a 2dbd f298 e63d d5bc 2cbd 5ad0 88be
00000170: ff9c 1ebe a4a6 18be 0c10 fe3c f882 c5bd
00000180: dbdc 1a3e aacd 8e3e acc7 49be 36c6 1b3e
00000190: 179c 753e 7fb3 5e3d f9ce 8abd e7a7 47be
000001a0: 85f4 023f b17e 603e cf58 5cbe 7aa1 58be
000001b0: d960 8fbe 5b19 0dbd 97c9 f93e 2e16 c03e
000001c0: d1ab 0e3e 0d03 7abd 7c35 07bc d47b 90bd
000001d0: b91b bcbc 0f72 fd3c 84ea bf3d bab7 2a3e
000001e0: da76 5f3e 70bc 1dbe 7bce bbbc 8c4f 113f
000001f0: 21fb d5bd 7675 cdbd c9b6 a4bd 677c 953e
00000200: 88ae c6be 75c8 06be 6ab3 173e 6e39 ed3d
00000210: e62e c73d 6ff8 41be bb3c 0a3e 9d95 b0bd
00000220: 0ffe ad3c e5ff 193d 5686 97be 9528 9cbd
00000230: 59ec 073e be81 7d3c 130a 69be 4a1f 523d
00000240: b5ab 003e 8350 50bf 9fc2 90bd 1add a43c
00000250: b0c6 a7bc 34e6 29be 82c8 6b3e 8bf1 2ebd
00000260: 6f1b bb3d aba1 95bc e447 ecbc e239 11bc
00000270: ece2 da3d 5990 843e d06f 9ebd 8d25 663e
00000280: 60ec 5dbe 9b00 993e 02a3 f7bd 0a79 b63b
00000290: 4bf0 643d cf00 44bd 7bea a53c 943b 193c
000002a0: 74f5 cdbd 955e 633e 4dde 773e 50c8 e7bd
000002b0: e5c7 313d bd58 6dbd 52d8 c1bd 3a82 933e
000002c0: cca9 38be c003 b8b4 0c85 2d3c db2f db3d
000002d0: 6114 55ba de57 a33d d796 21be dc6e 05bc
000002e0: f9c1 4fbc e330 f1bd 85c3 3a3e 959c 003e
000002f0: 6a46 1fbe 0b4d 903d 6bb4 ecbd f9d0 1e3e
00000300: 220c c3bc cbcd 71bd 6fa3 d6bc c331 babd
00000310: 5709 0abd 201f b9bc 3009 5abd f5de cabd
00000320: fbe7 aebd e4c8 523e e749 d7bd d3ae 6c3e
00000330: 8cfe c5bc 97ae 943d e163 e7bd 56d7 6d3d
00000340: 8bf2 973d 3131 3b3e 9570 01be 19cf 43bc
00000350: 1dff 82bd 5adc 25be 718c 423d 7d64 043e
00000360: f5cd 8dbe ab90 a1bd c09b d9bd 292b fbbd
00000370: 94cd 7d3e ef26 413e 0b82 833d 5a03 583e
00000380: 4876 a5bd d5a1 b63d 7b09 eabd 9bf2 5a3d
00000390: 799d 643e 82e3 0b3d f30a fdbd c61d f1bd
000003a0: cdbe 103d 35b0 d1bd 2b4f 183e 9530 63be
000003b0: 5e2f 0b3d b87a 783d 471d 68bd 5c8a 28be
000003c0: 4c0d 063e 818d 37be 473a e3bd 9bc1 923b
000003d0: 6a98 68bd ebec ea3d 6591 96bd 0400 473d
000003e0: b030 34be b744 883d f687 1d3e 360e f1bd
000003f0: 20c4 83be 4dab 30be d9db eebd 5ef3 dd3d
-0.07843449 0.09464896 0.12434727 0.10354314 0.14731494 0.07548645 0.13931954 0.12427415
-0.22249389 -0.1799762 0.07104427 -0.13505374 -0.103691675 0.25632182 0.17883918 -0.115813226
-0.03809897 -0.55732155 0.10428466 0.15512045 -0.05487201 0.043538727 0.13250338 -0.030077856
-0.003830085 -0.012925653 0.1329571 0.12446248 0.020944674 0.27689758 0.13763525 0.096803576
0.1947829 -0.078082316 -0.0947266 0.030853925 -0.13064784 -0.016716812 0.11651974 0.0017744864
-0.17833064 -0.105955236 0.1247766 0.08360587 -0.059522472 0.13713324 -0.14464241 -0.057036113
0.32702857 -0.08588727 0.1840296 0.20019132 -0.092208564 0.05016533 0.15415247 0.055675
0.15416563 -0.17536324 -0.11145492 0.050120533 0.2167807 0.18660954 -0.3510493 0.051503297
0.35358208 -0.094311655 -0.025611043 0.04365136 -0.32908237 -0.30136266 -0.08170218 0.17613444
0.018004106 0.139146 -0.21062118 0.043247785 -0.14765055 -0.21071668 0.13902068 -0.5248645
0.0883723 0.06198367 0.15461074 0.34911424 0.14600407 0.1402549 0.50013644 -0.16318661
-0.042245954 0.11259641 -0.04217227 -0.2672146 -0.15489577 -0.14907318 0.031013511 -0.09644121
0.15123312 0.27891284 -0.19705075 0.1521233 0.23985325 0.0543704 -0.06777758 -0.19497643
0.5115436 0.21923329 -0.21518253 -0.21155348 -0.28003576 -0.03444801 0.48786613 0.37516922
0.1393273 -0.061038066 -0.008252498 -0.07054868 -0.022962438 0.030938176 0.09370902 0.16671649
0.21822682 -0.15403914 -0.022925606 0.56762004 -0.1044829 -0.100321695 -0.08042676 0.29196474
-0.38805032 -0.13162406 0.14814535 0.115832195 0.09725742 -0.18942426 0.1349973 -0.086222865
0.021239309 0.037597556 -0.29594678 -0.07624928 0.13273753 0.0154728275 -0.2275775 0.05129937
0.12565501 -0.8137285 -0.07068371 0.02012496 -0.020480484 -0.16591722 0.23025706 -0.042710822
0.09136092 -0.018265566 -0.028842874 -0.008863898 0.10687813 0.2589138 -0.0773617 0.22475262
-0.21672201 0.29883274 -0.12091638 0.005568628 0.055893224 -0.047852334 0.02025341 0.009352583
-0.10056582 0.22204049 0.24205895 -0.113175035 0.043403525 -0.057945956 -0.09465088 0.28810292
-0.18033522 -3.42754e-07 0.010590803 0.10702487 -0.0008128342 0.07975744 -0.15780197 -0.008144107
-0.012680524 -0.117769025 0.18238647 0.12559731 -0.15554205 0.07045945 -0.115578495 0.15509404
-0.023809496 -0.05903415 -0.026200978 -0.090915225 -0.033700313 -0.02259785 -0.053231418 -0.09905807
-0.085403405 0.20584446 -0.10512143 0.23113565 -0.024169229 0.07259863 -0.11298347 0.05806669
0.07419308 0.18280484 -0.12640603 -0.011951231 -0.06396315 -0.16197339 0.047497217 0.12928958
-0.27696195 -0.07888921 -0.1062541 -0.122640915 0.24785453 0.18862508 0.06421288 0.21095029
-0.08079201 0.08917586 -0.114275895 0.053454023 0.22325696 0.034152515 -0.12355604 -0.11773257
0.03533821 -0.10238687 0.1487395 -0.22186501 0.03398072 0.06066391 -0.056668546 -0.1645903
0.1309101 -0.17925073 -0.110951 0.004478646 -0.05678598 0.1147097 -0.073519506 0.048584
-0.17596698 0.06653731 0.15383896 -0.11770289 -0.2573557 -0.17252846 -0.11663026 0.10837434

100 f4 [1, 512]
00000000: 2dd0 723c 61c0 123e b8d3 2f3d 810f 603d
00000010: d96c 273d f8d3 87bd 9c3f 293e 4362 62bd
00000020: 8f14 a239 1049 3b3d 6478 243d 00c1 513b
00000030: 8b65 843c 9358 13be debb 08be 2654 c93e
00000040: dbdb 593d dd98 08bd cf89 d63c ae81 65bd
00000050: e62d 1b3d 06f2 bf3d 47cf fe3e 6dc1 5e3d
00000060: 271e 903c 0d39 11be 0beb ef3a da7a 6a3d
00000070: e50e 823d df56 1c3d e5fd 553c 426b 823e
00000080: e23f 853c b8cb 973d 0e02 4c3c ae4b 9bbe
00000090: f32a 823c 8064 abbc 9fd8 8a3d 77aa f73e
000000a0: b1bc d63e 95f7 99bd ff49 c83c cf87 863d
000000b0: 5783 93bb c563 fc3c 7e86 b63e ad77 50bd
000000c0: b81c 86bc 738b 993d d491 063e 2d4c 9d3d
000000d0: 859f a93d d8e7 b0bc f057 49bd c96e 2a3e
000000e0: 14cd 453e 0600 0d3e aa3f 82be 4742 f13e
000000f0: 9b06 303c e009 863c 0f05 bb3d 5e1a 9c3d
00000100: 9926 a7be 3d50 1c3e 4f27 c23e 7124 9cbd
00000110: 90b9 f0bb c623 7abc e2fc 303e 38ae 2ebe
00000120: b454 bcbd 8c2c 263c a36a 823e d422 20be
00000130: 29e5 23bd 4141 3abd abd2 88bb 4af8 be3e
00000140: 8382 67be 5846 983e 9917 93bb f5d8 8c3d
00000150: 532c 43bc 1733 543d ca69 023e 87be 01bd
00000160: 89b3 413e 36a1 ad3d 6488 7fbd a6a1 1c3d
00000170: 62b2 89bd 93ca d4bd 3632 3bbd 09ac b9bd
00000180: 4015 a0bc c3ec 063e 6a9a 7fbc cf46 2abe
00000190: 0ef6 333e 6d9a 10be 21bf 3dbe d1f9 bd3d
000001a0: 78d1 bc3e f8f2 2f3e 3b4b 69bd c68f c83d
000001b0: 6227 b23d 121e d5bb d9c1 953e d0d9 a23e
000001c0: cdf0 f13b 36f4 473e 1ee9 3f3e b991 79bd
000001d0: bfe5 8ebe 7bb4 82be 1b52 e63b b59b 40bc
000001e0: be69 90bb ff32 aabb 6691 92bd 8041 573e
000001f0: f009 263e 1262 6c3d b5c2 ffbb 03c5 a13c
00000200: 5691 783f 9e08 793f 79ac 8d3f a233 8c3f
00000210: 27e2 7b3f 6456 753f 0ecd 883f 4697 8c3f
00000220: 480b 863f caf6 813f 362d 8a3f e850 873f
00000230: 68d1 863f d1b0 593f 2493 6d3f a41b 7b3f
00000240: 157d 823f 7fdf 8b3f 790a 873f 1450 723f
00000250: 4697 893f f55c 7d3f 0b84 773f 1549 7b3f
00000260: fe9b 853f 01d3 533f 39bc 853f 2f8f 833f
00000270: 3c56 883f 3a03 893f b47c 873f c5a1 793f
00000280: 8e8a 893f d559 893f c607 8a3f 03c3 6e3f
00000290: 2f40 863f 69dd 873f 9573 843f ece1 743f
000002a0: c95a 7c3f 92c3 953f e5a1 823f cbad 803f
000002b0: 583b 863f 0f07 883f 8dc5 763f b36d 8e3f
000002c0: 2568 993f db75 803f e73f 7e3f a7f9 863f
000002d0: e649 7b3f 61dc 893f 28c5 803f 51df 7d3f
000002e0: 7c17 883f b3ad 8b3f cda2 6f3f b437 723f
000002f0: d067 843f ba20 823f 909b 853f bd66 843f
00000300: 7d0f b73b 7c3c 933e f3c3 093e 06b8 063d
00000310: b802 ec3c ce4d 08bd 276e 75bd 78e8 37bc
00000320: 7a80 35bd 8e03 373d b6f7 bc3c 4ab0 823c
00000330: 6ceb f6bb 2458 2bbe bc46 3cbb ae93 4c3d
00000340: 425d f0bc 72dc 30be aeaa 82bd f4bd 10bd
00000350: 5871 2fbe 2b38 55bd 8875 4bbd 9d33 80bd
00000360: 076e 313b 76b3 13bd 6b8b 19bd ac97 07bb
00000370: dc41 6ebc c62d d7bc 6aad ae3c 9af4 173c
00000380: 8c6f 36bd 837e 1dbd e88b bf3c 30fa 8ebd
00000390: 713c 25bd 5b3f 423d f727 bdbc 6c78 223d
000003a0: 18a1 97bc 8f4a d83d 1168 64bd f38d 1e3b
000003b0: 3701 8c3c 2706 383d a510 243d b07a 243e
000003c0: 4429 9a3c 4ff8 223d 3a3b 013e 62a6 dd3c
000003d0: 1f1b 38bb a2d0 9fbc 28a1 8b3d f8e2 1d3c
000003e0: 7ea6 3fbd 689c eebd f0a3 183d abd5 4c3d
000003f0: f284 233c 9af2 053c 6bd9 90bc d204 19bd
0.014820141 0.14331199 0.04292652 0.054702286 0.04087529 -0.06632227 0.16528171 -0.05526949
0.00030914365 0.045723975 0.040153876 0.0032005906 0.0161617 -0.14389257 -0.13352916 0.39322013
0.053188186 -0.033348907 0.02618876 -0.056031875 0.03788557 0.09372334 0.49767515 0.054383684
0.017592503 -0.1418192 0.0018304301 0.057246067 0.06350497 0.038168784 0.013061021 0.25472456
0.016265813 0.07411903 0.012451662 -0.30331177 0.01588962 -0.020921946 0.067795984 0.48372242
0.41940835 -0.07517926 0.024449347 0.06568872 -0.004501741 0.030809293 0.35649484 -0.05089538
-0.016371116 0.07497301 0.13141567 0.07680545 0.08282379 -0.021594927 -0.04915613 0.16643824
0.19316512 0.1376954 -0.25439197 0.47120878 0.010743762 0.01636213 0.09131824 0.07622217
-0.32646635 0.15264983 0.37920615 -0.07624138 -0.0073463395 -0.015267318 0.17283967 -0.17058647
-0.09195843 0.010142457 0.25471982 -0.15638286 -0.040013466 -0.045472387 -0.004175504 0.37298805
-0.2260838 0.29741168 -0.004488897 0.06877319 -0.011912423 0.051806536 0.12735668 -0.03167584
0.18916143 0.08478014 -0.06238593 0.038240097 -0.06723477 -0.103902005 -0.04570218 -0.09066016
-0.019541383 0.13176255 -0.01560078 -0.16628574 0.17574331 -0.14121409 -0.18529941 0.09276164
0.36878562 0.17182529 -0.05695651 0.097930476 0.08698918 -0.006503829 0.29249457 0.31806803
0.007383442 0.19526753 0.18741271 -0.060929988 -0.27909657 -0.2552832 0.0070288307 -0.011755873
-0.0044071367 -0.0051940675 -0.07156639 0.2102108 0.16214728 0.057710715 -0.0078051933 0.019747263
0.97096765 0.97278774 1.106826 1.0953257 0.98391956 0.95834947 1.0687578 1.0983665
1.0472193 1.0153439 1.0795047 1.0571566 1.0532656 0.85035425 0.92802644 0.9808905
1.0194422 1.092758 1.0550071 0.9465344 1.074929 0.98969966 0.96685857 0.9815839
1.043823 0.8274384 1.0448066 1.0278071 1.0651317 1.070411 1.0584931 0.97512466
1.0745409 1.073054 1.0783622 0.93266314 1.0488337 1.0614444 1.0347773 0.9565723
0.9857603 1.1700308 1.0205656 1.0053037 1.048686 1.0627154 0.9639519 1.1127228
1.1984907 1.0035967 0.9931626 1.0544938 0.98159635 1.0770379 1.0060167 0.9916888
1.0632167 1.0912384 0.9360779 0.94616246 1.0344181 1.0166237 1.0438099 1.0343853
0.005586563 0.28757083 0.13453655 0.032890342 0.02880989 -0.033277325 -0.059919503 -0.011224858
-0.044311978 0.044681124 0.023067337 0.015953202 -0.0075353887 -0.16732842 -0.0028728684 0.049945526
-0.029341344 -0.17271593 -0.06380211 -0.035337403 -0.17133081 -0.05205552 -0.049672633 -0.062598445
0.0027073638 -0.03605982 -0.037486475 -0.0020689769 -0.014542069 -0.026266944 0.021322925 0.009274626
-0.044539973 -0.03845073 0.023382142 -0.06981313 -0.040340845 0.0474237 -0.023090346 0.039665624
-0.018509433 0.10561096 -0.055763308 0.0024193495 0.017090423 0.044927742 0.040054936 0.16062427
0.018818505 0.039787587 0.1262025 0.027056877 -0.0028092337 -0.019508664 0.068178475 0.009636633
-0.04678964 -0.11650926 0.037265718 0.050008457 0.009980427 0.0081755165 -0.017681798 -0.037358113
