results/Test6/Jumper/Jumper-9499987.onnx (onnx, 154598 bytes, 9 tensors)

network_body._body_endoder.seq_layers.0.weight f4 [64, 3]
-0.6837421 0.46253493 0.5491032 0.55032605 -0.7949719 -0.9379266 0.3166627 -0.5510242
1.0952708 -0.24000631 -0.06464841 -0.5502928 0.6340662 1.2893207 -0.3547068 0.17708482
-0.23696189 -0.26964104 -0.36869544 -0.3420151 0.39395198 0.2042095 -1.1846335 -0.55696493
0.3659154 0.5520378 -0.1804285 0.21390273 -0.63662136 -0.07999204 -0.3583668 0.034699604
0.5517094 0.5732793 0.46787816 0.25786328 0.13148542 0.94985604 -0.5951707 0.96495354
-0.011719758 -0.30625835 -0.1625659 -0.26252207 0.82640225 -0.16858761 -1.2705241 0.47234386
-0.18141109 -0.12543784 -0.7170797 -0.17105795 -0.82281905 0.022762427 -0.050359238 0.08980888
-0.3661567 0.5391334 0.094078675 0.7755293 -0.3089755 0.53592503 1.1073447 0.44808176
-0.47546655 -0.29279914 -0.055737223 -0.38778248 -0.45696312 -0.44729912 0.3983812 -0.09310912
0.012456488 -0.20468892 -1.0667759 -0.74782854 -0.044748962 0.79003143 -0.43550253 -0.07937332
0.3080748 0.13088544 -0.15982573 0.5640978 0.08771992 0.7612503 -0.32440776 0.23499614
-0.0696408 -0.88793993 -0.86159277 -0.2535643 0.30778295 0.21126077 0.27646458 -0.5171033
0.046204135 0.20701309 -1.1922754 -0.15977325 0.2843625 0.31217328 0.5075466 -0.35875493
-0.8861502 0.08935371 0.19775221 -0.40284878 -0.038702276 0.37192708 0.4894477 0.055170756
0.016433133 0.45992276 -0.42183027 -0.97392386 0.4193988 -0.2119163 -0.111787885 -0.14653195
-0.0916607 0.30546707 0.830744 -2.0316844 0.57142705 -0.61890775 0.06043375 0.2696786
-0.42452317 0.91436625 0.90322536 -0.9007277 -0.36843055 -0.52134544 0.8240677 -0.13148902
-1.1130725 -1.5978453 -0.24915995 -0.47244415 0.7341841 -0.044013545 0.55987895 1.3759038
-0.07305041 0.61334705 0.42232218 -0.09585333 -0.116992034 0.03985676 -0.17044601 0.8213164
-1.0006353 -1.4276319 -0.7184766 -0.5168249 -0.7335131 1.0427659 1.0218202 -0.11869259
0.871948 0.9891957 -0.5431674 0.4370933 0.6178679 0.38617453 -0.20666853 0.85250306
0.5796428 1.0993761 -0.09045893 -0.6032657 0.8946374 0.40780145 0.46478832 0.2851652
1.1488059 -0.35430956 -0.4048314 0.60485053 0.68330306 -0.26836455 -0.357676 0.74976665
-0.89916563 -0.69000065 -0.7625699 -0.15672515 0.031579323 0.7391754 0.3233006 -1.2056837
00000000: b909 2fbf 61d1 ec3e 0792 0c3f 2be2 0c3f
00000010: 4783 4bbf f51b 70bf 9d21 a23e ec0f 0dbf
00000020: d531 8c3f 37c4 75be 6366 84bd fddf 0cbf
00000030: 2a52 223f 7608 a53f 219c b5be b955 353e
00000040: 23a6 72be 640e 8abe a6c5 bcbe 9a1c afbe
00000050: 13b4 c93e 4c1c 513e 12a2 97bf 4195 0ebf
00000060: 4359 bb3e 5952 0d3f 40c2 38be 5109 5b3e
00000070: 9ef9 22bf ded2 a3bd da7b b7be 2c21 0e3d
00000080: d43c 0d3f 6fc2 123f ba8d ef3e a806 843e
00000090: 1da4 063e c429 733f 1b5d 18bf 3207 773f
000000a0: 3a04 40bc e5cd 9cbe ad77 26be 4b69 86be
000000b0: 198f 533f 3ba2 2cbe 89a0 a2bf 0ed7 f13e
000000c0: d4c3 39be c772 00be 8992 37bf d129 2fbe
000000d0: 45a4 52bf 4578 ba3c 7d45 4ebd b8ed b73d
000000e0: e478 bbbe a604 0a3f 52ac c03d 1789 463f
000000f0: 0932 9ebe 6232 093f 79bd 8d3f f96a e53e
00000100: 5a70 f3be c5e9 95be b74c 64bd 6d8b c6be
00000110: 12f7 e9be 6404 e5be 9ff8 cb3e ffaf bebd
00000120: 4c16 4c3c f999 51be 1d8c 88bf b171 3fbf
00000130: b04a 37bd 803f 4a3f 30fa debe 7b8e a2bd
00000140: fbbb 9d3e d506 063e 5ba9 23be b768 103f
00000150: 80a6 b33d 4de1 423f c618 a6be d4a2 703e
00000160: d69f 8ebd 0850 63bf 5891 5cbf 2ed3 81be
00000170: ba95 9d3e be54 583e c48c 8d3e e260 04bf
00000180: 8c40 3d3d 3dfb 533e 7b9c 98bf 999b 23be
00000190: f697 913e 2dd5 9f3e 93ee 013f baae b7be
000001a0: bdda 62bf 14ff b63d 8e7f 4a3e 3242 cebe
000001b0: 4786 1ebd 3a6d be3e e498 fa3e bbfa 613d
000001c0: c79e 863c ff7a eb3e 23fa d7be 1353 79bf
000001d0: 71bb d63e 9600 59be 0cf1 e4bd 790c 16be
000001e0: 9bb8 bbbd 2e66 9c3e a4ab 543f 1e07 02c0
000001f0: 0b49 123f bd70 1ebf 6189 773d 5013 8a3e
00000200: 1a5b d9be e813 6a3f c739 673f 1796 66bf
00000210: eea2 bcbe e576 05bf 1af6 523f 0fa5 06be
00000220: 2979 8ebf 3286 ccbf c923 7fbe 33e4 f1be
00000230: 7df3 3b3f 8c47 34bd 3a54 0f3f 9e1d b03f
00000240: 749b 95bd 5004 1d3f 9d3a d83e c04e c4bd
00000250: 8599 efbd d840 233d 6689 2ebe cb41 523f
00000260: d114 80bf a4bc b6bf 15ee 37bf a34e 04bf
00000270: 84c7 3bbf 5a79 853f 01cb 823f 1a15 f3bd
00000280: fc37 5f3f ee3b 7d3f 050d 0bbf b1ca df3e
00000290: 972c 1e3f abb8 c53e eaa0 53be a43d 5a3f
000002a0: 7863 143f 5bb8 8c3f 8842 b9bd 9f6f 1abf
000002b0: f506 653f 5acb d03e bcf8 ed3e 2c01 923e
000002c0: 120c 933f 1068 b5be 1046 cfbe 7cd7 1a3f
000002d0: f3ec 2e3f 1467 89be 4f21 b7be b5f0 3f3f
000002e0: b82f 66bf e2a3 30bf c837 43bf 8f7c 20be
000002f0: 5259 013d 993a 3d3f a887 a53e d853 9abf

network_body._body_endoder.seq_layers.0.bias f4 [64]
0.12870121 0.05066681 -0.16819578 0.21726982 -0.4817918 -0.01692922 0.15273799 0.0668677
-0.32439548 -0.10335416 0.065460026 -0.10353075 0.053397078 -0.08473831 -0.015279627 0.054891605
0.28316304 0.16399804 0.1800113 -0.07322085 0.04377482 -0.029116191 0.17682171 0.0484734
0.16837734 0.0992948 0.0587828 -0.15052728 -0.03904056 0.05784668 0.031748805 0.015947867
0.1731167 0.033582103 0.034567606 0.033320338 -0.039461896 -0.16693309 0.12767604 0.23485129
0.029624263 -0.08384483 0.054846294 -0.09557083 0.016690616 0.36011177 0.034116615 0.042895317
0.007365644 0.07715389 0.37535113 -0.26330742 0.07525071 0.033968624 0.13973598 -0.09496335
-0.33685163 0.1151634 -0.07493708 0.08854336 -0.032208446 0.019060383 0.31288305 0.04985576
00000000: 40ca 033e 0088 4f3d 843b 2cbe fb7b 5e3e
00000010: 6aad f6be 26af 8abc 5967 1c3e eff1 883d
00000020: 2a17 a6be 59ab d3bd e80f 863d ee07 d4bd
00000030: e5b6 5a3d 478b adbd 6757 7abc 05d6 603d
00000040: bffa 903e 1aef 273e e254 383e d0f4 95bd
00000050: 3a4d 333d 1485 eebc c010 353e 0b8c 463d
00000060: 1c6b 2c3e 125b cb3d 3cc6 703d d323 1abe
00000070: ffe8 1fbd a4f0 6c3d 090b 023d 1aa5 823c
00000080: 8145 313e 638d 093d c396 0d3d e87a 083d
00000090: cca2 21bd 82f0 2abe 82bd 023e db7c 703e
000000a0: 95ae f23c d7b6 abbd 82a6 603d a4ba c3bd
000000b0: c2ba 883c 9260 b83e ddbd 0b3d 00b3 2f3d
000000c0: 805b f13b dc02 9e3d 062e c03e 3bd0 86be
000000d0: 0b1d 9a3d af22 0b3d f316 0f3e 257c c2bd
000000e0: d177 acbe cada eb3d 9d78 99bd 3956 b53d
000000f0: 01ed 03bd 8524 9c3c 3532 a03e 8e35 4c3d

network_body._body_endoder.seq_layers.2.weight f4 [64, 64]
0.14824793 -0.35422 0.005529495 -0.12882943 0.43013653 -0.124737754 0.00026425917 -0.10130612
0.17212768 0.017002288 0.34396797 0.08147629 0.17844059 0.15650633 -0.016636938 -0.44390592
-0.078239605 -0.1737191 -0.084605515 -0.023580551 0.30037093 -0.33491048 -0.11501045 0.28738877
-0.16199833 0.30331802 0.05465071 0.09720299 0.3648285 -0.3117866 -0.14829975 -0.25547406
-0.2410547 0.21222296 -0.2688705 0.06856188 0.15971376 -0.0040529557 -0.008095201 -0.10534924
0.22713996 -0.045773506 -0.10740051 -0.3145821 0.035218075 -0.054637246 0.21774156 0.37140954
0.20520984 -0.0024743623 0.04695406 -0.18186577 0.17360608 0.1949166 0.15118277 0.050536226
0.0553421 0.277249 0.054179084 -0.005509414 -0.17241785 -0.028818188 0.06011611 -0.31279284
-0.06768589 -0.22400597 -0.04088266 0.14282708 0.006865755 0.1215824 0.0069214716 -0.3397878
0.2749171 -0.12020301 0.025240397 0.031566482 0.123903476 0.09968073 0.3366063 -0.023754278
-0.15171124 0.23453198 -0.0075010816 -0.060066782 0.31659657 -0.34863794 0.007039711 -0.04291231
-0.055220596 -0.019966722 0.29491952 0.113738604 0.045587685 -0.42472902 0.06595016 -0.3518754
-0.12526569 0.16016576 -0.29332736 -0.4334298 0.2130219 -0.16864377 -0.18035199 -0.028639374
0.26239994 0.10100672 -0.05804527 0.025960792 0.40555018 -0.26031548 0.46976885 0.1526358
0.112673305 -0.106954955 0.3615758 -0.08681641 0.14483151 0.31259552 0.2637447 0.00932349
0.070462175 0.33493048 -0.024268197 0.24000846 -0.07742703 -0.002803498 0.17382799 -0.05578915
-0.026737068 -0.3704584 0.25003693 0.1074708 -0.00081853877 -0.054806434 0.17694686 -0.0584575
0.10843371 -0.032750715 0.04322511 0.12926659 0.19154835 0.13641815 0.2571799 -0.06709181
-0.26201645 -0.029860077 -0.01762299 -0.14606424 0.047887478 0.07173591 -0.21796957 -0.0827045
0.021642813 0.19012752 0.23681606 0.09112842 0.13157703 -0.43702063 0.10495156 -0.18253483
0.15623394 0.04557867 -0.29212964 -0.069202274 -0.08408059 -0.19904003 -0.010533736 -0.027379604
0.077668816 0.083641276 -0.2284165 -0.20762758 0.3711523 -0.12858173 0.13759343 0.060387827
0.2669604 -0.09620435 0.034248333 -0.0074544474 -0.037116777 0.13662414 0.042115547 0.13550055
-0.14706367 0.05426001 0.19553186 0.027181009 -0.19545944 -0.16829915 0.004363533 -0.23491655
0.27178615 -0.29676357 -0.19889218 0.056711365 0.06960233 -0.12325512 0.17256138 -0.115820155
0.121600755 -0.22242418 0.23411025 -0.32402864 -0.074459426 0.03058603 0.50509226 -0.23235245
-0.10250432 -0.24498862 0.016036842 0.15459062 0.27703896 -0.24461359 -0.055737052 0.17171532
-0.041075334 0.2287016 -0.0849319 0.21358569 0.3828343 -0.5110912 0.018375618 -0.31650499
-0.18117951 0.18154104 -0.3994767 -0.37858424 0.04337438 0.10857668 -0.022121763 0.04477699
0.53603405 -0.026255066 -0.056330778 -0.2927881 0.27338293 -0.24775657 0.2583283 0.20076361
0.2706153 -0.26043278 -0.08641603 0.107770905 0.15188932 0.18197298 0.42706868 0.32269418
-0.24839622 0.12711723 0.23396514 0.32046232 0.09029742 -0.20917317 0.10404494 -0.16773096
00000000: 4ece 173e 535c b5be c430 b53b ddeb 03be
00000010: db3a dc3e 8276 ffbd 448c 8a39 9579 cfbd
00000020: 3d42 303e 6248 8b3c 921c b03e 0bdd a63d
00000030: 21b9 363e 3243 203e 304a 88bc a347 e3be
00000040: 163c a0bd 6be3 31be a845 adbd 002c c1bc
00000050: 38ca 993e 6379 abbe 998a ebbd 9f24 933e
00000060: e4e2 25be 804c 9b3e 6cd9 5f3d 5c12 c73d
00000070: cdca ba3e 7ea2 9fbe e4db 17be 7fcd 82be
00000080: 0bd7 76be fa50 593e 65a9 89be 2c6a 8c3d
00000090: 018c 233e a8ce 84bb bca1 04bc 58c1 d7bd
000000a0: 6197 683e 007d 3bbd ccf4 dbbd e810 a1be
000000b0: d440 103d 4ecb 5fbd a5f7 5e3e 6429 be3e
000000c0: 8722 523e e928 22bb e752 403d 053b 3abe
000000d0: cbc5 313e 3898 473e a8cf 1a3e 13ff 4e3d
000000e0: 66ae 623d 95f3 8d3e e3ea 5d3d 5088 b4bb
000000f0: 4e8e 30be 1f14 ecbc 4f3c 763d 6226 a0be
00000100: e69e 8abd d261 65be 9374 27bd 4341 123e
00000110: 21fa e03b 3100 f93d 83cd e23b abf8 adbe
00000120: efc1 8c3e ff2c f6bd f3c4 ce3c db4b 013d
00000130: 1bc1 fd3d 6925 cc3d a957 ac3e 5598 c2bc
00000140: 315a 1bbe 2729 703e a2cb f5bb 9608 76bd
00000150: f218 a23e ac80 b2be 60ad e63b d2c4 2fbd
00000160: fe2e 62bd 4091 a3bc b1ff 963e c9ef e83d
00000170: 27ba 3a3d 1576 d9be e110 873d 0329 b4be
00000180: a645 00be 7e02 243e 012f 96be 83ea ddbe
00000190: 6a22 5a3e f4b0 2cbe 31ae 38be 1f9d eabc
000001a0: 4959 863e 9cdc ce3d e1c0 6dbd baab d43c
000001b0: 46a4 cf3e 1248 85be 8b85 f03e 8f4c 1c3e
000001c0: 43c1 e63d 330b dbbd 7720 b93e cdcc b1bd
000001d0: b64e 143e 850c a03e 8c09 873e 8dc1 183c
000001e0: 794e 903d 027c ab3e 19ce c6bc c7c4 753e
000001f0: 1092 9ebd e4ba 37bb f7ff 313e 2a83 64bd
00000200: b207 dbbc b9ac bdbe d704 803e a719 dc3d
00000210: 3593 56ba b67c 60bd 8f31 353e 2271 6fbd
00000220: 7e12 de3d 9d25 06bd d00c 313d 765e 043e
00000230: 4025 443e 33b1 0b3e 15ad 833e 6e67 89bd
00000240: 0527 86be 1f9d f4bc 175e 90bc dd91 15be
00000250: a925 443d 47ea 923d 6a33 5fbe fa60 a9bd
00000260: 454c b13c cab0 423e e97f 723e 89a1 ba3d
00000270: 21bc 063e 2bc1 dfbe d8f0 d63d 69ea 3abe
00000280: cafb 1f3e b3b0 3a3d 0492 95be ecb9 8dbd
00000290: 7232 acbd 26d1 4bbe b195 2cbc 314b e0bc
000002a0: d410 9f3d 1e4c ab3d 04e6 69be 539c 54be
000002b0: ad07 be3e eeaa 03be 4be5 0c3e 3a59 773d
000002c0: 09af 883e c906 c5bd fb47 0c3d 7044 f4bb
000002d0: c307 18bd 33e7 0b3e 5a81 2c3d a8c0 0a3e
000002e0: dc97 16be bf3f 5e3d 8139 483e b5aa de3c
000002f0: 8526 48be 9d56 2cbe f8fb 8e3b f78d 70be
00000300: 8e27 8b3e 65f1 97be 64aa 4bbe 2d4a 683d
00000310: ab8b 8e3d 2e6d fcbd eeb3 303e 1e33 edbd
00000320: d109 f93d 2ac3 63be 99ba 6f3e 15e7 a5be
00000330: 2f7e 98bd 8e8f fa3c ba4d 013f cded 6dbe
00000340: c9ed d1bd 4cde 7abe b25f 833c 014d 1e3e
00000350: 0dd8 8d3e fc7b 7abe 894c 64bd 24d6 2f3e
00000360: 9c3e 28bd c130 6a3e c7f0 adbd 35b6 5a3e
00000370: db02 c43e dfd6 02bf 7788 963c f10c a2be
00000380: 1f87 39be e5e5 393e 3688 ccbe cbd5 c1be
00000390: 55a9 313d 735d de3d b338 b5bc 1468 373d
000003a0: 8739 093f dd14 d7bc 1abb 66bd 52e8 95be
000003b0: d9f8 8b3e e6b3 7dbe 9b43 843e fa94 4d3e
000003c0: 178e 8a3e 7257 85be e3fa b0bd feb6 dc3d
000003d0: e088 1b3e 2057 3a3e bfa8 da3e 2c38 a53e
000003e0: 945b 7ebe 052b 023e 8f94 6f3e a313 a43e
000003f0: dbed b83d 7e31 56be 8315 d53d aac1 2bbe

network_body._body_endoder.seq_layers.2.bias f4 [64]
0.024698064 -0.0042682732 0.0119541995 0.02789873 0.035493873 0.031039275 -0.011261116 -0.018969562
0.039600175 0.028366473 -0.04552555 0.027972285 0.032233298 -0.019210853 -0.060683224 0.03221222
-0.0040355166 0.026963921 0.014344877 0.047875497 0.03754487 0.037681226 0.032621037 0.04320396
0.07845618 -0.009803577 -0.065521255 0.01409172 0.043533273 -0.05628951 -0.007596029 -0.059357475
0.05945278 0.043477796 0.0030077223 0.038195364 0.0011383995 0.027600605 0.054019507 0.04980035
0.01738695 0.023475701 0.04793391 0.052980416 0.02350962 0.05160375 0.01152146 0.023084337
0.0019900766 0.024470877 0.032974582 -0.062698364 -0.023774132 0.013747946 0.0513058 -0.009086299
0.07720993 -0.013777828 0.010135333 -0.0152347125 0.01624908 -0.014743039 -0.018810805 0.029963933
00000000: 9853 ca3c dfdc 8bbb 8cdb 433c e18b e43c
00000010: 0662 113d 1446 fe3c 8b80 38bc 0e66 9bbc
00000020: cb33 223d ce60 e83c 0079 3abd 2226 e53c
00000030: 1007 043d 1460 9dbc f98e 78bd f6f0 033d
00000040: 5e3c 84bb 71e3 dc3c c606 6b3c 1919 443d
00000050: a6c8 193d a157 1a3d a39d 053d a3f6 303d
00000060: a2ad a03d 2f9f 20bc 0230 86bd f5e0 663c
00000070: f24f 323d d48f 66bd 1ce8 f8bb d320 73bd
00000080: c284 733d c615 323d 351d 453b be72 1c3d
00000090: 5936 953a aa1a e23c 8f43 5d3d 74fb 4b3d
000000a0: 146f 8e3c 1d50 c03c 5956 443d fe01 593d
000000b0: 3f97 c03c 745e 533d 81c4 3c3c 5d1b bd3c
000000c0: f26b 023b 2677 c83c 5b10 073d 0068 80bd
000000d0: f8c1 c2bc 113f 613c 0826 523d b3de 14bc
000000e0: 3d20 9e3d 66bc 61bc ab0e 263c 049b 79bc
000000f0: ca1c 853c ca8c 71bc 1e19 9abc ec76 f53c

action_model._discrete_distribution.branches.0.weight f4 [2, 64]
0.09376418 -0.35896352 -0.27670488 0.15409765 0.44592068 0.26651472 0.31293103 -0.1536922
-0.29885748 0.32959962 -0.15174201 0.21146914 -0.27907398 -0.32901484 -0.30477548 0.53353786
-0.17848256 0.13992801 -0.3402097 -0.15301758 -0.24096546 -0.40066534 -0.41767675 -0.31946823
-0.08065859 0.28387073 -0.3016252 0.32696214 0.023816926 0.12994562 0.2515691 0.12265447
-0.3576861 0.1240633 0.25439957 0.30945 0.114167616 -0.062117428 -0.2926296 0.42379716
-0.35329086 -0.36000225 0.07369123 0.15408008 0.41250888 0.30564228 -0.40998572 -0.36926103
0.27636212 0.21181609 -0.22451906 0.0913608 0.23048055 -0.18295193 0.3387669 0.23520699
-0.25686103 -0.12873927 0.27147505 -0.6021594 -0.19921711 0.3071035 -0.111561716 -0.20724301
-0.090534344 0.3586644 0.31469047 -0.16207959 -0.44009683 -0.2771812 -0.31877238 0.14976355
0.28967628 -0.34351182 0.13036102 -0.22367868 0.25151947 0.32196784 0.29540655 -0.5459552
0.18261613 -0.14273591 0.33162138 0.15157093 0.20370406 0.38432935 0.4190586 0.34089008
0.11529854 -0.30292872 0.35086912 -0.3274235 -0.041740987 -0.15190315 -0.26129964 -0.10428484
0.36412883 -0.1332012 -0.26460442 -0.29375902 -0.12130262 0.06490465 0.29143602 -0.4008368
0.34988114 0.35975122 -0.08344608 -0.1630126 -0.43051463 -0.2727462 0.4387209 0.37666062
-0.2731505 -0.21438023 0.22636107 -0.09334559 -0.22491969 0.19397235 -0.3313251 -0.23363453
0.2899771 0.11088794 -0.2986787 0.5724517 0.20774005 -0.2992171 0.11575347 0.22945832
00000000: 6f07 c03d 11ca b7be 43ac 8dbe c6cb 1d3e
00000010: b74f e43e 9e74 883e 7f38 a03e 7d61 1dbe
00000020: d903 99be 48c1 a83e 4262 1bbe 5e8b 583e
00000030: c9e2 8ebe a274 a8be 880b 9cbe f095 083f
00000040: 22c4 36be 4a49 0f3e f72f aebe a4b0 1cbe
00000050: a6bf 76be 0224 cdbe bad9 d5be 5791 a3be
00000060: 5530 a5bd 8157 913e 9e6e 9abe 9567 a73e
00000070: b71b c33c 7710 053e aacd 803e 4432 fb3d
00000080: a222 b7be e614 fe3d a940 823e 3b70 9e3e
00000090: b6d0 e93d d86e 7ebd 8cd3 95be f1fb d83e
000000a0: 8ae2 b4be 3752 b8be 6deb 963d 2bc7 1d3e
000000b0: 5d34 d33e 257d 9c3e a6e9 d1be c80f bdbe
000000c0: 567f 8d3e 51e6 583e 53e8 65be 5f1b bb3d
000000d0: 1803 6c3e c057 3bbe db72 ad3e 1ada 703e
000000e0: 4a83 83be 3ad4 03be c7fe 8a3e 1e27 1abf
000000f0: 92ff 4bbe ac3c 9d3e 787a e4bd 8337 54be
00000100: 126a b9bd dca2 b73e 1c1f a13e 31f8 25be
00000110: 5f54 e1be b2ea 8dbe 2236 a3be 9e5b 193e
00000120: 7350 943e c8e0 afbe 5c7d 053e 060c 65be
00000130: 29c7 803e f8d8 a43e 873f 973e b8c3 0bbf
00000140: b9ff 3a3e 5d29 12be 47ca a93e 6935 1b3e
00000150: cc97 503e d1c6 c43e d98e d63e 2589 ae3e
00000160: a421 ec3d 7919 9bbe 1ea5 b33e 0ea4 a7be
00000170: 99f8 2abd 808c 1bbe 11c9 85be 4a93 d5bd
00000180: 186f ba3e e565 08be 3b7a 87be 9567 96be
00000190: 826d f8bd bbec 843d 1a37 953e 7b3a cdbe
000001a0: 9f23 b33e 5031 b83e c7e5 aabd c6ec 26be
000001b0: 6a6c dcbe 64a5 8bbe 07a0 e03e a9d9 c03e
000001c0: 62da 8bbe 7e86 5bbe 32cb 673e f92b bfbd
000001d0: 5951 66be b0a0 463e 72a3 a9be e43d 6fbe
000001e0: e177 943e 3719 e33d 6aec 98be 328c 123f
000001f0: cfb9 543e fc32 99be 2810 ed3d 1ff7 6a3e

action_model._discrete_distribution.branches.0.bias f4 [2]
-0.06422061 0.06424074
00000000: 1886 83bd a690 833d

98 f4 [1, 256, 64]
0.20633769 0.21791875 0.23543313 0.12935878 -0.095009066 0.027344894 -0.019285705 0.3806499
0.024510998 0.2275736 0.1415364 -0.017631523 -0.017997272 0.31258094 -0.089483365 0.14497308
0.029278388 -0.34474868 0.19846395 0.19874263 0.20796646 -0.042749945 -0.38772717 -0.13184951
-0.07090847 0.42346796 0.18575698 -0.0054849912 -0.023140246 0.24402049 -0.0019486813 0.15185459
0.21183106 -0.13137458 -0.09149537 -0.038170155 0.1847003 0.34005594 0.242923 -0.0553094
0.29752094 -0.26040402 0.0055435114 -0.15582405 -0.058590047 -0.10986047 0.4220724 0.17355585
0.2808731 -1.214153e-06 -0.07328484 -0.09093009 0.0052509285 0.044522546 -0.08036618 0.19048735
0.29621282 -0.082263835 -0.059333585 0.15688604 -0.3126718 0.03602613 0.14185171 -0.33063897
-0.2021856 -0.109416336 0.21448779 -0.18591677 0.26337072 0.031685118 -0.058165856 -0.008157058
-0.040458642 -0.20991664 0.24623068 0.34943053 0.09175615 0.04428361 0.12939514 -0.006103269
-0.18602116 -0.05257886 0.28523454 0.07994137 0.39492267 0.18128917 0.24270245 0.2919906
-0.03818588 -0.1832181 0.22272803 -0.067996345 0.21625619 0.15800427 -0.054791447 0.15814437
0.07112578 -0.17993386 0.13003163 0.02226854 -0.10573785 0.067143716 0.15137613 0.14172255
0.13168545 0.198891 -0.16416739 0.27733216 0.042790044 -0.13619769 0.024713479 -0.04777626
0.21785223 -0.023615591 -0.0833039 0.05647027 -0.1113202 -0.2933735 0.12875102 0.08720367
-0.090214856 0.118250884 -0.2427513 0.029340308 0.10950976 -0.051077634 0.16024272 0.063250415
-0.033109173 0.06925904 -0.03793993 0.16952273 -0.15981866 -0.11857501 0.024380313 0.03351151
0.25126728 -0.0584572 -0.016118981 -0.15631512 -0.30609474 0.13168502 -0.026792925 0.18058938
0.07780105 -0.015161481 0.03697445 0.039143078 0.06754205 -0.2925052 -0.00928485 0.051997058
-0.120546885 0.07139369 0.112612516 -0.17308207 -0.20087105 -0.025111193 -0.0862457 0.044858605
-0.0072497185 0.018824907 -0.14369936 0.18376613 0.29279366 0.19645324 0.139248 0.12153783
0.109627225 -0.07320312 -0.1880901 -0.10837029 -0.05618829 -0.023903383 0.03377002 0.073376544
0.004188947 -0.006091518 -0.22749789 0.008971311 0.15978466 0.07641563 -0.20128295 0.06834054
0.00265678 -0.14849268 -0.28130588 0.13971512 0.002350935 -0.11204252 0.15028104 -0.14207637
0.14144892 0.070030935 0.051262215 -0.29029343 0.18411447 0.053460285 0.102235995 -0.07518918
0.18723221 -0.081846185 0.24196322 -0.14778195 -0.124858074 0.1439108 0.20313087 -0.18639679
-0.005245146 0.27272588 0.083285786 0.14402476 0.14326811 -0.14736184 -0.12038808 0.013008541
-0.017678782 0.08797991 -0.14323688 -0.118692145 -0.16136548 0.024706904 -0.075178795 0.22215839
0.09404893 0.01584146 0.002418205 -0.17387831 -0.052706826 0.014467837 0.10411907 0.017800173
0.20454477 -0.19403929 -0.07210906 0.12430232 0.113140754 0.13847837 0.15706472 0.11605219
0.07597569 0.1830812 -0.14815103 -0.007649177 0.030347433 0.04720364 -0.038623914 0.2232816
0.048434667 0.18503876 0.008567291 -0.02777765 0.049832877 0.06299947 -0.059352115 -0.19228162
00000000: 304a 533e 1826 5f3e 6215 713e a176 043e
00000010: 1d94 c2bd 6602 e03c 0efd 9dbc 8be4 c23e
00000020: 4acb c83c 0e09 693e ebee 103e fc6f 90bc
00000030: 046f 93bc 9c0a a03e 0e43 b7bd d373 143e
00000040: 3bd9 ef3c e682 b0be 223a 4b3e 3083 4b3e
00000050: 29f5 543e 911a 2fbd 2d84 c6be 8f03 07be
00000060: 7638 91bd cbd0 d83e 1437 3e3e 71bb b3bb
00000070: 9d90 bdbc 82e0 793e e56a ffba c57f 1b3e
00000080: 3eea 583e 0f87 06be ed61 bbbd 4f58 1cbd
00000090: 1322 3d3e d01b ae3e cfc0 783e 1c8c 62bd
000000a0: aa54 983e ad53 85be 58a6 b53b 5790 1fbe
000000b0: 1efc 6fbd 87fe e0bd e019 d83e a0b8 313e
000000c0: 99ce 8f3e fbf5 a2b5 5d16 96bd 8e39 babd
000000d0: fb0f ac3b 465d 363d 0697 a4bd 1e0f 433e
000000e0: 35a9 973e f179 a8bd c607 73bd bca6 203e
000000f0: 8516 a0be 2390 133d 9341 113e 8349 a9be
00000100: be09 4fbe ac15 e0bd b0a2 5b3e f760 3ebe
00000110: 87d8 863e 41c8 013d 523f 6ebd 2ea5 05bc
00000120: f6b7 25bd 63f4 56be e523 7c3e 8fe8 b23e
00000130: a6ea bb3d bb62 353d 2980 043e eefd c7bb
00000140: 557c 3ebe ee5c 57bd 430a 923e 4db8 a33d
00000150: 4e33 ca3e dea3 393e fe86 783e cb7f 953e
00000160: cc68 1cbd 879d 3bbe d112 643e ab41 8bbd
00000170: 4372 5d3e dfcb 213e ff6c 60bd 99f0 213e
00000180: 65aa 913d 9540 38be 0327 053e 836c b63c
00000190: 168d d8bd a582 893d 5802 1b3e b71f 113e
000001a0: 8dd8 063e 15aa 4b3e 7f1b 28be 7bfe 8d3e
000001b0: 9d44 2f3d 6877 0bbe ec73 ca3c 0ab1 43bd
000001c0: a814 5f3e 7c75 c1bc 3c9b aabd 5f4d 673d
000001d0: d8fb e3bd 0d35 96be 4fd7 033e d697 b23d
000001e0: 91c2 b8bd 852d f23d cc93 78be 165b f03c
000001f0: a746 e03d c836 51bd ab16 243e 6f89 813d
00000200: 7c9d 07bd afd7 8d3d e666 1bbd 5e97 2d3e
00000210: 81a7 23be 74d7 f2bd 39b9 c73c 5d43 093d
00000220: 1ba6 803e d170 6fbd f40b 84bc 1211 20be
00000230: 73b8 9cbe 70d8 063e d67c dbbc 6cec 383e
00000240: 2856 9f3d dc67 78bc 8572 173d 7e54 203d
00000250: 7c53 8a3d 3ec3 95be 7c1f 18bc defa 543d
00000260: 49e1 f6bd db36 923d 64a1 e63d 6d3c 31be
00000270: 24b1 4dbe fdb5 cdbc 96a1 b0bd a8bd 373d
00000280: 0c8f edbb b136 9a3c ed25 13be 302d 3c3e
00000290: 0de9 953e 0a2b 493e 0797 0e3e d3e8 f83d
000002a0: 3d84 e03d 84eb 95bd b19a 40be 3ef1 ddbd
000002b0: b125 66bd 07d1 c3bc 6f52 0a3d 7146 963d
000002c0: 6f43 893b 5b9b c7bb 35f5 68be 68fc 123c
000002d0: 979e 233e cc7f 9c3d 1e1d 4ebe 20f6 8b3d
000002e0: 5f1d 2e3b 770e 18be 5307 90be 7b11 0f3e
000002f0: 2512 1a3b 8c76 e5bd 46e3 193e 787c 11be
00000300: fcd7 103e 616c 8f3d 54f8 513d 57a1 94be
00000310: 8188 3c3e 2cf9 5a3d 1b61 d13d c9fc 99bd
00000320: cdb9 3f3e f99e a7bd 35c5 773e 2754 17be
00000330: 97b5 ffbd 5a5d 133e 8a01 503e cdde 3ebe
00000340: 79df abbb baa2 8b3e bd91 aa3d 3a7b 133e
00000350: e0b4 123e 06e6 16be 078e f6bd c721 553c
00000360: 18d3 90bc d02e b43d b0ac 12be de14 f3bd
00000370: fe3c 25be 2266 ca3c 57f7 99bd 7d7d 633e
00000380: ba9c c03d f3c5 813c bf7a 1e3b 280d 32be
00000390: 1de3 57bd 820a 6d3c 613c d53d abd1 913c
000003a0: 2f74 513e 3cb2 46be eaad 93bd 3792 fe3d
000003b0: 57b6 e73d 46cd 0d3e 93d5 203e c5ac ed3d
000003c0: 2499 9b3d a379 3b3e e7b4 17be f3a5 fabb
000003d0: 2e9b f83c 9b58 413d 1c34 1ebd efa3 643e
000003e0: 6e63 463d cd7a 3d3e d35d 0c3c f48d e3bc
000003f0: 8f1d 4c3d de05 813d 341b 73bd 79e5 44be

99 f4 [1, 256, 64]
-0.08814211 0.031464327 0.010944182 0.16924256 0.11753179 0.05669994 0.07964936 0.17072752
-0.18836522 -0.22569273 0.013102608 -0.17537312 -0.052851357 0.27091208 0.20762049 -0.061841484
-0.022528995 -0.4700548 0.15286565 0.0654984 -0.0074960236 0.08862932 0.15763539 0.022087488
-0.06177556 -0.014923973 0.183715 0.0799961 0.091003455 0.32869905 0.0989063 0.04564955
0.2483871 -0.01975905 -0.14047866 0.03098543 -0.07268745 -0.043471895 0.15064628 -0.058745172
-0.15672837 -0.19507453 0.18828313 0.03043106 -0.11333516 0.10066085 -0.122308776 -0.16090839
0.22735353 0.027764415 0.12042339 0.2531333 -0.10197776 0.070138626 0.10967089 0.0021616386
0.20469743 -0.1050579 -0.10265003 0.07244626 0.1587836 0.14674802 -0.2772873 0.094369926
0.34857625 -0.12714711 -0.02514253 0.06731768 -0.32237223 -0.30848572 -0.08353526 0.18424498
0.020469971 0.13902292 -0.21891037 0.041369434 -0.14218877 -0.2053765 0.14652342 -0.47372353
0.09408097 0.059375156 0.1559339 0.32972932 0.1513052 0.13959348 0.49164972 -0.15736644
-0.05054415 0.12749974 -0.038629107 -0.265297 -0.1331755 -0.13014774 0.027309828 -0.06634846
0.15864782 0.2905964 -0.20041744 0.15447083 0.24815023 0.048716962 -0.07386401 -0.19561285
0.49994808 0.21041776 -0.1931534 -0.21802959 -0.28759745 -0.02695396 0.48120573 0.3736329
0.13584702 -0.05703012 -0.031108469 -0.06659883 -0.014946195 0.036638267 0.09929481 0.15952556
0.22023632 -0.15770498 -0.024541548 0.5447058 -0.11309581 -0.102126785 -0.042195156 0.30054268
-0.3715644 -0.1128978 0.14024118 0.1073943 0.0994623 -0.18708012 0.13560486 -0.090436004
0.011653382 0.040864404 -0.29234225 -0.060126327 0.12937532 0.0004975927 -0.21588051 0.054179665
0.10910362 -0.7040795 -0.072986096 0.024284964 -0.025159221 -0.16934621 0.22735241 -0.04571833
0.09498646 -0.024820581 -0.031132763 -0.005225075 0.090426624 0.2482005 -0.07247798 0.23289114
-0.22010264 0.2950122 -0.11747994 -0.0044707125 0.052260857 -0.03059109 0.009723228 0.010612076
-0.10335631 0.21688558 0.22361982 -0.10962818 0.04694747 -0.0543589 -0.09753496 0.28173572
-0.17946316 0.0058050347 0.025408207 0.08955836 -0.009769785 0.062771805 -0.15521036 -0.0045494447
-0.013667367 -0.10479734 0.18399596 0.12491952 -0.15198074 0.07148255 -0.12873161 0.15152194
-0.023809496 -0.05903415 -0.026200978 -0.090915225 -0.033700313 -0.02259785 -0.053231418 -0.09905807
-0.085403405 0.20584446 -0.10512143 0.23113565 -0.024169229 0.07259863 -0.11298347 0.05806669
0.07419308 0.18280484 -0.12640603 -0.011951231 -0.06396315 -0.16197339 0.047497217 0.12928958
-0.27696195 -0.07888921 -0.1062541 -0.122640915 0.24785453 0.18862508 0.06421288 0.21095029
-0.08079201 0.08917586 -0.114275895 0.053454023 0.22325696 0.034152515 -0.12355604 -0.11773257
0.03533821 -0.10238687 0.1487395 -0.22186501 0.03398072 0.06066391 -0.056668546 -0.1645903
0.1309101 -0.17925073 -0.110951 0.00447865 -0.05678598 0.1147097 -0.073519506 0.048584
-0.17596698 0.06653731 0.15383896 -0.11770289 -0.2573557 -0.17252846 -0.11663026 0.10837434
00000000: da83 b4bd bde0 003d 3a4f 333c ec4d 2d3e
00000010: 82b4 f03d 323e 683d 341f a33d 32d3 2e3e
00000020: d0e2 40be ff1b 67be 52ac 563c 0395 33be
00000030: aa7a 58bd fdb4 8a3e 779a 543e 7f4d 7dbd
00000040: ba8e b8bc 06ab f0be d088 1c3e 0624 863d
00000050: 34a1 f5bb 4a83 b53d 2c6b 213e d2f0 b43c
00000060: 5f08 7dbd ae83 74bc c91f 3c3e ffd4 a33d
00000070: 0560 ba3d 3e4b a83e 638f ca3d 06fb 3a3d
00000080: 3059 7e3e bbdd a1bc a3d9 0fbe 28d5 fd3c
00000090: 28dd 94bd 960f 32bd 0543 1a3e c79e 70bd
000000a0: 677d 20be 9ec1 47be 4bcd 403e 8f4a f93c
000000b0: 441c e8bd 4727 ce3d 067d fabd 2bc5 24be
000000c0: 5dcf 683e 3372 e33c 8aa0 f63d b09a 813e
000000d0: b7d9 d0bd d7a4 8f3d 229b e03d 47aa 0d3b
000000e0: 349c 513e 9928 d7bd 2e3a d2bd b45e 943d
000000f0: 2b98 223e 1d45 163e 9af8 8dbe 0545 c13d
00000100: 9678 b23e da32 02be b5f7 cdbc dadd 893d
00000110: f90d a5be d7f1 9dbe 8914 abbd b7aa 3c3e
00000120: a4b0 a73c 065c 0e3e 0a2a 60be ff72 293d
00000130: ef99 11be 384e 52be 3c0a 163e e48b f2be
00000140: 86ad c03d 5d33 733d 23ad 1f3e 48d2 a83e
00000150: c0ef 1a3e 98f1 0e3e 83b9 fb3e ab24 21be
00000160: 6207 4fbd 4b8f 023e 8e39 1ebd 02d5 87be
00000170: 295f 08be 7345 05be dcb8 df3c b4e1 87bd
00000180: 9374 223e 0dc9 943e 3b3a 4dbe 9a2d 1e3e
00000190: 181b 7e3e 708b 473d 0446 97bd bc4e 48be
000001a0: 32f9 ff3e c177 573e 01ca 45be 2643 5fbe
000001b0: f93f 93be 8dce dcbc 9960 f63e d04c bf3e
000001c0: 7b1b 0b3e 6a98 69bd 30d7 febc f864 88bd
000001d0: e3e0 74bc 0212 163d 145b cb3d ab5a 233e
000001e0: a185 613e 6a7d 21be 5b0b c9bc d771 0b3f
000001f0: c79e e7bd d927 d1bd d4d4 2cbd bbe0 993e
00000200: b03d bebe f636 e7bd 629b 0f3e 8bf1 db3d
00000210: e4b2 cb3d ee91 3fbe 00dc 0a3e 8336 b9bd
00000220: d4ed 3e3c 6f61 273d e2ad 95be 0647 76bd
00000230: f77a 043e e170 023a c80f 5dbe 7feb 5d3d
00000240: b871 df3d 8e3e 34bf bc79 95bd 43f1 c63c
00000250: b61a cebc 1869 2dbe 12cf 683e 2543 3bbd
00000260: 4388 c23d 8854 cbbc 230a ffbc 1b37 abbb
00000270: 9831 b93d 4628 7e3e 566f 94bd 047b 6e3e
00000280: 9662 61be d70b 973e 5399 f0bd 0e7f 92bb
00000290: 7b0f 563d 2a9a fabc 2d4e 1f3c 46de 2d3c
000002a0: 79ac d3bd 4117 5e3e 98fc 643e bd84 e0bd
000002b0: fe4b 403d 70a7 5ebd 69c0 c7bd aa3f 903e
000002c0: 31c5 37be 2938 be3b df24 d03c 606a b73d
000002d0: 7311 20bc 818e 803d 77ef 1ebe 8213 95bb
000002e0: 18ed 5fbc fd9f d6bd 7069 3c3e ced5 ff3d
000002f0: d7a0 1bbe 7165 923d 38d2 03be 9128 1b3e
00000300: 220c c3bc cbcd 71bd 6fa3 d6bc c331 babd
00000310: 5709 0abd 201f b9bc 3009 5abd f5de cabd
00000320: fbe7 aebd e4c8 523e e749 d7bd d3ae 6c3e
00000330: 8cfe c5bc 97ae 943d e163 e7bd 56d7 6d3d
00000340: 8bf2 973d 3131 3b3e 9570 01be 19cf 43bc
00000350: 1dff 82bd 5adc 25be 718c 423d 7d64 043e
00000360: f5cd 8dbe ab90 a1bd c09b d9bd 292b fbbd
00000370: 94cd 7d3e ef26 413e 0b82 833d 5a03 583e
00000380: 4876 a5bd d5a1 b63d 7b09 eabd 9bf2 5a3d
00000390: 799d 643e 82e3 0b3d f30a fdbd c61d f1bd
000003a0: cdbe 103d 35b0 d1bd 2b4f 183e 9530 63be
000003b0: 5e2f 0b3d b87a 783d 471d 68bd 5c8a 28be
000003c0: 4c0d 063e 818d 37be 473a e3bd a4c1 923b
000003d0: 6a98 68bd ebec ea3d 6591 96bd 0400 473d
000003e0: b030 34be b744 883d f687 1d3e 360e f1bd
000003f0: 20c4 83be 4dab 30be d9db eebd 5ef3 dd3d

100 f4 [1, 512]
-0.04312386 0.13502297 0.04652918 0.054702714 0.018784028 -0.05548694 0.16528171 -0.055301096
0.00030892834 0.045697395 0.040153876 0.003191029 0.012420349 -0.13417548 -0.075665906 0.35551715
0.05318575 -0.028279949 0.023823565 -0.08028606 0.033719633 0.093643084 0.42865175 0.05436487
0.009900317 -0.17156391 0.0018288111 0.057245184 0.06347919 0.03668285 0.013057662 0.19182447
0.01623366 0.074117884 0.0124396505 -0.2935966 0.015889477 -0.021191746 0.06739169 0.4761944
0.37338468 -0.06895178 0.018441249 0.06568072 -0.019474823 0.03071506 0.31279403 -0.046803888
-0.03630032 0.07863866 0.13123617 0.07667717 0.1320493 -0.02582841 -0.04763457 0.16282101
0.1931341 0.13771938 -0.24304657 0.4043933 0.010738774 0.016362106 0.09132146 0.0762217
-0.3452985 0.14203438 0.32071513 -0.08163527 0.019047676 0.025614716 0.17605272 -0.1189837
-0.069934584 0.009396682 0.21798934 -0.14004599 -0.03875614 -0.041282017 0.010459221 0.37623394
-0.21251942 0.27189726 0.008533824 0.052227866 0.01690586 0.051288936 0.12977934 -0.021914653
0.18997578 0.13089858 -0.01871878 0.039347257 -0.06088818 -0.11286941 -0.028701583 -0.07034117
-0.003687992 0.15594998 -0.013119437 -0.15625946 0.18797494 -0.16194093 -0.12455381 0.13955407
0.3483752 0.17498256 -0.0686791 0.09766205 0.085350625 -0.006573133 0.31079757 0.22464582
0.012509303 0.18591622 0.1970419 -0.08131864 -0.273616 -0.23745537 0.008221179 0.012903607
0.011208833 -0.010130366 -0.05138059 0.2036401 0.15770079 0.07111987 0.00042940464 0.017920414
0.92869556 0.97842836 1.093126 1.0953257 0.9750134 0.9661414 1.0687578 1.0983665
1.0472193 1.0153439 1.0795047 1.0571566 1.0532635 0.8671324 0.95456755 0.9851982
1.0194422 1.0771347 1.0550071 0.94023 1.0748583 0.98967487 0.96998876 0.98154235
1.0449022 0.8663317 1.0448036 1.0278071 1.0651217 1.0704101 1.0584925 1.0451
1.0745362 1.0730523 1.0783263 0.9225704 1.0488268 1.0614104 1.0347773 0.94851524
0.98603433 1.1676193 1.0600338 1.0050765 1.0593944 1.0627154 0.9666908 1.100853
1.1879543 0.98303235 0.9931589 1.0544938 1.0125728 1.0770379 1.0056976 0.9916888
1.0632167 1.0693301 0.94952583 0.942682 1.0344102 1.0166171 1.0438099 1.0343877
0.059404913 0.28175497 0.12916826 0.032890342 0.020988783 -0.030197991 -0.059919503 -0.011222067
-0.044290435 0.044680893 0.023067337 0.015953202 -0.0075030033 -0.15400039 0.01558659 0.04925202
-0.02934126 -0.16779189 -0.063793376 -0.028114062 -0.1666249 -0.05205552 -0.049368188 -0.06260075
0.004546509 0.013957629 -0.03748636 -0.002068977 -0.013622561 -0.026266929 0.02132285 0.0061883046
-0.04453419 -0.037545692 0.021123765 -0.056338027 -0.040338874 0.04742319 -0.023090346 0.018152213
-0.014292556 0.10246929 -0.030022439 0.0024443103 0.027680378 0.044665694 0.043961328 0.15250614
0.020291312 0.035894107 0.12616295 0.027079271 0.025522646 -0.019508341 0.059591707 0.009633055
-0.04531876 -0.11223388 0.037123214 0.05622489 0.009978458 0.008173167 -0.017726598 -0.03735804
00000000: a5a2 30bd 7643 0a3e 6295 3e3d f40f 603d
00000010: f6e0 993c 4646 63bd 9c3f 293e 6783 62bd
00000020: a9f7 a139 312d 3b3d 6478 243d 9520 513b
00000030: b87e 4b3c 4c65 09be baf6 9abd 5806 b63e
00000040: 4dd9 593d 5aab e7bc a329 c33c 056d a4bd
00000050: 991d 0a3d f2c7 bf3d 3e78 db3e b3ad 5e3d
00000060: f034 223c 73ae 2fbe b8b4 ef3a ed79 6a3d
00000070: 6101 823d c240 163d ceef 553c a26d 443e
00000080: 74fc 843c 1ecb 973d adcf 4b3c 4b52 96be
00000090: a62a 823c 509a adbc a804 8a3d c1cf f33e
000000a0: 472c bf3e 9736 8dbd 1a12 973c 9d83 863d
000000b0: aa89 9fbc 269e fb3c 8a26 a03e 6fb5 3fbd
000000c0: a5af 14bd 4e0d a13d c662 063e ec08 9d3d
000000d0: ef37 073e 1a96 d3bc 781c 43bd 8dba 263e
000000e0: f2c4 453e 4f06 0d3e 33e1 78be a30c cf3e
000000f0: aff1 2f3c d309 863c bf06 bb3d 1f1a 9c3d
00000100: f7ca b0be 7671 113e c634 a43e 6430 a7bd
00000110: df09 9c3c f4d5 d13c 2a47 343e baad f3bd
00000120: dd39 8fbd 8af4 193c 9938 5f3e 3768 0fbe
00000130: c2be 1ebd 5517 29bd 275d 2b3c bca1 c03e
00000140: b19e 59be 1e36 8b3e 74d1 0b3c e3ec 553d
00000150: 287e 8a3c 5914 523d e0e4 043e 5c86 b3bc
00000160: 0389 423e 470a 063e 2058 99bc 972a 213d
00000170: e265 79bd 1428 e7bd 951f ebbc 080f 90bd
00000180: 3db2 71bb 5ab1 1f3e e8f2 56bc 7b02 20be
00000190: 817c 403e d8d3 25be 1116 ffbd 43e7 0e3e
000001a0: 3c5e b23e a12e 333e a1a7 8cbd 0a03 c83d
000001b0: 4fcc ae3d 7063 d7bb dc20 9f3e 8e09 663e
000001c0: d2f3 4c3c d260 3e3e 5ac5 493e 638a a6bd
000001d0: 6517 8cbe 8027 73be 20b2 063c a769 533c
000001e0: 41a5 373c d6f9 25bc 7474 52bd 0887 503e
000001f0: 517c 213e 4ba7 913d b721 e139 d5cd 923c
00000200: febe 6d3f 487a 7a3f 8eeb 8b3f a233 8c3f
00000210: 7a9a 793f 0b55 773f 0ecd 883f 4697 8c3f
00000220: 480b 863f caf6 813f 362d 8a3f e850 873f
00000230: 57d1 863f 64fc 5d3f 8a5e 743f f335 7c3f
00000240: 157d 823f 8ddf 893f 790a 873f eab2 703f
00000250: f594 893f 555b 7d3f 2f51 783f 5c46 7b3f
00000260: 5bbf 853f eac7 5d3f 20bc 853f 2f8f 833f
00000270: e855 883f 3303 893f af7c 873f d6c5 853f
00000280: 678a 893f c759 893f 9906 8a3f 932d 6c3f
00000290: f53f 863f 4cdc 873f 9573 843f e5d1 723f
000002a0: bf6c 7c3f 8d74 953f 30af 873f 59a6 803f
000002b0: 3c9a 873f 0f07 883f 0c79 773f c0e8 8c3f
000002c0: e30e 983f 02a8 7b3f a93f 7e3f a7f9 863f
000002d0: fc9b 813f 61dc 893f b3ba 803f 51df 7d3f
000002e0: 7c17 883f cfdf 883f 2014 733f 9c53 713f
000002f0: 8e67 843f 8220 823f 909b 853f d166 843f
00000300: 9152 733d 3042 903e af44 043e 06b8 063d
00000310: abf0 ab3c c761 f7bc 276e 75bd c3dc 37bc
00000320: e369 35bd 5003 373d b6f7 bc3c 4ab0 823c
00000330: c1db f5bb 47b2 1dbe e65e 7f3c 7cbc 493d
00000340: 155d f0bc a3d1 2bbe 1aa6 82bd 764f e6bc
00000350: b89f 2abe 2b38 55bd 4c36 4abd d234 80bd
00000360: e2fa 943b 8aae 643c 4c8b 19bd ad97 07bb
00000370: 2931 5fbc be2d d7bc 42ad ae3c 43c7 ca3b
00000380: 7c69 36bd 83c9 19bd bf0b ad3c b4c2 66bd
00000390: 603a 25bd d23e 423d f727 bdbc f3b3 943c
000003a0: 532b 6abc 6bdb d13d 9ef1 f5bc b930 203b
000003b0: f6c1 e23c 60f3 363d cb10 343d 922a 1c3e
000003c0: f739 a63c b305 133d dc30 013e 59d5 dd3c
000003d0: de14 d13c f5cf 9fbc 6f16 743d f6d3 1d3c
000003e0: 2aa0 39bd e0da e5bd 830e 183d 124c 663d
000003f0: b07c 233c bfe8 053c 5f37 91bc bf04 19bd
