results/Test6/Jumper/Jumper-10999939.pt (torch, 927964 bytes, 57 tensors)

network_body._body_endoder.seq_layers.0.weight f4 [64, 3]
0	0xbf2e3263	-0.68045634
1	0x3ef28e4c	0.4737419
2	0x3f0c4f0b	0.5480811
3	0x3f0c8dcc	0.54903865
4	0xbf4cb0df	-0.79957384
5	0xbf715f4b	-0.9428603
6	0x3e9d7482	0.3075295
7	0xbf145782	-0.57946026
8	0x3f8b5e99	1.0888244
9	0xbe69182d	-0.22763129
10	0xbd5cdb51	-0.053920094
11	0xbf0a6734	-0.54063725
12	0x3f1d15f5	0.6136163
13	0x3fa4422a	1.2832692
14	0xbeb79783	-0.35857782
15	0x3e2dbd37	0.16966711
16	0xbe603973	-0.21896915
17	0xbe8de04d	-0.2771019
18	0xbeb5d24a	-0.35512
19	0xbead6ad0	-0.33870554
20	0x3eccf7c5	0.40032783
21	0x3e4e78fd	0.20163341
22	0xbf9766ce	-1.1828249
23	0xbf107a67	-0.5643677
24	0x3ebded76	0.3709523
25	0x3f109ee3	0.5649244
26	0xbe297984	-0.16550261
27	0x3e496ef3	0.1967123
28	0xbf1e75bd	-0.61898404
29	0xbdd422be	-0.10358189
30	0xbeb43188	-0.3519404
31	0x3c729b18	0.014807485
32	0x3f0f8018	0.5605483
33	0x3f0f2818	0.55920553
34	0x3f000c38	0.50018644
35	0x3e842b68	0.25814366
36	0x3e143559	0.14473476
37	0x3f619ca9	0.8812967
38	0xbf157be4	-0.5839217
39	0x3f74163f	0.95346445
40	0xbbcf097d	-0.0063182698
41	0xbea3351f	-0.31876466
42	0xbe259ced	-0.16173144
43	0xbe83fc00	-0.25778198
44	0x3f535a75	0.825599
45	0xbe2c4d6d	-0.1682641
46	0xbfa39726	-1.2780502
47	0x3ef1c3f8	0.47219825
48	0xbe2508d8	-0.16116655
49	0xbe09653a	-0.13417521
50	0xbf314b35	-0.6925538
51	0xbe0ff956	-0.14059958
52	0xbf56a5c0	-0.83846664
53	0x3d27a4fe	0.040928833
54	0xbd2bc1bf	-0.041932818
55	0x3db6334f	0.08896505
56	0xbead3f69	-0.3383744
57	0x3f090553	0.5352375
58	0x3dd57b02	0.104238525
59	0x3f457beb	0.7714221
60	0xbe9f45ce	-0.31107944
61	0x3f0f3fa0	0.5595646
62	0x3f8de5b4	1.1085725
63	0x3ee4bc6f	0.44675013
64	0xbef9ddf1	-0.4880214
65	0xbe981ee5	-0.2971107
66	0xbd532075	-0.051544625
67	0xbeb246be	-0.34819597
68	0xbee9586d	-0.45575276
69	0xbee3338b	-0.44375262
70	0x3ec121ca	0.37721092
71	0xbdb185a9	-0.08668072
72	0x3c838a58	0.016057178
73	0xbe497ccc	-0.19676512
74	0xbf888a9b	-1.0667299
75	0xbf3ef24d	-0.7458847
76	0xbd90e676	-0.07075207
77	0x3f4b31ad	0.79372674
78	0xbedcf5e0	-0.43156338
79	0xbdb56154	-0.088564545
80	0x3e9c657b	0.30546173
81	0x3e058138	0.13037574
82	0xbe25dcc5	-0.16197498
83	0x3f0dfdd9	0.55465466
84	0x3daf9611	0.08573545
85	0x3f446724	0.7671988
86	0xbea01e3f	-0.31273076
87	0x3e705824	0.23471123
88	0xbd91e570	-0.0712384
89	0xbf63d237	-0.8899264
90	0xbf5a9216	-0.8537916
91	0xbe3abc6e	-0.18235943
92	0x3eaae81d	0.33380213
93	0x3e55b1b0	0.20868564
94	0x3e8f1002	0.279419
95	0xbf05842c	-0.52154803
96	0x3d4e0250	0.050295174
97	0x3e4a27be	0.19741723
98	0xbf985754	-1.190165
99	0xbe30ebba	-0.17277423
100	0x3e945af9	0.28975657
101	0x3e9a3ad1	0.30122998
102	0x3f018b59	0.5060325
103	0xbeb90b61	-0.36141494
104	0xbf63f3b5	-0.8904374
105	0x3dbe8205	0.09302143
106	0x3e377adc	0.17917961
107	0xbecc3918	-0.3988731
108	0xbd3ea038	-0.046539515
109	0x3eba6a7f	0.36409375
110	0x3ef6b7e6	0.48187178
111	0x3d2d329b	0.04228459
112	0x3aa52b93	0.0012601487
113	0x3ee0d11d	0.4390954
114	0xbeced4b2	-0.4039665
115	0xbf723b49	-0.9462171
116	0x3ede48d6	0.43414944
117	0xbe47062a	-0.19435945
118	0xbdca7d8a	-0.09887226
119	0xbdfd2714	-0.12360969
120	0xbdbfbbe7	-0.093620114
121	0x3e96ea0b	0.29475436
122	0x3f543a38	0.82901335
123	0xc002bceb	-2.0427806
124	0x3f1c856e	0.611411
125	0xbf1cbaa7	-0.6122231
126	0x3d794266	0.060854338
127	0x3e875177	0.2642934
128	0xbed9d9c0	-0.42548943
129	0x3f669d1d	0.90083486
130	0x3f66ac90	0.9010706
131	0xbf6ab245	-0.9167827
132	0xbebc89df	-0.36823937
133	0xbf0104ef	-0.50398153
134	0x3f53aa7e	0.82682025
135	0xbdecf3fe	-0.11569975
136	0xbf902394	-1.1260858
137	0xbfcabde6	-1.5839202
138	0xbe7f95b0	-0.24959445
139	0xbef7ba96	-0.4838454
140	0x3f3ccc2f	0.7374906
141	0xbd325aa9	-0.04354349
142	0x3f0debcc	0.5543792
143	0x3fb07841	1.3786699
144	0xbd9c1750	-0.07621634
145	0x3f1b5a0a	0.60684264
146	0x3ed77cf4	0.4208752
147	0xbdbd007e	-0.092286095
148	0xbe0e0122	-0.1386762
149	0x3c87df63	0.016586011
150	0xbdeb207c	-0.11480805
151	0x3f561b00	0.8363495
152	0xbf75efd7	-0.9606909
153	0xbfb8ef29	-1.4447986
154	0xbf3e2f9e	-0.7429141
155	0xbf09da03	-0.53848284
156	0xbf39f152	-0.7263385
157	0x3f87fdce	1.062433
158	0x3f832dca	1.0248349
159	0xbdf3929c	-0.11893198
160	0x3f5fbb51	0.873952
161	0x3f7caa6a	0.9869753
162	0xbf09ceb1	-0.5383101
163	0x3ee5243d	0.4475421
164	0x3f1d92cf	0.6155214
165	0x3ec1ae00	0.37828064
166	0xbe4e608e	-0.2015402
167	0x3f599dd1	0.85006434
168	0x3f0e703a	0.55639994
169	0x3f8ae455	1.0850931
170	0xbdf3b75e	-0.11900209
171	0xbf198bc2	-0.5997888
172	0x3f668765	0.90050346
173	0x3ed27e03	0.41111764
174	0x3eeb234a	0.4592536
175	0x3e944957	0.28962204
176	0x3f931ac9	1.1492549
177	0xbeb30dcd	-0.34971467
178	0xbed0a0ee	-0.4074778
179	0x3f1b46f0	0.6065512
180	0x3f2d8e67	0.67795414
181	0xbe82e440	-0.25564766
182	0xbebb1e86	-0.36546725
183	0x3f3ed4d5	0.74543506
184	0xbf6cbf94	-0.92479825
185	0xbf3279a2	-0.69716847
186	0xbf3e68e8	-0.74378824
187	0xbe24ae40	-0.16082096
188	0x3d60383b	0.054741126
189	0x3f3c682b	0.7359645
190	0x3eab46a9	0.33452347
191	0xbf9b2ab6	-1.2122409

network_body._body_endoder.seq_layers.0.bias f4 [64]
0	0x3e020284	0.12696272
1	0x3d49dfef	0.049285825
2	0xbe36db9a	-0.17857209
3	0x3e6b62c7	0.229869
4	0xbf007b4a	-0.50188124
5	0xbcc47220	-0.0239802
6	0x3e25a895	0.1617759
7	0x3d83181a	0.064010814
8	0xbea51918	-0.32245708
9	0xbdf792c9	-0.12088544
10	0x3d9352a8	0.071935
11	0xbde6d8c3	-0.11271813
12	0x3d5b0707	0.0534735
13	0xbdc3ff53	-0.095701836
14	0xbc910a0b	-0.017704984
15	0x3d624a9c	0.055246934
16	0x3e9c76a5	0.3055927
17	0x3e44fae5	0.19236334
18	0x3e471eb8	0.19445312
19	0xbda0a41b	-0.07843801
20	0x3d29e08d	0.041473914
21	0xbcf5f81c	-0.030025534
22	0x3e3a76de	0.18209407
23	0x3d558379	0.052127335
24	0x3e30740c	0.17231768
25	0x3dcd9159	0.100374885
26	0x3d697f6d	0.05700629
27	0xbe21699a	-0.1576294
28	0xbd220b96	-0.03956183
29	0x3d6c2d47	0.057660367
30	0x3d3be288	0.045870334
31	0x3c603301	0.013684035
32	0x3e35bd68	0.17748034
33	0x3c81b809	0.015834825
34	0x3d076e15	0.033063967
35	0x3d215ac4	0.0393932
36	0xbd4a904e	-0.049454026
37	0xbe3fe9a9	-0.18741478
38	0x3e156330	0.14588618
39	0x3e81dc02	0.25363165
40	0x3cd45665	0.025920102
41	0xbdad06de	-0.084485754
42	0x3d630b9a	0.055430986
43	0xbde06276	-0.1095628
44	0x3c810afe	0.015752312
45	0x3ec0630b	0.37575564
46	0x3d093357	0.033496227
47	0x3d2d9b27	0.042384293
48	0x3b297349	0.0025856069
49	0x3d90f3a4	0.07077721
50	0x3ed74123	0.42041883
51	0xbe8fe357	-0.28103134
52	0x3d9940d2	0.074830666
53	0x3cfbaf5e	0.03072327
54	0x3e0afbb9	0.13572587
55	0xbdd24ea9	-0.102689095
56	0xbebb5da1	-0.3659487
57	0x3de8d79c	0.11369249
58	0xbda40b2b	-0.080099426
59	0x3db929f3	0.09041204
60	0xbd18143b	-0.03712867
61	0x3c70ee75	0.01470529
62	0x3ea9931d	0.3312005
63	0x3d3eb44d	0.046558667

network_body._body_endoder.seq_layers.2.weight f4 [64, 64]
0	0x3e24b20c	0.16083544
1	0xbebc0bb7	-0.36727688
2	0xba4bd012	-0.00077748403
3	0xbdfe2e6e	-0.124111995
4	0x3ee0162a	0.4376691
5	0xbe002cf3	-0.12517147
6	0xbaea84e4	-0.0017892388
7	0xbdd1261e	-0.102123484
8	0x3e45d6a5	0.19320162
9	0x3c84189f	0.016125022
10	0x3eb3de70	0.35130644
11	0x3d9ce2a7	0.07660418
12	0x3e3e2c9c	0.18571705
13	0x3e14d54c	0.14534491
14	0xbca30290	-0.019898683
15	0xbeea499d	-0.45759287
16	0xbd976661	-0.07392574
17	0xbe40bfd2	-0.18823174
18	0xbdc22b01	-0.094808586
19	0xbce9929f	-0.028512297
20	0x3e9e5ecc	0.309317
21	0xbeb2ed74	-0.34946787
22	0xbde45e38	-0.11150783
23	0x3e9ad9c5	0.3024427
24	0xbe230e04	-0.15923315
25	0x3ea3793b	0.3192843
26	0x3d8ec556	0.069712326
27	0x3dbd54e8	0.0924471
28	0x3ec2f046	0.3807394
29	0xbe9f86a1	-0.311574
30	0xbe0becb7	-0.13664518
31	0xbe778c30	-0.24174571
32	0xbe7464f3	-0.23866634
33	0x3e620a36	0.22074208
34	0xbe900cba	-0.2813471
35	0x3d8e8cae	0.06960426
36	0x3e2742b4	0.16334039
37	0xbc29443d	-0.010331211
38	0xbc82a704	-0.01594878
39	0xbdde056a	-0.108408764
40	0x3e6969cb	0.22794263
41	0xbd1a50be	-0.037674658
42	0xbde95ff2	-0.11395253
43	0xbea5b195	-0.32362047
44	0x3cd02614	0.025408782
45	0xbd52a1ea	-0.051423945
46	0x3e65ccb8	0.22441375
47	0x3ebe2500	0.37137604
48	0x3e5a3ffb	0.21313469
49	0x3c88345a	0.016626526
50	0x3d388290	0.04504639
51	0xbe364986	-0.17801484
52	0x3e3f98aa	0.1871058
53	0x3e4e8ab2	0.20170096
54	0x3e27619d	0.1634583
55	0x3d384dc9	0.044996057
56	0x3d688668	0.056768805
57	0x3e927230	0.28602743
58	0x3d507696	0.050894342
59	0xbca1c533	-0.019747352
60	0xbe3dc74d	-0.18533058
61	0xbd2d3a3a	-0.042291857
62	0x3d96a419	0.07355518
63	0xbea6c682	-0.32573324
64	0xbd5e931b	-0.05433951
65	0xbe69588f	-0.22787689
66	0xbd259177	-0.04042193
67	0x3e14da9e	0.14536521
68	0x3c85327a	0.01625942
69	0x3dddc3a2	0.108283296
70	0x3c526349	0.012841054
71	0xbeb838b5	-0.35980764
72	0x3e7e55b8	0.24837387
73	0xbe0d7473	-0.13813953
74	0x3d6a06bb	0.057135325
75	0x3ce5170f	0.027965097
76	0x3df75acd	0.12077866
77	0x3dcce356	0.100042984
78	0x3eaede8e	0.3415417
79	0xbcc44aed	-0.023961509
80	0xbe1b5c72	-0.15171984
81	0x3e6ca1eb	0.23108642
82	0xbc839642	-0.01606286
83	0xbd7ecc45	-0.062206525
84	0x3ea57aa2	0.32320124
85	0xbeb1562d	-0.3463606
86	0x3c6407a4	0.013917837
87	0xbd3e6620	-0.046484113
88	0xbd69960b	-0.057027858
89	0xbc3fb885	-0.011701708
90	0x3e95d60c	0.29264867
91	0x3de52791	0.11189187
92	0x3d5d0b1c	0.053965673
93	0xbed8cbb2	-0.42342907
94	0x3d8598a4	0.065232545
95	0xbead182a	-0.33807498
96	0xbe01c935	-0.1267441
97	0x3e3121e9	0.17298092
98	0xbe98feed	-0.29881993
99	0xbed5bf02	-0.4174729
100	0x3e5a9db6	0.21349224
101	0xbe312a47	-0.17301284
102	0xbe34c644	-0.17653757
103	0xbcdaf4f5	-0.026728133
104	0x3e896e1e	0.26841825
105	0x3dd39e80	0.10332966
106	0xbd6f48ec	-0.058419153
107	0x3cb6bb5e	0.02230614
108	0x3ece61fe	0.40309137
109	0xbe853287	-0.26015112
110	0x3ef30265	0.47462764
111	0x3e2296e8	0.15877879
112	0x3dea2594	0.11432949
113	0xbd829290	-0.06375611
114	0x3eb23b45	0.34810844
115	0xbda9b436	-0.08286326
116	0x3e34df35	0.17663272
117	0x3ea300c6	0.31836528
118	0x3e963bd1	0.2934251
119	0x3c0037de	0.00782582
120	0x3d8a7ee3	0.06762483
121	0x3eb52cd9	0.3538578
122	0xbccece8e	-0.025244977
123	0x3e72c424	0.23707634
124	0xbd9bf37c	-0.076148
125	0xbb33b237	-0.0027419457
126	0x3e2f3295	0.1710914
127	0xbd73dcbc	-0.05953668
128	0xbcebe576	-0.028795939
129	0xbeb68a5a	-0.3565243
130	0x3e845ac8	0.2585051
131	0x3dd23009	0.10263068
132	0x3bf88241	0.007583887
133	0xbd37f1bc	-0.04490827
134	0x3e25415d	0.16138215
135	0xbd6e1020	-0.058120847
136	0x3dcacd08	0.09902388
137	0xbcea42d7	-0.028596325
138	0x3d097504	0.03355886
139	0x3e0b13bf	0.13581751
140	0x3e42d345	0.19025905
141	0x3e17db59	0.14829768
142	0x3e8708e3	0.26373968
143	0xbda2eab4	-0.07954922
144	0xbe88a725	-0.2669002
145	0xbcc59131	-0.024117084
146	0xbcc8f8fa	-0.024532784
147	0xbe0ddfab	-0.13854854
148	0x3d7eb35f	0.06218278
149	0x3dae5f04	0.085142165
150	0xbe67cbc8	-0.2263633
151	0xbdc081b6	-0.093997404
152	0x3c7ccf95	0.015430351
153	0x3e3fdfce	0.18737718
154	0x3e643d71	0.22289063
155	0x3dc70392	0.09717478
156	0x3e11fbea	0.14256254
157	0xbef0668c	-0.46953237
158	0x3dc05af3	0.09392347
159	0xbe31001a	-0.17285195
160	0x3e190a3e	0.14945313
161	0x3d34a743	0.044104826
162	0xbe8f234a	-0.2795661
163	0xbd975b0f	-0.07390415
164	0xbda35af2	-0.07976331
165	0xbe479f29	-0.19494309
166	0xbcc6220e	-0.02418616
167	0xbd40fbda	-0.047115184
168	0x3da88661	0.08228756
169	0x3d964819	0.0733797
170	0xbe67514d	-0.22589608
171	0xbe482780	-0.19546318
172	0x3ec1204e	0.3771996
173	0xbe0b863f	-0.1362543
174	0x3e1ce9a8	0.15323508
175	0x3d8673de	0.06565069
176	0x3e8c32ea	0.27382594
177	0xbd8e25e0	-0.06940818
178	0x3d1ad8ea	0.03780452
179	0xbc804dbe	-0.01566207
180	0xbd2f5b77	-0.042811837
181	0x3e1357c1	0.14388944
182	0x3d0cad05	0.03434469
183	0x3e12a316	0.14320025
184	0xbe1457ad	-0.1448657
185	0x3d520866	0.05127754
186	0x3e4ebbe4	0.20188862
187	0x3d01fa57	0.031732883
188	0xbe3ae9ad	-0.18253203
189	0xbe1e9e35	-0.15490039
190	0xbbf5a185	-0.0074960613
191	0xbe637939	-0.22214212
192	0x3e8e472f	0.27788684
193	0xbe98a4c2	-0.298132
194	0xbe43b43a	-0.1911172
195	0x3d60b206	0.054857276
196	0x3d93f1ca	0.07223852
197	0xbdf877f3	-0.121322535
198	0x3e28bd6c	0.16478509
199	0xbe0633c6	-0.13105687
200	0x3ddc5175	0.10757724
201	0xbe6a5f41	-0.22887899
202	0x3e80c036	0.25146645
203	0xbea5ff3a	-0.32421285
204	0xbda822a4	-0.08209732
205	0x3d0d9021	0.03456128
206	0x3f0305ae	0.5118054
207	0xbe746f27	-0.23870526
208	0xbddb0fdd	-0.10696385
209	0xbe839eca	-0.25707084
210	0xbb2331f2	-0.0024901596
211	0x3e21663a	0.15761653
212	0x3e90df79	0.28295496
213	0xbe731048	-0.2373668
214	0xbd6ef88d	-0.058342505
215	0x3e261757	0.16219841
216	0xbd42f360	-0.04759538
217	0x3e68a990	0.22720933
218	0xbdbd92b9	-0.09256501
219	0x3e60430b	0.21900575
220	0x3ec802ae	0.39064544
221	0xbf053d57	-0.5204672
222	0x3c67db32	0.014151381
223	0xbe9b9d2f	-0.3039336
224	0xbe418d71	-0.18901612
225	0x3e4987a9	0.19680656
226	0xbecd38fb	-0.40082535
227	0xbeb91018	-0.3614509
228	0x3d2634cf	0.040577706
229	0x3dd6c5dc	0.104869574
230	0xbca6a422	-0.020341936
231	0x3cdff98c	0.027340673
232	0x3f08cb48	0.5343518
233	0xbce7e308	-0.0283065
234	0xbd4f7e6a	-0.050657667
235	0xbe9714e4	-0.29508126
236	0x3e8bdabd	0.27315322
237	0xbe82ff88	-0.2558558
238	0x3e897e57	0.26854202
239	0x3e4ceebe	0.20012948
240	0x3e8c924c	0.27455366
241	0xbe6373ec	-0.2221219
242	0xbdcce066	-0.10003738
243	0x3dde9471	0.10868157
244	0x3e27af19	0.16375388
245	0x3e3a1bdd	0.18174691
246	0x3ee13352	0.43984467
247	0x3ea79c56	0.32736462
248	0xbe838453	-0.25686893
249	0x3e0a5beb	0.13511626
250	0x3e71d74a	0.23617283
251	0x3ea2fe82	0.318348
252	0x3dc2749e	0.09494899
253	0xbe53d07a	-0.20684996
254	0x3dc69493	0.09696307
255	0xbe2f57ef	-0.17123388

network_body._body_endoder.seq_layers.2.bias f4 [64]
0	0x3ca5dc78	0.02024673
1	0xbc016844	-0.007898394
2	0x3ca4d893	0.020122802
3	0x3ce30038	0.027710065
4	0x3d0a9c99	0.03384075
5	0x3d10dddb	0.035367828
6	0xbc7f44ca	-0.015580365
7	0xbc30bd98	-0.01078739
8	0x3d24df87	0.040252235
9	0x3c9ea332	0.019364927
10	0xbd37f512	-0.04491145
11	0x3ccd89a9	0.025090056
12	0x3cfba9cd	0.030720616
13	0xbd1b5cdd	-0.03793036
14	0xbd96bf38	-0.07360691
15	0x3d23edb5	0.040021617
16	0x3c396c3a	0.011317307
17	0x3cd58c05	0.026067743
18	0x3b8fae8f	0.0043848227
19	0x3d2c7262	0.04210127
20	0x3d138e06	0.036024116
21	0x3d40f0ee	0.04710477
22	0x3cad2611	0.021136316
23	0x3d209ff8	0.039215058
24	0x3d96abe8	0.07357007
25	0xbc40eda2	-0.011775406
26	0xbd921b65	-0.07134131
27	0x3c21ba2b	0.009871046
28	0x3d48b64f	0.049001988
29	0xbd4df4eb	-0.0502824
30	0xbbcc7428	-0.006239433
31	0xbd77fd24	-0.060544148
32	0x3d7424e8	0.05960551
33	0x3d3d724e	0.046251588
34	0x3c0b2f01	0.008495093
35	0x3d1ed47d	0.038776863
36	0x37f0b404	2.8694056e-05
37	0x3cfd4f0f	0.030921487
38	0x3d4081a6	0.046998642
39	0x3d5952df	0.053057548
40	0x3bb1622e	0.0054133153
41	0x3ce5b186	0.028038751
42	0x3d300f2c	0.04298322
43	0x3d500eb1	0.05079526
44	0x3cf700ec	0.030151807
45	0x3d4aaa2d	0.0494787
46	0x3b4fa9f7	0.0031687
47	0x3c5d5e8a	0.013511309
48	0x3ca32b8c	0.019918226
49	0x3cbc5c9c	0.022993378
50	0x3cb1c0b1	0.021698328
51	0xbd79a61e	-0.060949437
52	0xbc96f9a9	-0.018429594
53	0x3c86cad7	0.016454143
54	0x3d68407e	0.05670213
55	0xbc5cf3e7	-0.013485885
56	0x3d969534	0.07352677
57	0xbc5366c3	-0.012902918
58	0x3c9b917a	0.018990267
59	0xbc802204	-0.01564122
60	0x3bfff999	0.007811737
61	0xbc5f8e17	-0.013644717
62	0xbc6f3b42	-0.0146015305
63	0x3cf133a6	0.029443573

network_body.lstm.lstm.weight_ih_l0 f4 [256, 64]
0	0x3dd62c67	0.10457688
1	0x3df2c3c9	0.11853749
2	0x3e1d556c	0.15364617
3	0x3ce0e948	0.027454987
4	0x3c9b6176	0.018967371
5	0xbd697b5d	-0.057002414
6	0xbc265b7f	-0.01015365
7	0x3e96e64b	0.29472575
8	0xbdb7d4cc	-0.08976135
9	0x3e0e3385	0.1388684
10	0x3dbaea8d	0.09126768
11	0x3dd485c1	0.10377074
12	0x3dbaef92	0.09127726
13	0x3e7a86fc	0.24465555
14	0xbe38da2b	-0.18051974
15	0x3d5eb543	0.054372083
16	0xbdad4eaa	-0.084622696
17	0xbe62f667	-0.22164308
18	0x3dbd5664	0.09244993
19	0x3ddbd16b	0.10733303
20	0x3e10d103	0.14142232
21	0x3d9f79d1	0.077869065
22	0xbe8844a8	-0.2661488
23	0xbb21dbd9	-0.002469769
24	0x3d497943	0.04918791
25	0x3ebdad65	0.37046352
26	0x3e32f12d	0.17474814
27	0x3d9cfd46	0.076654956
28	0x3ddbd15c	0.107332915
29	0x3e0c5e3a	0.1370782
30	0xbdb37060	-0.08761668
31	0x3d9b73aa	0.075904205
32	0x3e435818	0.19076574
33	0xbc2ff5ea	-0.010739783
34	0x3d1621e9	0.036653433
35	0xbe07abbf	-0.1324911
36	0x3db71b3d	0.08940742
37	0x3e75b2f5	0.23994048
38	0x3e104cbb	0.1409177
39	0xbe09ff98	-0.13476408
40	0x3e4a3e76	0.1975039
41	0xbe070ee4	-0.13189274
42	0x3dff15d4	0.12455335
43	0xbce0f738	-0.027461633
44	0x3d6fa1a1	0.05850375
45	0x3bcecc0a	0.0063109444
46	0x3eb08721	0.34478095
47	0x3dfcebc6	0.12349658
48	0x3e680d92	0.22661427
49	0xbdc85dbe	-0.09783505
50	0xbc89ea04	-0.01683522
51	0xbe41da10	-0.1893084
52	0x3d2297ac	0.039695427
53	0xbd7cacba	-0.061688162
54	0x3d5f4a2a	0.054514088
55	0x3db19afe	0.086721405
56	0x3e43a016	0.19104037
57	0x3c0025e9	0.0078215385
58	0x3d3564c0	0.044285536
59	0x3d83386a	0.064072445
60	0xbe493443	-0.19648843
61	0xbd832b83	-0.064047836
62	0x3ced2d05	0.028952131
63	0xbe4c5dab	-0.19957606
64	0xbe52faa9	-0.20603432
65	0xbe09656d	-0.13417597
66	0x3e46f311	0.1942866
67	0xbe4f7724	-0.20260292
68	0x3e904745	0.28179374
69	0x3ba9cfe5	0.0051822537
70	0xbd8cd5a8	-0.06876689
71	0xbd3d0670	-0.046148717
72	0xbcafe43a	-0.021471132
73	0xbe77cfc7	-0.24200355
74	0x3e5c1857	0.2149366
75	0x3eb21f6b	0.34789595
76	0x3dbdacec	0.09261498
77	0x3d41e280	0.047335148
78	0x3decb89c	0.11558649
79	0xbcd4aaf0	-0.025960416
80	0xbe34d00c	-0.17657489
81	0xbd527e8c	-0.051390216
82	0x3e9448ee	0.2896189
83	0x3d723f82	0.059142597
84	0x3ec797bd	0.38982955
85	0x3e27c8a3	0.1638513
86	0x3e797610	0.24361444
87	0x3e98b745	0.29827324
88	0xbd075b15	-0.033045847
89	0xbe59f611	-0.21285273
90	0x3e77d0ea	0.24200788
91	0xbd7721bb	-0.060334902
92	0x3e5f98be	0.2183561
93	0x3e388718	0.18020284
94	0xbd9ae602	-0.07563402
95	0x3e0e57fd	0.13900752
96	0x3d8df622	0.06931712
97	0xbe4198be	-0.18905923
98	0x3e070cd3	0.13188486
99	0x3ba0c43c	0.0049062055
100	0xbdf99c6f	-0.121880405
101	0x3d4b2c52	0.049602814
102	0x3e088456	0.13331732
103	0x3df3be12	0.119014874
104	0x3ddf7522	0.10911013
105	0x3e349b65	0.17637403
106	0xbe2d28a4	-0.16910034
107	0x3e88abe8	0.26693654
108	0x3c52a024	0.012855563
109	0xbe0b1004	-0.13580328
110	0x3cb444f5	0.022005538
111	0xbd63eedb	-0.055647712
112	0x3e46fb81	0.19431879
113	0xbd336a61	-0.043802623
114	0xbd9db984	-0.077014
115	0x3cfd68f0	0.030933827
116	0xbe18ada9	-0.14909996
117	0xbe98c551	-0.2983804
118	0x3df0734c	0.11740741
119	0x3db7f73a	0.089827016
120	0xbdbfa1d3	-0.093570374
121	0x3deabcbd	0.1146178
122	0xbe8436c3	-0.2582303
123	0xbbb23f38	-0.005439665
124	0x3de7bf5e	0.11315797
125	0xbd85b187	-0.06528001
126	0x3e21628c	0.15760249
127	0x3d398e4b	0.045301717
128	0xbd0ad0d2	-0.033890553
129	0x3d8edb15	0.0697538
130	0xbccd0d0c	-0.025030635
131	0x3e311454	0.17292911
132	0xbe32a8c3	-0.1744719
133	0xbdde8a78	-0.108662546
134	0x3c5f78ae	0.013639612
135	0x3d36080c	0.044441268
136	0x3e823fed	0.25439397
137	0xbd6cb748	-0.057791978
138	0xbb1b6470	-0.0023710988
139	0xbe364f49	-0.17803682
140	0xbea76a46	-0.32698268
141	0x3e086f98	0.1332382
142	0xbc8e72cc	-0.017388724
143	0x3e3e6a28	0.18595183
144	0x3d9392f2	0.07205762
145	0xbd0be43f	-0.03415322
146	0x3d36a400	0.044589996
147	0x3d43ef73	0.04783578
148	0x3da771c5	0.08175997
149	0xbe9a77f4	-0.30169642
150	0xbcdb30f0	-0.026756734
151	0x3d18ee04	0.037336364
152	0xbe0d3390	-0.13789201
153	0x3da9fd42	0.08300258
154	0x3e048f10	0.12945199
155	0xbe42ffc0	-0.19042873
156	0xbe5dae2f	-0.21648477
157	0xbcb44565	-0.022005746
158	0xbda5f941	-0.08104182
159	0x3d90d1b6	0.07071249
160	0x3c237ce8	0.00997851
161	0x3c2ef2a9	0.010677972
162	0xbe189bf5	-0.14903243
163	0x3e494317	0.19654499
164	0x3e9ba409	0.30398586
165	0x3e4eb04b	0.20184438
166	0x3e0f8852	0.14016846
167	0x3e0b17f7	0.1358336
168	0x3def415c	0.11682388
169	0xbda0e875	-0.07856838
170	0xbe5164d3	-0.20448618
171	0xbdffbe35	-0.12487451
172	0xbd67a591	-0.05655438
173	0xbd0a7dbb	-0.033811312
174	0x3d290bb1	0.041270915
175	0x3dab27ad	0.08357177
176	0x3c9258fa	0.017864693
177	0x3b522325	0.0032064405
178	0xbe813ec7	-0.25243208
179	0x3c5337f9	0.012891763
180	0x3e222354	0.15833789
181	0x3d91b0b4	0.071137816
182	0xbe5c7475	-0.215288
183	0x3d979db2	0.07403125
184	0x3c086a6c	0.008326154
185	0xbe2ae2b2	-0.1668804
186	0xbe9992ad	-0.29994717
187	0x3e166ecf	0.14690708
188	0xbc7b7319	-0.015347266
189	0xbdd798cd	-0.10527191
190	0x3e0f1b18	0.13975179
191	0xbe2789e5	-0.16361196
192	0x3e10d7a1	0.14144756
193	0x3d8f6bc3	0.07002976
194	0x3d51f810	0.05126196
195	0xbe94a199	-0.2902954
196	0x3e3c888c	0.18411463
197	0x3d5af839	0.05345938
198	0x3dd1612e	0.10223614
199	0xbd99fce9	-0.07518942
200	0x3e3fb994	0.18723136
201	0xbda79fba	-0.08184762
202	0x3e77c52d	0.2419631
203	0xbe17541d	-0.1477818
204	0xbdffb581	-0.12485791
205	0x3e135d4d	0.1439106
206	0x3e500159	0.20313014
207	0xbe3edf04	-0.18639761
208	0xbbabe977	-0.005246337
209	0x3e8ba2ba	0.27272588
210	0x3daa9119	0.083284564
211	0x3e137ade	0.14402339
212	0x3e12b47c	0.14326662
213	0xbe16e5fa	-0.14736167
214	0xbdf68df4	-0.12038794
215	0x3c5521f5	0.013008584
216	0xbc90d2df	-0.017678676
217	0x3db42e98	0.087979496
218	0xbe12acc9	-0.14323725
219	0xbdf314c6	-0.118691966
220	0xbe253cf9	-0.1613654
221	0x3cca6619	0.024706887
222	0xbd99f76a	-0.075178936
223	0x3e637d6a	0.2221581
224	0x3dc09c98	0.09404868
225	0x3c81c625	0.015841553
226	0x3b1e7b60	0.0024182424
227	0xbe320d88	-0.17387974
228	0xbd57e3be	-0.052707426
229	0x3c6d05f4	0.014466751
230	0x3dd53c04	0.10411838
231	0x3c91d000	0.017799377
232	0x3e517408	0.20454419
233	0xbe46b232	-0.19403914
234	0xbd93add5	-0.0721089
235	0x3dfe924b	0.12430247
236	0x3de7b667	0.11314087
237	0x3e0dcd54	0.13847858
238	0x3e20d593	0.15706472
239	0x3dedacc5	0.11605219
240	0x3d9b98b5	0.07597486
241	0x3e3b7954	0.18308002
242	0xbe17b4dd	-0.14815088
243	0xbbfaa852	-0.00764946
244	0x3cf89b64	0.030347534
245	0x3d415711	0.047202174
246	0xbd1e3403	-0.03862382
247	0x3e64a3c6	0.223281
248	0x3d46624e	0.048433594
249	0x3e3d7adb	0.18503897
250	0x3c0c5e21	0.008567364
251	0xbce38e51	-0.027777823
252	0x3d4c1db0	0.049833
253	0x3d8105c3	0.06299927
254	0xbd731bf2	-0.059352823
255	0xbe44e573	-0.19228153

network_body.lstm.lstm.weight_hh_l0 f4 [256, 64]
0	0xbcd86243	-0.026414042
1	0x3e315ce4	0.17320591
2	0x3e41351f	0.1886792
3	0x3cd88168	0.026428893
4	0x3e42041a	0.18946877
5	0x3e06a5a6	0.13149127
6	0x3e4289ff	0.18997954
7	0x3d94f3fa	0.07273097
8	0xbe9184d8	-0.28421664
9	0xbdf936ce	-0.12168656
10	0x3e06341b	0.13105814
11	0xbd6c861d	-0.057745088
12	0xbe25ced6	-0.16192183
13	0x3e4cef2e	0.20013115
14	0x3e1ea18d	0.15491314
15	0xbe1327d8	-0.14370668
16	0xbdcb5c49	-0.09929711
17	0xbf1ebcec	-0.6200702
18	0x3d50398a	0.050836124
19	0x3e650594	0.22365409
20	0xbdde888d	-0.10865889
21	0xbc3e99ca	-0.011633346
22	0x3dfe471b	0.12415906
23	0xbda78503	-0.08179667
24	0x3d660ff2	0.05616755
25	0x3c0f916a	0.008762697
26	0x3da3ff40	0.080076694
27	0x3e38af89	0.18035711
28	0xbd40c26e	-0.047060423
29	0x3e56fac3	0.20994096
30	0x3e47c618	0.1950916
31	0x3e40275a	0.18765011
32	0x3e13adf1	0.14421822
33	0xbe0e2917	-0.13882862
34	0xbd169b97	-0.036769476
35	0x3cfde62e	0.030993547
36	0xbe4336bd	-0.1906385
37	0x3d7fbe24	0.06243719
38	0x3d60423a	0.05475066
39	0x3d587151	0.052842442
40	0xbe3a6ff9	-0.18206777
41	0xbd2e82c4	-0.042605177
42	0x3d62d204	0.055376068
43	0x3e124ffd	0.14288326
44	0xbbfd48ae	-0.0077296114
45	0x3e49705e	0.19671771
46	0xbe11937e	-0.1421642
47	0x3bff8e50	0.0077989474
48	0x3ec00dce	0.37510532
49	0xbe1905c8	-0.14943612
50	0x3e7b5190	0.24542832
51	0x3df94bd4	0.12172666
52	0xbe028eea	-0.1274983
53	0xbc8e11f4	-0.017342545
54	0x3e50e58e	0.20400068
55	0x3ddb3d4f	0.10705053
56	0x3dcb4020	0.0992434
57	0xbe71c97f	-0.23612021
58	0xbde14660	-0.10999751
59	0x3d03a398	0.032138437
60	0x3e8d9a0b	0.27656588
61	0x3e76c790	0.24099565
62	0xbed578cb	-0.4169372
63	0xbbb42b55	-0.0054983296
64	0x3eaed2c5	0.3414518
65	0xbdaa15ed	-0.08304963
66	0xbcdd2a87	-0.026997818
67	0x3d14912d	0.036271263
68	0xbebae8cf	-0.36505744
69	0xbe9e7a53	-0.309527
70	0xbdacccdf	-0.084375136
71	0x3e38c85f	0.18045186
72	0x3d2e4167	0.04254284
73	0x3e09c3c8	0.13453591
74	0xbe5a037f	-0.21290396
75	0x3c301e77	0.010749451
76	0xbe13f2a9	-0.14448036
77	0xbe49fd96	-0.19725642
78	0x3df4762e	0.119366035
79	0xbf0d93f5	-0.5530389
80	0x3dcf7dfb	0.10131451
81	0x3d8301fc	0.06396863
82	0x3e22c405	0.15895088
83	0x3eb34631	0.3501449
84	0x3e1c652a	0.15272966
85	0x3e13cbd8	0.14433229
86	0x3f01cbd9	0.5070167
87	0xbe238e63	-0.15972285
88	0xbd365e5a	-0.044523574
89	0x3dc3e225	0.09564618
90	0xbd180ded	-0.037122656
91	0xbe8af9b2	-0.27143627
92	0xbe1a48b4	-0.15066797
93	0xbe09fe37	-0.13475882
94	0x3bc966d1	0.00614629
95	0xbddc6a1f	-0.107624285
96	0x3e1dfa5c	0.15427536
97	0x3e8fa916	0.2805869
98	0xbe4d470c	-0.20046633
99	0x3e1a6b50	0.15079999
100	0x3e77f264	0.24213558
101	0x3d1c1e6c	0.03811495
102	0xbd190555	-0.0373586
103	0xbe4994a0	-0.19685602
104	0x3f051265	0.5198119
105	0x3e5fa6a7	0.21840917
106	0xbe4fdfcb	-0.20300214
107	0xbe5b0aec	-0.21390885
108	0xbe8f44a6	-0.27982062
109	0xbd5b889c	-0.053597078
110	0x3efe4716	0.4966361
111	0x3ebfa879	0.37433222
112	0x3e0cb41d	0.13740583
113	0xbd7434e3	-0.05962075
114	0xbc486e08	-0.012233265
115	0xbd3f939e	-0.046771638
116	0xbc92af2c	-0.017905794
117	0x3d36762e	0.0445463
118	0x3db66c4f	0.08907377
119	0x3e27c8d4	0.16385204
120	0x3e632928	0.22183669
121	0xbe1bbe71	-0.15209366
122	0xbc28a0b4	-0.010292221
123	0x3f12b751	0.5731097
124	0xbdda68a2	-0.106644884
125	0xbdfbc30d	-0.12293062
126	0xbda0e194	-0.078555256
127	0x3e97ab0c	0.29622686
128	0xbebd2cd6	-0.3694827
129	0xbdfe5ac6	-0.124196574
130	0x3e068350	0.13136029
131	0x3de19080	0.11013889
132	0x3de4cb4d	0.11171589
133	0xbe2f4d0e	-0.17119238
134	0x3e151856	0.14560065
135	0xbdc4c4b6	-0.09607832
136	0x3b495f9a	0.003072715
137	0x3d4fc3ce	0.050723843
138	0xbe910911	-0.2832723
139	0xbd71e637	-0.05905744
140	0x3df5540d	0.11978922
141	0xbb3d0189	-0.0028840026
142	0xbe7724cf	-0.24135135
143	0x3d82f337	0.06394046
144	0x3ddb6f35	0.107145704
145	0xbf4c6e6a	-0.7985598
146	0xbdabd7f4	-0.08390799
147	0x3c2c3f85	0.010513191
148	0xbd076808	-0.033058196
149	0xbe372fcc	-0.17889327
150	0x3e5dec19	0.21672095
151	0xbd639a59	-0.05556712
152	0x3dd50d79	0.1040296
153	0xb92c7a62	-0.0001644879
154	0xbd299f30	-0.04141158
155	0x3b835618	0.004008066
156	0x3dbcb69e	0.09214519
157	0x3e772fd3	0.24139337
158	0xbd778c1a	-0.060436346
159	0x3e74a2f2	0.23890284
160	0xbe6aeaf0	-0.22941184
161	0x3e92375d	0.28557864
162	0xbddc8a58	-0.107685745
163	0x3c82a906	0.015949737
164	0x3d31106e	0.04322856
165	0xbcf1c213	-0.029511487
166	0x3b6ba90a	0.003595891
167	0x3cb08239	0.02154647
168	0xbde7b7c2	-0.11314346
169	0x3e61bf1b	0.22045557
170	0x3e66c5ab	0.22536342
171	0xbdcd7163	-0.100313924
172	0x3d67215d	0.056428302
173	0xbd34a490	-0.04410225
174	0xbddbb886	-0.107285544
175	0x3e8b780b	0.27240023
176	0xbe45d772	-0.19320467
177	0x3c870bad	0.01648506
178	0x3cc8b6a8	0.02450116
179	0x3db64e58	0.08901662
180	0xbc0b4707	-0.008500821
181	0x3d7b3b75	0.061336
182	0xbe1453e1	-0.14485122
183	0x3b95b6f6	0.00456893
184	0xbcd48ef5	-0.025947073
185	0xbe06ea04	-0.13175207
186	0x3e248358	0.16065729
187	0x3de8bdb6	0.113643095
188	0xbe124ad7	-0.14286362
189	0x3dae1f1c	0.085020274
190	0xbe06c348	-0.13160431
191	0x3e10edd5	0.14153226
192	0xbcc30c22	-0.023809496
193	0xbd71cdcb	-0.05903415
194	0xbcd6a36f	-0.026200978
195	0xbdba31c3	-0.090915225
196	0xbd0a0957	-0.033700313
197	0xbcb91f20	-0.02259785
198	0xbd5a0930	-0.053231418
199	0xbdcadef5	-0.09905807
200	0xbdaee7fb	-0.085403405
201	0x3e52c8e4	0.20584446
202	0xbdd749e7	-0.10512143
203	0x3e6caed3	0.23113565
204	0xbcc5fe8c	-0.024169229
205	0x3d94ae97	0.07259863
206	0xbde763e1	-0.11298347
207	0x3d6dd756	0.05806669
208	0x3d97f28b	0.07419308
209	0x3e3b3131	0.18280484
210	0xbe017095	-0.12640603
211	0xbc43cf19	-0.011951231
212	0xbd82ff1d	-0.06396315
213	0xbe25dc5a	-0.16197339
214	0x3d428c71	0.047497217
215	0x3e04647d	0.12928958
216	0xbe8dcdf5	-0.27696195
217	0xbda190ab	-0.07888921
218	0xbdd99bc0	-0.1062541
219	0xbdfb2b29	-0.122640915
220	0x3e7dcd94	0.24785453
221	0x3e4126ef	0.18862508
222	0x3d83820b	0.06421288
223	0x3e58035a	0.21095029
224	0xbda57648	-0.08079201
225	0x3db6a1d5	0.08917586
226	0xbdea097b	-0.114275895
227	0x3d5af29b	0.053454023
228	0x3e649d79	0.22325696
229	0x3d0be382	0.034152515
230	0xbdfd0af3	-0.12355604
231	0xbdf11dc6	-0.11773257
232	0x3d10becd	0.03533821
233	0xbdd1b035	-0.10238687
234	0x3e184f2b	0.1487395
235	0xbe633095	-0.22186501
236	0x3d0b2f5e	0.03398072
237	0x3d787ab8	0.06066391
238	0xbd681d47	-0.056668546
239	0xbe288a5c	-0.1645903
240	0x3e060d4c	0.1309101
241	0xbe378d81	-0.17925073
242	0xbde33a47	-0.110951
243	0x3b92c19b	0.004478646
244	0xbd68986a	-0.05678598
245	0x3deaeceb	0.1147097
246	0xbd969165	-0.073519506
247	0x3d470004	0.048584
248	0xbe3430b0	-0.17596698
249	0x3d8844b7	0.06653731
250	0x3e1d87f6	0.15383896
251	0xbdf10e36	-0.11770289
252	0xbe83c420	-0.2573557
253	0xbe30ab4d	-0.17252846
254	0xbdeedbd9	-0.11663026
255	0x3dddf35e	0.10837434

network_body.lstm.lstm.bias_ih_l0 f4 [256]
0	0x3d994040	0.07482958
1	0x3e1069ee	0.14102909
2	0x3d63bde0	0.055601
3	0x3d600fa4	0.054702416
4	0x3ca954b1	0.020670267
5	0xbd81f91f	-0.06346344
6	0x3e293f9c	0.16528171
7	0xbd63e110	-0.05563456
8	0x39a1f675	0.00030891938
9	0x3d3b1eb0	0.045683563
10	0x3d247864	0.040153876
11	0x3b5104e7	0.0031893791
12	0x3c751402	0.0149583835
13	0xbe293da3	-0.16527419
14	0xbdd425f5	-0.10358802
15	0x3ec6c7c9	0.388243
16	0x3d59daad	0.05318706
17	0xbc805e53	-0.015669977
18	0x3cbd7f0e	0.023131873
19	0xbd774fcf	-0.060378846
20	0x3d203e1c	0.039121732
21	0x3dbfca73	0.09364786
22	0x3f008b5e	0.5021266
23	0x3d5ebf7b	0.05438183
24	0x3c2e2cbb	0.010630782
25	0xbdfa3478	-0.12217039
26	0x3aefdae5	0.0018299489
27	0x3d6a7ab6	0.057245933
28	0x3d820363	0.06348302
29	0x3d19a4c2	0.03751064
30	0x3c55ebf2	0.013056742
31	0x3e58e1ab	0.21179835
32	0x3c8542ea	0.016267259
33	0x3d97cb90	0.07411873
34	0x3c4bf506	0.012448555
35	0xbe8f14fb	-0.27945694
36	0x3c822a9b	0.015889456
37	0xbcae4125	-0.021271298
38	0x3d8a300d	0.06747446
39	0x3ef83cd1	0.484839
40	0x3ec7cf3f	0.39025304
41	0xbd9238dc	-0.07139751
42	0x3c1dc5e8	0.009629704
43	0x3d8680d0	0.06567538
44	0x3cf22c14	0.029562034
45	0x3cfc2696	0.030780118
46	0x3ebc4469	0.36770943
47	0xbd25d295	-0.04048403
48	0xbd09bff0	-0.03363031
49	0x3da8bc98	0.082390964
50	0x3e064d18	0.13115346
51	0x3d9cf9bb	0.0766482
52	0x3dd9804b	0.10620173
53	0xbccabb35	-0.02474747
54	0xbd60ff6b	-0.054931086
55	0x3e290360	0.16505194
56	0x3e45ca3c	0.19315428
57	0x3e0e8cfa	0.13920966
58	0xbe7e0e7f	-0.24810217
59	0x3ee646e2	0.44975954
60	0x3c2fe97e	0.010736821
61	0x3c8609a2	0.016362015
62	0x3dbb05f7	0.09131997
63	0x3d9c19e2	0.07622124
64	0x3f81e003	1.0146488
65	0x3f792943	0.97328585
66	0x3f8b5637	1.0885686
67	0x3f8c33a2	1.0953257
68	0x3f7b25ac	0.9810436
69	0x3f6f74be	0.9353751
70	0x3f88cd0e	1.0687578
71	0x3f8c9746	1.0983665
72	0x3f860b48	1.0472193
73	0x3f81f6ca	1.0153439
74	0x3f8a2d36	1.0795047
75	0x3f8750c8	1.0571527
76	0x3f86d168	1.0532656
77	0x3f53d997	0.8275389
78	0x3f646885	0.89221984
79	0x3f7aed88	0.98018694
80	0x3f827d15	1.0194422
81	0x3f88a20a	1.067445
82	0x3f870a79	1.0550071
83	0x3f70b540	0.94026566
84	0x3f899746	1.074929
85	0x3f7d5bf1	0.98968416
86	0x3f77dc66	0.96820676
87	0x3f7b6484	0.9820025
88	0x3f859bfe	1.043823
89	0x3f54ccb0	0.8312483
90	0x3f85bc39	1.0448066
91	0x3f838f2f	1.0278071
92	0x3f88561f	1.0651282
93	0x3f89033a	1.070411
94	0x3f877cb3	1.058493
95	0x3f7a730c	0.978318
96	0x3f898a86	1.0745399
97	0x3f8959d5	1.073054
98	0x3f8a0775	1.0783526
99	0x3f74ecf4	0.9567406
100	0x3f864025	1.0488325
101	0x3f87e019	1.0615264
102	0x3f847395	1.0347773
103	0x3f7696d3	0.9632389
104	0x3f7bee00	0.98410034
105	0x3f976ec7	1.1830682
106	0x3f80b194	1.0054193
107	0x3f80a8c1	1.00515
108	0x3f83bd97	1.0292233
109	0x3f88070f	1.0627154
110	0x3f76bb30	0.96379375
111	0x3f8befc0	1.0932541
112	0x3f975bb6	1.1824863
113	0x3f7bbf26	0.98338544
114	0x3f7e3f98	0.99315786
115	0x3f86f9a7	1.0544938
116	0x3f832f5e	1.024883
117	0x3f89dc61	1.0770379
118	0x3f8028b7	1.0012425
119	0x3f7ddf51	0.9916888
120	0x3f88177c	1.0632167
121	0x3f898eac	1.0746665
122	0x3f715c36	0.9428133
123	0x3f71fb97	0.9452452
124	0x3f8467b8	1.0344152
125	0x3f8220aa	1.0166218
126	0x3f859b90	1.0438099
127	0x3f846672	1.0343764
128	0xbd82afbd	-0.06381176
129	0x3e9516e3	0.29119024
130	0x3e247181	0.16058923
131	0x3d06b806	0.032890342
132	0x3cc5756f	0.024103848
133	0xbd2546e5	-0.040350813
134	0xbd756e27	-0.059919503
135	0xbc375e2f	-0.011191889
136	0xbd356473	-0.04428525
137	0x3d37031b	0.044680696
138	0x3cbcf7b6	0.023067337
139	0x3c82ad72	0.015951846
140	0xbbf69c2a	-0.0075259404
141	0xbe271c9e	-0.1631951
142	0xbd12f87c	-0.035881504
143	0x3d4534c9	0.048146043
144	0xbcf05d33	-0.029341316
145	0xbe4dc7fe	-0.20095822
146	0xbd82a369	-0.06378824
147	0xbcd74142	-0.026276235
148	0xbe2c45f6	-0.16823563
149	0xbd55382b	-0.05205552
150	0xbd42144f	-0.04738265
151	0xbd804260	-0.0626266
152	0x3b1b6666	0.0023712157
153	0xbd5cf24f	-0.05394202
154	0xbd198b6b	-0.037486475
155	0xbb0797ac	-0.0020689769
156	0xbc64abf9	-0.013957017
157	0xbcd72b8d	-0.026265884
158	0x3caead47	0.02132286
159	0x3b0bb8bf	0.0021319834
160	0xbd366fb5	-0.044540126
161	0xbd1aea58	-0.037821144
162	0x3cbcf83f	0.023067592
163	0xbd9265f6	-0.07148354
164	0xbd253a7e	-0.040338986
165	0x3d423f1a	0.04742346
166	0xbcbd27f7	-0.023090346
167	0x3d71839b	0.0589634
168	0xbc6348b1	-0.013872311
169	0x3df472f7	0.1193599
170	0xbd4dd43b	-0.050251227
171	0x3b1eb97f	0.002421945
172	0xbcb0b5c8	-0.021571055
173	0x3d37c1f4	0.044862702
174	0x3d29db80	0.041469097
175	0x3e3eef63	0.18646006
176	0x3d0338cb	0.032036584
177	0x3c992010	0.018692046
178	0x3e012ae2	0.12614015
179	0x3cddebd4	0.02708999
180	0xbd21610f	-0.039399203
181	0xbc9fd050	-0.01950851
182	0x3d70a9a9	0.05875555
183	0x3c1dd7f6	0.009634009
184	0xbd3e121b	-0.046403985
185	0xbe16618e	-0.14685652
186	0x3d1bcdf6	0.038038217
187	0x3d5b7a7e	0.053583615
188	0x3c237f1a	0.009979034
189	0x3c05f327	0.008175648
190	0xbc9119e8	-0.017712548
191	0xbd19045d	-0.037357677
192	0xbea719c8	-0.32636857
193	0x3e1a41eb	0.15064208
194	0x3eb9004e	0.36133045
195	0xbd9d800f	-0.07690441
196	0xbb83b6fe	-0.004019617
197	0xbd112964	-0.035439864
198	0x3e332da1	0.17497875
199	0xbe1b5c9b	-0.15172045
200	0xbdc5e8b7	-0.096635275
201	0x3c79a512	0.01523711
202	0x3e4992c4	0.19684893
203	0xbe0ba648	-0.1363765
204	0xbcdd07ba	-0.026981223
205	0xbd6abb21	-0.057307366
206	0xbd6d314d	-0.057908345
207	0x3ebd9ac3	0.37032136
208	0xbe810ad9	-0.2520359
209	0x3e8555d7	0.26042053
210	0x3b6ef0cc	0.0036459444
211	0x3da531d6	0.08066146
212	0x3c61b4ef	0.013776048
213	0x3d5ded13	0.05418117
214	0x3ddda792	0.10822977
215	0xbcde4df1	-0.027136775
216	0x3e482d9e	0.19548652
217	0x3d85d051	0.06533874
218	0xbd26c028	-0.0407106
219	0x3d285511	0.04109675
220	0xbd7ab43d	-0.061207045
221	0xbe01d176	-0.1267756
222	0xbd57705a	-0.05259738
223	0xbdb6d0f2	-0.08926572
224	0xbc6a0509	-0.014283427
225	0x3dc631d6	0.09677474
226	0xbc194c63	-0.009356591
227	0xbe2b2622	-0.16713765
228	0x3e375717	0.17904316
229	0xbe0fcd35	-0.14043124
230	0xbe37abd2	-0.17936638
231	0x3e06efe5	0.1317745
232	0x3ebbd920	0.3668909
233	0x3e368254	0.17823154
234	0xbd7e6be4	-0.06211461
235	0x3dcf8bf4	0.10134116
236	0x3db60d20	0.08889222
237	0xbc28d01b	-0.010303522
238	0x3ea762df	0.3269262
239	0x3e8d0ba9	0.27547958
240	0x3c802575	0.01564286
241	0x3e56bffd	0.20971675
242	0x3e29f450	0.16597104
243	0xbd4f31cd	-0.050584603
244	0xbe982f91	-0.2972379
245	0xbe89c993	-0.269116
246	0x3c3700f0	0.011169657
247	0x3b66b93d	0.0035205625
248	0x3b6ea623	0.0036414943
249	0x3c826cfb	0.015921107
250	0xbdc7b222	-0.09750773
251	0x3e43e716	0.19131121
252	0x3de6b85a	0.11265631
253	0x3d820076	0.06347744
254	0xbc17e90e	-0.009271873
255	0x3c8fbaf4	0.0175452

network_body.lstm.lstm.bias_hh_l0 f4 [256]
0	0x3d994032	0.074829474
1	0x3e1069e1	0.1410289
2	0x3d63bdcc	0.055600926
3	0x3d600f9a	0.05470238
4	0x3ca95488	0.02067019
5	0xbd81f929	-0.06346352
6	0x3e293f99	0.16528167
7	0xbd63e110	-0.05563456
8	0x39a1f7f2	0.00030893047
9	0x3d3b1eac	0.045683548
10	0x3d247862	0.04015387
11	0x3b510531	0.0031893963
12	0x3c7513fc	0.014958378
13	0xbe293db0	-0.16527438
14	0xbdd42601	-0.10358811
15	0x3ec6c7cb	0.38824305
16	0x3d59daad	0.05318706
17	0xbc805e7a	-0.01567005
18	0x3cbd7f0a	0.023131866
19	0xbd775007	-0.060379054
20	0x3d203e29	0.03912178
21	0x3dbfca6e	0.09364782
22	0x3f008b5e	0.5021266
23	0x3d5ebf7f	0.054381844
24	0x3c2e2cab	0.010630767
25	0xbdfa3478	-0.12217039
26	0x3aefdac7	0.0018299454
27	0x3d6a7ab0	0.05724591
28	0x3d820362	0.063483015
29	0x3d19a4c5	0.037510652
30	0x3c55ebcd	0.013056708
31	0x3e58e1b0	0.21179843
32	0x3c8542ed	0.016267264
33	0x3d97cb91	0.07411874
34	0x3c4bf50a	0.012448559
35	0xbe8f14fb	-0.27945694
36	0x3c822aa1	0.015889468
37	0xbcae4127	-0.021271301
38	0x3d8a300e	0.06747447
39	0x3ef83cd4	0.48483908
40	0x3ec7cf33	0.39025268
41	0xbd9238df	-0.071397536
42	0x3c1dc5db	0.009629692
43	0x3d8680c9	0.065675326
44	0x3cf22c03	0.029562002
45	0x3cfc2696	0.030780118
46	0x3ebc4461	0.3677092
47	0xbd25d2a1	-0.040484075
48	0xbd09bfe8	-0.03363028
49	0x3da8bc8f	0.0823909
50	0x3e064d18	0.13115346
51	0x3d9cf9b9	0.07664818
52	0x3dd98047	0.1062017
53	0xbccabb33	-0.024747467
54	0xbd60ff92	-0.05493123
55	0x3e29035b	0.16505186
56	0x3e45ca3a	0.19315425
57	0x3e0e8cfc	0.13920969
58	0xbe7e0e7f	-0.24810217
59	0x3ee646dc	0.44975936
60	0x3c2fe984	0.010736827
61	0x3c8609a4	0.016362019
62	0x3dbb05f9	0.091319986
63	0x3d9c19e2	0.07622124
64	0x3f81e001	1.0146486
65	0x3f792940	0.9732857
66	0x3f8b5637	1.0885686
67	0x3f8c33a3	1.0953258
68	0x3f7b25a6	0.9810432
69	0x3f6f74b8	0.93537474
70	0x3f88cd0e	1.0687578
71	0x3f8c9744	1.0983663
72	0x3f860b48	1.0472193
73	0x3f81f6ca	1.0153439
74	0x3f8a2d36	1.0795047
75	0x3f8750c9	1.0571529
76	0x3f86d168	1.0532656
77	0x3f53d996	0.82753885
78	0x3f646887	0.89221996
79	0x3f7aed81	0.9801865
80	0x3f827d16	1.0194423
81	0x3f88a20a	1.067445
82	0x3f870a79	1.0550071
83	0x3f70b53d	0.9402655
84	0x3f899746	1.074929
85	0x3f7d5bf2	0.9896842
86	0x3f77dc69	0.96820694
87	0x3f7b6485	0.98200256
88	0x3f859bfe	1.043823
89	0x3f54ccb1	0.83124834
90	0x3f85bc3a	1.0448067
91	0x3f838f2f	1.0278071
92	0x3f88561e	1.0651281
93	0x3f890339	1.0704108
94	0x3f877cb3	1.058493
95	0x3f7a7306	0.9783176
96	0x3f898a86	1.0745399
97	0x3f8959d4	1.0730538
98	0x3f8a0775	1.0783526
99	0x3f74ecf6	0.95674074
100	0x3f864025	1.0488325
101	0x3f87e019	1.0615264
102	0x3f847395	1.0347773
103	0x3f7696d2	0.96323884
104	0x3f7bedfe	0.9841002
105	0x3f976ec9	1.1830684
106	0x3f80b196	1.0054195
107	0x3f80a8c1	1.00515
108	0x3f83bd98	1.0292234
109	0x3f88070f	1.0627154
110	0x3f76bb2f	0.9637937
111	0x3f8befc1	1.0932542
112	0x3f975bb2	1.1824858
113	0x3f7bbf25	0.9833854
114	0x3f7e3f98	0.99315786
115	0x3f86f9a7	1.0544938
116	0x3f832f60	1.0248833
117	0x3f89dc61	1.0770379
118	0x3f8028b4	1.0012422
119	0x3f7ddf4d	0.99168855
120	0x3f88177d	1.0632168
121	0x3f898eac	1.0746665
122	0x3f715c36	0.9428133
123	0x3f71fb96	0.94524515
124	0x3f8467b8	1.0344152
125	0x3f8220a9	1.0166217
126	0x3f859b8e	1.0438097
127	0x3f846673	1.0343765
128	0xbd82afc8	-0.06381184
129	0x3e9516ea	0.29119045
130	0x3e247181	0.16058923
131	0x3d06b804	0.032890335
132	0x3cc57566	0.024103831
133	0xbd2546f0	-0.040350854
134	0xbd756e27	-0.059919503
135	0xbc375e3b	-0.0111919
136	0xbd356477	-0.044285264
137	0x3d370320	0.044680715
138	0x3cbcf7b4	0.023067333
139	0x3c82ad83	0.015951877
140	0xbbf69c1e	-0.007525935
141	0xbe271ca2	-0.16319516
142	0xbd12f87b	-0.0358815
143	0x3d4534b2	0.048145957
144	0xbcf05d31	-0.029341312
145	0xbe4dc802	-0.20095828
146	0xbd82a367	-0.06378823
147	0xbcd7411d	-0.026276166
148	0xbe2c45f4	-0.1682356
149	0xbd55382f	-0.052055534
150	0xbd421446	-0.047382616
151	0xbd804262	-0.062626615
152	0x3b1b6660	0.0023712143
153	0xbd5cf262	-0.05394209
154	0xbd198b6b	-0.037486475
155	0xbb07979c	-0.0020689731
156	0xbc64abf1	-0.01395701
157	0xbcd72b8c	-0.026265882
158	0x3caead48	0.021322861
159	0x3b0bb965	0.002132022
160	0xbd366fb7	-0.044540133
161	0xbd1aea59	-0.037821148
162	0x3cbcf83d	0.023067588
163	0xbd9265f2	-0.07148351
164	0xbd253a7d	-0.040338982
165	0x3d423f16	0.047423445
166	0xbcbd27f7	-0.023090346
167	0x3d718396	0.05896338
168	0xbc6348ad	-0.013872308
169	0x3df472f8	0.11935991
170	0xbd4dd43f	-0.05025124
171	0x3b1eb9a7	0.0024219544
172	0xbcb0b5d5	-0.02157108
173	0x3d37c1f6	0.04486271
174	0x3d29db6f	0.041469034
175	0x3e3eef69	0.18646015
176	0x3d0338d9	0.032036636
177	0x3c991ff2	0.01869199
178	0x3e012ae2	0.12614015
179	0x3cddebe0	0.027090013
180	0xbd216105	-0.039399166
181	0xbc9fd04e	-0.019508507
182	0x3d70a9a6	0.05875554
183	0x3c1dd824	0.0096340515
184	0xbd3e121f	-0.046404
185	0xbe16618d	-0.1468565
186	0x3d1bcdd0	0.038038075
187	0x3d5b7a7c	0.053583607
188	0x3c237efe	0.009979008
189	0x3c05f32f	0.008175655
190	0xbc9119e6	-0.017712545
191	0xbd19045c	-0.037357673
192	0xbea719d2	-0.32636887
193	0x3e1a41ec	0.1506421
194	0x3eb9004c	0.3613304
195	0xbd9d7fff	-0.07690429
196	0xbb83b798	-0.004019689
197	0xbd112970	-0.03543991
198	0x3e332db4	0.17497903
199	0xbe1b5cac	-0.1517207
200	0xbdc5e8bf	-0.096635334
201	0x3c79a4fa	0.015237087
202	0x3e4992c9	0.196849
203	0xbe0ba649	-0.13637652
204	0xbcdd0792	-0.026981149
205	0xbd6abb2a	-0.0573074
206	0xbd6d315f	-0.057908412
207	0x3ebd9ac7	0.37032148
208	0xbe810adb	-0.25203595
209	0x3e8555d8	0.26042056
210	0x3b6ef052	0.003645916
211	0x3da531d1	0.08066142
212	0x3c61b439	0.013775879
213	0x3d5ded21	0.054181222
214	0x3ddda7af	0.10822999
215	0xbcde4e10	-0.027136832
216	0x3e482da0	0.19548655
217	0x3d85d040	0.06533861
218	0xbd26c02f	-0.040710624
219	0x3d28550e	0.04109674
220	0xbd7ab42c	-0.06120698
221	0xbe01d171	-0.12677552
222	0xbd577077	-0.05259749
223	0xbdb6d0f5	-0.08926574
224	0xbc6a052a	-0.014283458
225	0x3dc631d6	0.09677474
226	0xbc194c7f	-0.009356617
227	0xbe2b262a	-0.16713777
228	0x3e375717	0.17904316
229	0xbe0fcd28	-0.14043105
230	0xbe37abda	-0.1793665
231	0x3e06efdf	0.13177441
232	0x3ebbd91a	0.36689073
233	0x3e368253	0.17823152
234	0xbd7e6bc0	-0.062114477
235	0x3dcf8bf1	0.101341136
236	0x3db60d22	0.08889224
237	0xbc28d02e	-0.01030354
238	0x3ea762d5	0.3269259
239	0x3e8d0baa	0.2754796
240	0x3c802587	0.015642894
241	0x3e56bfed	0.20971651
242	0x3e29f478	0.16597164
243	0xbd4f31a8	-0.050584465
244	0xbe982f8d	-0.29723778
245	0xbe89c993	-0.269116
246	0x3c3700fe	0.01116967
247	0x3b66b809	0.0035204908
248	0x3b6ea630	0.0036414973
249	0x3c826d06	0.015921127
250	0xbdc7b224	-0.097507745
251	0x3e43e70b	0.19131105
252	0x3de6b87f	0.112656586
253	0x3d820050	0.06347716
254	0xbc17e89b	-0.009271766
255	0x3c8fbad2	0.017545138

action_model._discrete_distribution.branches.0.weight f4 [2, 64]
0	0x3dde6e8b	0.10860928
1	0xbec1f027	-0.37878534
2	0xbe889922	-0.2667933
3	0x3e287c9b	0.16453783
4	0x3efa13d1	0.48843244
5	0x3e787e42	0.24266914
6	0x3ea65cf4	0.32492793
7	0xbe321091	-0.17389132
8	0xbe9ac683	-0.30229577
9	0x3eb1dfb8	0.34740996
10	0xbe0f72ca	-0.14008632
11	0x3e5298b2	0.20566061
12	0xbe9555cb	-0.29167017
13	0xbea7e4bf	-0.32791707
14	0xbe896529	-0.26834992
15	0x3f08c992	0.5343257
16	0xbe327029	-0.17425598
17	0x3e037e2e	0.12841102
18	0xbeb87420	-0.36026096
19	0xbe182e85	-0.14861496
20	0xbe871f63	-0.26391134
21	0xbed75114	-0.42054045
22	0xbefe23c7	-0.4963667
23	0xbeaa85df	-0.3330526
24	0xbd8d4f28	-0.068998635
25	0x3e90e211	0.28297475
26	0xbea39361	-0.3194838
27	0x3eb120c4	0.3459531
28	0x3c964821	0.01834494
29	0x3e01bdbe	0.12670037
30	0x3e8453cc	0.25845182
31	0x3e069764	0.13143688
32	0xbebdfeff	-0.3710861
33	0x3de88599	0.11353607
34	0x3e885032	0.26623684
35	0x3eb47dab	0.35252127
36	0x3dd1f20d	0.10251246
37	0xbda67f2a	-0.08129723
38	0xbe9e8d5c	-0.30967224
39	0x3eded3d0	0.43520975
40	0xbed29327	-0.41127893
41	0xbeb3e40a	-0.35134917
42	0x3d8e7ded	0.06957612
43	0x3e284bbb	0.16435139
44	0x3ed84ed1	0.42247632
45	0x3ea4a1bc	0.32154644
46	0xbee7699b	-0.45197758
47	0xbeb906c0	-0.36137962
48	0x3e93f9a3	0.28901395
49	0x3e4e7121	0.20160343
50	0xbe5c9fd2	-0.21545342
51	0x3ddcb423	0.10776546
52	0x3e69841e	0.22804305
53	0xbe32de24	-0.17467552
54	0x3eb8e93f	0.36115453
55	0x3e7f5035	0.2493294
56	0xbe8bc9b2	-0.2730232
57	0xbe106660	-0.14101553
58	0x3e947edd	0.2900304
59	0xbf2f3d4c	-0.68452907
60	0xbe400c16	-0.1875461
61	0x3ea4d875	0.32196394
62	0xbdde12d6	-0.108434364
63	0xbe5c4200	-0.21509552
64	0xbdb78781	-0.08961392
65	0x3ec1c8fb	0.37848648
66	0x3e9c0bb1	0.3047767
67	0xbe30a92f	-0.17252038
68	0xbef70a4d	-0.48250046
69	0xbe81851f	-0.25296876
70	0xbea95a7f	-0.33076856
71	0x3e2e0765	0.16995008
72	0x3e960394	0.29299605
73	0xbeb8fdf9	-0.36131266
74	0x3df31d70	0.11870849
75	0xbe5f0abe	-0.21781442
76	0x3e87395c	0.2641095
77	0x3ea32efc	0.31871784
78	0x3e84999a	0.2589844
79	0xbf0bf700	-0.5467377
80	0x3e34904c	0.1763317
81	0xbe065d8e	-0.13121626
82	0x3eb40d4f	0.35166404
83	0x3e16b34c	0.14716834
84	0x3e6814be	0.22664163
85	0x3ecef292	0.4041944
86	0x3efed7d7	0.49774048
87	0x3eb57d03	0.3544694
88	0x3dd44269	0.10364229
89	0xbe9a655c	-0.30155456
90	0x3ebcc91c	0.36872184
91	0xbeb15bf1	-0.34640458
92	0xbd149500	-0.03627491
93	0xbe183e29	-0.14867462
94	0xbe894472	-0.26810032
95	0xbde788f8	-0.113054216
96	0x3ec14aec	0.37752473
97	0xbdfb3e30	-0.12267721
98	0xbe8d889a	-0.2764328
99	0xbeac84f4	-0.33695185
100	0xbde090d3	-0.10965123
101	0x3dad714f	0.084688775
102	0x3e9de61b	0.3083962
103	0xbed31241	-0.41224864
104	0x3ed0d311	0.4078603
105	0x3eb3c326	0.35109824
106	0xbda27e9e	-0.079343066
107	0xbe316ffb	-0.17327873
108	0xbee18650	-0.44047785
109	0xbe93c5b6	-0.2886178
110	0x3ef61ec6	0.48070353
111	0x3ebcd04d	0.3687767
112	0xbe9254b3	-0.28580245
113	0xbe511143	-0.20416741
114	0x3e5e8458	0.21730173
115	0xbde0de34	-0.10979882
116	0xbe64068a	-0.2226812
117	0x3e3d4129	0.18481888
118	0xbeb5187a	-0.35370237
119	0xbe7db2ed	-0.24775286
120	0x3e9cbd26	0.3061306
121	0x3dfc3e40	0.12316561
122	0xbea65317	-0.32485268
123	0x3f27a246	0.65481985
124	0x3e48c74f	0.1960728
125	0xbea0ca34	-0.3140427
126	0x3de6a49e	0.11261867
127	0x3e72fe19	0.23729743

action_model._discrete_distribution.branches.0.bias f4 [2]
0	0xbd57501b	-0.05256663
1	0x3d5769dc	0.05259119
